models/classification/control/mnist/mnist_4v5_2qubits_r2.pt (torch, 207416 bytes, 10 tensors)

conv1.weight f4 [2, 1, 5, 5]
0	0xbe2e3bd3	-0.17015009
1	0x3d93a36e	0.07208906
2	0xbc5d5a0f	-0.013510241
3	0xbda69a69	-0.0813492
4	0x3e1bee98	0.15227735
5	0xbe523b7c	-0.20530504
6	0xbdcc6c38	-0.099815786
7	0x3e18a6a5	0.1490732
8	0x3e332d5f	0.17497776
9	0xbd0f31e2	-0.03495968
10	0xbdceb8b9	-0.10093827
11	0xbe58d774	-0.21175939
12	0xbe8ec237	-0.2788255
13	0xbd997c1c	-0.07494375
14	0xbd5d3734	-0.054007724
15	0xbca0b699	-0.01961832
16	0xbdaf9292	-0.08572878
17	0xbe0b15cc	-0.13582534
18	0xbdbf665f	-0.093456976
19	0x3cdb3a08	0.02676107
20	0x3d940440	0.07227373
21	0x3df2d2a5	0.118565835
22	0xbbce0cb5	-0.006288136
23	0xbe3cd6ff	-0.1844139
24	0xbcab416b	-0.020905217
25	0x3dad5fc0	0.084655285
26	0xbd30e9a3	-0.043191563
27	0xbdc06616	-0.09394471
28	0x3e320392	0.17384174
29	0xbe04a455	-0.12953313
30	0xbd342abd	-0.04398607
31	0x3e64a7c6	0.22329625
32	0xbe17cf2b	-0.14825122
33	0x3cceb8f7	0.025234682
34	0xbd42b7d7	-0.047538605
35	0xbda14cf8	-0.07876009
36	0x3c8c395f	0.0171172
37	0x3e39079f	0.18069313
38	0xbe164c4f	-0.14677547
39	0xbcb5dac4	-0.022199042
40	0xbdc66e90	-0.09689057
41	0x3e228a84	0.15873152
42	0xbde95dd3	-0.11394849
43	0x3da3bdb9	0.07995171
44	0xbc0a9cb8	-0.008460216
45	0xbe4dddb1	-0.201041
46	0x3e13521b	0.1438679
47	0xbd0bc293	-0.034121107
48	0xbd0ceefa	-0.034407593
49	0xbe24c04b	-0.16088979

conv1.bias f4 [2]
0	0x3e467832	0.19381788
1	0x3e1f4c70	0.15556502

conv2.weight f4 [24, 2, 5, 5]
0	0xba8aff0c	-0.0010604574
1	0xbe1bc44d	-0.15211602
2	0x3cef9116	0.029243987
3	0xbdd54ce9	-0.1041506
4	0xbd98217c	-0.07428262
5	0xbdad9f49	-0.08477647
6	0x3cd96793	0.026538646
7	0x3c5d191d	0.013494757
8	0xbe1c35c0	-0.15254879
9	0x3ca1c070	0.019745082
10	0xbdabecd4	-0.08394781
11	0xbd3d9ee9	-0.046294127
12	0xbd799a57	-0.060938206
13	0xbc026b35	-0.00796013
14	0x3d65a72c	0.05606763
15	0xbd884a45	-0.06654791
16	0x3d0748ca	0.0330284
17	0xbbd2d7b4	-0.006434405
18	0x3d643062	0.055710204
19	0x3d81f381	0.06345273
20	0x3d06e9ff	0.032938
21	0xbdccbcd4	-0.099969536
22	0x3d9f8b4d	0.077902414
23	0x3e114857	0.14187752
24	0xbdbc642b	-0.09198793
25	0x3dce34ee	0.10068689
26	0xbdd2170e	-0.102583036
27	0xbd99245a	-0.07477637
28	0xbd96982d	-0.07353244
29	0x3db74338	0.08948368
30	0xbdcd248e	-0.10016738
31	0x3dd85b1e	0.10564254
32	0xbc6ef1a8	-0.0145839825
33	0x3d92767a	0.07151504
34	0xbd51497b	-0.051095467
35	0xbca0bbac	-0.019620739
36	0xbd5094ad	-0.05092304
37	0xbd8cf45c	-0.06882545
38	0xbdb3a24c	-0.0877119
39	0xbdaec2a5	-0.08533219
40	0x3cc1f1a3	0.023674792
41	0xbd8a3431	-0.06748236
42	0x3d832344	0.06403211
43	0xbd821aaf	-0.06352746
44	0xbe13ae07	-0.14421855
45	0x3bcc5372	0.0062355334
46	0xbdb015ad	-0.08597884
47	0x3e442c97	0.19157635
48	0x3e2d0357	0.16895805
49	0x3d57cb82	0.052684315
50	0xbdc52877	-0.09626859
51	0x3d0f98b2	0.03505773
52	0x3e06444b	0.13111989
53	0xbd763f6a	-0.06011907
54	0x3dddb7b9	0.10826058
55	0xbcd0a1bf	-0.025467752
56	0x3e0f598e	0.13999006
57	0xbca61a45	-0.020276198
58	0xbc9bb74f	-0.019008307
59	0xbc8daa25	-0.017293045
60	0xbc81d3cc	-0.015848063
61	0xbd49cefe	-0.04926967
62	0x3ca022c1	0.019547822
63	0xbdb1e5bf	-0.08686399
64	0xbd6314ce	-0.055439763
65	0x3ce6d63a	0.028178323
66	0x3ada733e	0.0016666425
67	0xba2c67b0	-0.000657673
68	0xbdf1f436	-0.11814158
69	0xbde16f0b	-0.11007508
70	0x3bd8e720	0.006619349
71	0x3e1c22f1	0.15247704
72	0x3d3a44d4	0.045475796
73	0xbd3100c7	-0.043213632
74	0x3d99dd65	0.07512931
75	0x3db3f3ac	0.08786711
76	0xbd054392	-0.032535143
77	0xbdf3058b	-0.118662916
78	0x3c460f4c	0.012088608
79	0xbdfbbb70	-0.1229161
80	0xbdf12e95	-0.11776463
81	0xbd2b546e	-0.041828565
82	0x3cb147e4	0.021640725
83	0x3de68496	0.112557575
84	0x3d9d2a38	0.07674068
85	0xbd229522	-0.039693005
86	0xbd0c33d6	-0.034229122
87	0x3b188ffd	0.0023279183
88	0x3dc7a0ea	0.09747489
89	0xbdd9698b	-0.10615834
90	0x3cdc9666	0.026927184
91	0xbcdd20c2	-0.02699316
92	0xbd88cc8c	-0.06679639
93	0x3db1b058	0.08676213
94	0x3c95df22	0.018294875
95	0xbd4a31d2	-0.04936392
96	0x3b6b8a9f	0.003594078
97	0x3d81d0ec	0.06338677
98	0x3c7fdbae	0.015616341
99	0xbdbd6c43	-0.09249165
100	0xbd1d38b4	-0.038384154
101	0xbd38cbde	-0.045116298
102	0x3d7bfc88	0.06152013
103	0x3de46058	0.111511886
104	0xbd8896be	-0.06669377
105	0xbb0fa772	-0.0021919874
106	0xbd840fdf	-0.0644834
107	0xbd308c74	-0.043102697
108	0xbd25529f	-0.040361997
109	0x3deac03f	0.11462449
110	0xbe0d1d4c	-0.13780707
111	0xbd6f182c	-0.05837266
112	0x3d0c90b0	0.034317672
113	0x3e110acc	0.14164275
114	0x3d9f384c	0.0777441
115	0xbdc37712	-0.09544195
116	0xbdb7105c	-0.08938667
117	0xbe2eef4c	-0.17083472
118	0x3dc5d79f	0.09660267
119	0xbdf9922a	-0.12186082
120	0xbd0a4da1	-0.03376544
121	0xbb6675ed	-0.0035165504
122	0xbe1c60e7	-0.1527134
123	0x3da70279	0.081547685
124	0xbe100010	-0.14062524
125	0x3be586ac	0.0070045795
126	0x3c602be2	0.0136823375
127	0x3d8aaf46	0.06771712
128	0x3ddd3a8d	0.10802183
129	0xbde66a73	-0.11250772
130	0xbd36fec7	-0.04467657
131	0xbd9d902f	-0.076935165
132	0xbcaf294e	-0.021382
133	0xbcd2e1f6	-0.025742512
134	0xbd50d74b	-0.05098657
135	0x3daf0c82	0.085473076
136	0xbd8436af	-0.064557426
137	0xbe06c75b	-0.13161986
138	0xbdf60adb	-0.12013789
139	0x3d2e8d42	0.042615183
140	0x3dbad9f9	0.09123606
141	0xbd466299	-0.048433874
142	0xbd1da6bc	-0.03848909
143	0xbc891aa1	-0.01673633
144	0xbb6d487e	-0.0036206539
145	0xbe288d1f	-0.16460083
146	0x3b6489b6	0.0034872121
147	0x3df16b2b	0.11788019
148	0xbd3f8ff8	-0.04676816
149	0xbdfb68ad	-0.12275825
150	0x3dae4847	0.085098796
151	0xbc9d58b9	-0.019207345
152	0x3d118259	0.0355247
153	0x3d775cab	0.06039111
154	0x3cb454b7	0.022013051
155	0xbda46d84	-0.08028701
156	0x3c90424f	0.017609743
157	0xbdbbaabc	-0.091634244
158	0xbd86bcc7	-0.06578975
159	0xbe47cbe6	-0.19511375
160	0x3da696df	0.08134245
161	0x3d0fc0ce	0.035095982
162	0xbcadc1a4	-0.0212105
163	0xbd5ebc08	-0.05437854
164	0x3df21e83	0.11822226
165	0x3deb4942	0.11488582
166	0x3e26a9ce	0.16275713
167	0x3d9b28b1	0.07576121
168	0x3e1ff600	0.15621185
169	0x3db6bfab	0.089232765
170	0x3d7c94d5	0.061665375
171	0x3d792e46	0.060835145
172	0xbd2c7147	-0.042100217
173	0x3dffcd49	0.12490327
174	0x3c2a3dfb	0.010390754
175	0x3da54e29	0.080715485
176	0x3cb3b97a	0.021939028
177	0xbd1a933b	-0.037738066
178	0xbe0fc762	-0.14040902
179	0xbe326943	-0.17422967
180	0xbd8502ed	-0.06494699
181	0xbcdd0cc2	-0.026983622
182	0xbe0f1e6b	-0.13976447
183	0xbc2476d5	-0.010038097
184	0xbe4a23dc	-0.19740242
185	0x3d9e9c8c	0.07744703
186	0xbdb6c9fe	-0.08925246
187	0x3daa5e30	0.08318746
188	0x3ca0f39d	0.019647414
189	0xbdde4787	-0.108534865
190	0xbdf80cc3	-0.12111809
191	0x3dbe299d	0.09285281
192	0xbd6bb1b6	-0.057542525
193	0x3da56e3f	0.080776684
194	0xbd01d38f	-0.0316959
195	0xbe11b451	-0.14228942
196	0xbe2a4e8e	-0.16631529
197	0xbe100380	-0.14063835
198	0xbd781d7e	-0.060575
199	0x3d66fa21	0.056390885
200	0x3dc41d27	0.09575873
201	0xbd2683d8	-0.04065308
202	0xbd9ec03e	-0.07751511
203	0x3db41df1	0.08794773
204	0x3dde7abb	0.10863253
205	0xbe25b1fb	-0.16181175
206	0xbe12874f	-0.14309429
207	0xbd9ab705	-0.075544395
208	0xbddc3607	-0.107524924
209	0xbc413403	-0.011792186
210	0xbde4a1f6	-0.11163704
211	0xbda70a4b	-0.0815626
212	0xbd08aa7d	-0.033365715
213	0xbd108e25	-0.03529181
214	0x3d89e768	0.0673359
215	0xbd081b10	-0.033228934
216	0x3c98f9f3	0.018673873
217	0x3d8f22d8	0.06989068
218	0x3c28f702	0.0103127975
219	0x3c80f909	0.01574375
220	0xbca5843f	-0.020204661
221	0xbe008dd1	-0.12554099
222	0xbc9c3dfa	-0.019072521
223	0xbd26d01b	-0.04072581
224	0xbdf9c329	-0.12195427
225	0xbddcd016	-0.10781877
226	0x3c4ce342	0.012505354
227	0xbdc7a815	-0.09748856
228	0xbd0c5007	-0.034256008
229	0xbc2c181f	-0.010503798
230	0xbd6cbcc8	-0.057797223
231	0x3d8b6f46	0.06808333
232	0xbe05177d	-0.12997241
233	0xbd74ac7d	-0.05973481
234	0xbb21988f	-0.0024657582
235	0xbe4c2ca7	-0.19938909
236	0xbe0087fc	-0.12551874
237	0x3c6bca81	0.014391542
238	0x3dcb9fc8	0.09942585
239	0xbda73598	-0.08164519
240	0x3d5b97ea	0.053611673
241	0xbad5093a	-0.001625336
242	0xbe0bf914	-0.13669235
243	0xbd8ac167	-0.0677517
244	0x3d6c1ab7	0.057642665
245	0x3ddb8229	0.107181855
246	0x3de72ce8	0.11287862
247	0x3d87e754	0.06635919
248	0xbd373f7e	-0.044738285
249	0x3dded0de	0.10879682
250	0x3d5e7cb4	0.054318145
251	0xbdca55f7	-0.09879678
252	0xbdd6c50c	-0.104868025
253	0xbd70db2a	-0.05880276
254	0x3cda8a24	0.026677199
255	0xbc3586a8	-0.011079468

conv2.bias f4 [24]
0	0x3ce44728	0.027865961
1	0x3be07865	0.0068502896
2	0x3de45596	0.11149137
3	0x3cfc44ec	0.030794583
4	0x3dd34486	0.10315804
5	0x3da7a43f	0.08185624
6	0xbb9e9a97	-0.004840206
7	0x3d5a301f	0.053268548
8	0x3c04f1c2	0.00811428
9	0xbcd8e120	-0.026474535
10	0xbd21bbaf	-0.03948563
11	0x3dba9a7d	0.091114976
12	0xbcd72dfd	-0.026267046
13	0xbdc3b776	-0.09556477
14	0x3d81bef4	0.063352495
15	0x3d965c2d	0.073418
16	0xbdc2a359	-0.09503812
17	0x3c49c5f0	0.012315258
18	0x3de79d02	0.11309244
19	0xbdb71053	-0.089386605
20	0x3dbaf4ba	0.09128709
21	0x3cefeb0d	0.029286886
22	0x3da9ae40	0.08285189
23	0x3df790c1	0.120881565

fc1.weight f4 [128, 384]
0	0x3d86d1a7	0.06582957
1	0x3cb7210e	0.022354629
2	0xbd62c602	-0.055364616
3	0xbc03728a	-0.008022914
4	0xbca5b313	-0.02022699
5	0x3c582ba7	0.013194001
6	0xbd01e03a	-0.03170798
7	0x3c8d1254	0.017220654
8	0x3c1413ad	0.009037894
9	0xbd798125	-0.060914177
10	0x3d244344	0.040103212
11	0x3c7a37e0	0.015272111
12	0xbcd1d7c1	-0.025615575
13	0xbcc0c5ef	-0.023531882
14	0x3c870154	0.016480125
15	0x3c110bdb	0.008852924
16	0x3c31b543	0.010846439
17	0xbcb49e08	-0.022048011
18	0x3bfe4b1c	0.0077604186
19	0xbd256b40	-0.040385485
20	0x3b4bf63b	0.0031122107
21	0xbc1412e0	-0.009037703
22	0x3c1d7aea	0.0096118245
23	0x3d5b893e	0.05359768
24	0xbca056bd	-0.01957261
25	0x3b8c787f	0.004286825
26	0xbcd48a97	-0.025944991
27	0x3d2713a8	0.04079023
28	0xbd50a140	-0.05093503
29	0x3ce52cc7	0.027975453
30	0xbbf40ac5	-0.007447573
31	0xbd15944a	-0.036518373
32	0x3bfe8dc3	0.007768364
33	0xbca021d5	-0.019547382
34	0xbd0f4825	-0.03498091
35	0xbc6ea535	-0.014565756
36	0xbc47ac56	-0.012187084
37	0xbd5f6c64	-0.05454673
38	0xbcc0a8f9	-0.023518072
39	0xbc5705ae	-0.013123913
40	0xbd36d833	-0.044639777
41	0xbd0a3940	-0.033746004
42	0xbb55c105	-0.003261627
43	0x3d3d3965	0.046197314
44	0xbd2dcaf9	-0.042429898
45	0xbcdc1f2d	-0.026870335
46	0xbc07aa49	-0.008280345
47	0x3bddac5e	0.0067649325
48	0x3b8fda1a	0.0043900134
49	0xbcb550d3	-0.022133267
50	0xbd4b2430	-0.049595058
51	0x3c16e562	0.009209963
52	0x3c8b8593	0.017031467
53	0xbcbffbd3	-0.023435509
54	0xbcac395e	-0.021023449
55	0x3bb7fa70	0.0056145713
56	0x3d3faac1	0.046793703
57	0xbc7c7f9c	-0.015411284
58	0x3c540951	0.012941674
59	0xbcef2ba4	-0.029195614
60	0xbcfa690c	-0.030567668
61	0xbd59c0b7	-0.053162303
62	0x3c84d86f	0.016216485
63	0xbbbeaec0	-0.0058191717
64	0x3cdc11a5	0.026863882
65	0xbd519e3d	-0.0511763
66	0x3d12ef8a	0.035872974
67	0xbd03c192	-0.032167025
68	0xbd34abab	-0.044109028
69	0xbd49bbe3	-0.04925145
70	0x3c269209	0.010166653
71	0x3c6658c7	0.014059252
72	0xbbc01a8c	-0.0058625396
73	0x3d3a5537	0.045491423
74	0x3d39c5c8	0.045354635
75	0x3d12f562	0.035878547
76	0x3cf17a26	0.02947719
77	0xbd7b4762	-0.061347373
78	0xbc18e115	-0.0093310075
79	0x3ba1dc89	0.00493962
80	0x3bede080	0.0072594285
81	0x3c633a0d	0.013868821
82	0x3c8a7809	0.01690294
83	0xbd355d55	-0.04427846
84	0x3ccbc410	0.024873763
85	0x3cc4a1a1	0.024002852
86	0xba9140e2	-0.0011081959
87	0xbd6f6749	-0.05844811
88	0x3d1b5b07	0.037928607
89	0x3beeb33e	0.007284551
90	0xbd697054	-0.05699189
91	0xbd471177	-0.04860064
92	0xbc854244	-0.01626695
93	0x3c586894	0.013208527
94	0xbd072787	-0.03299668
95	0x3b205a4f	0.002446789
96	0xbcaf7cd7	-0.021421833
97	0xbb1a9ef9	-0.002359329
98	0x3d2c5ed8	0.042082638
99	0x3a8f5a1b	0.0010936888
100	0xbd2f1048	-0.042740136
101	0xbcdeacc6	-0.027181994
102	0xbd549dca	-0.051908292
103	0x3c8fa271	0.017533513
104	0xbbdb77c7	-0.006697628
105	0x3baf2df2	0.0053460533
106	0xbd16d9ab	-0.036828678
107	0xba81bbe7	-0.0009897918
108	0xbd006210	-0.03134352
109	0xbcbfd7ba	-0.023418296
110	0x3b67016f	0.0035248657
111	0x3c1efe27	0.009704149
112	0x3c9f35d3	0.019434845
113	0xbd48ea18	-0.049051374
114	0xbc336df7	-0.010951511
115	0x3babef2d	0.005247018
116	0x3c803ab1	0.015652986
117	0x3bc738c8	0.006079767
118	0x39d4feb4	0.0004062556
119	0x3d1818fe	0.03713321
120	0xbccc3b4a	-0.024930615
121	0xbc3bcd94	-0.011462588
122	0xbd5027a6	-0.05081906
123	0x3cf30600	0.029665947
124	0x3d2af3b3	0.041736316
125	0xbcfc2da1	-0.030783476
126	0x3ceecde5	0.029150913
127	0xbcae08d9	-0.021244453
128	0x3c60a1a2	0.013710411
129	0x3caf1f62	0.02137727
130	0x3cc8d1bd	0.024514074
131	0x3cad8c58	0.021185085
132	0xbd3c2d67	-0.045941737
133	0xbd352ad7	-0.04423031
134	0x3ce9adf5	0.028525332
135	0xbd48c380	-0.04901457
136	0x3c5d0be4	0.0134916045
137	0x3d1c47ec	0.038154528
138	0xbb6e0d9b	-0.0036324027
139	0xbcbae45c	-0.022813968
140	0xbacc909e	-0.0015607064
141	0x3c9dc3f6	0.01925848
142	0x3d2b2a67	0.041788485
143	0xbd0edc1f	-0.034877893
144	0xbd00b352	-0.031421013
145	0xbd2dcf21	-0.04243386
146	0x3d26e65c	0.04074703
147	0xbd7c12ff	-0.061541554
148	0xbd35daaa	-0.044397987
149	0xbd917007	-0.07101446
150	0xbd1f547c	-0.03889893
151	0x3a11f75c	0.00055681705
152	0xbd80d2f1	-0.06290234
153	0x3d128ed1	0.03578073
154	0x3d0636df	0.032767173
155	0xb84032c0	-4.582363e-05
156	0xbca35ca5	-0.019941637
157	0xbcf3fa3d	-0.029782409
158	0xbbd01a2f	-0.0063507776
159	0x3cfe1caa	0.031019527
160	0xbd3cd96b	-0.046105783
161	0x3bdcf40b	0.0067429594
162	0x3d3783df	0.044803496
163	0xbd7a6931	-0.061135475
164	0xbd9a1575	-0.07523624
165	0x3c8c6b64	0.017141052
166	0xbd5b55f8	-0.053548783
167	0x3c14d031	0.00908284
168	0xbcb32fa0	-0.021873295
169	0xbaa7c068	-0.001279843
170	0xbc485ebc	-0.012229618
171	0x3b4ea5b1	0.0031531865
172	0xbd06f281	-0.032946113
173	0xbd715413	-0.05891807
174	0xbc56d07c	-0.01311123
175	0x3ce174c1	0.027521493
176	0xbd68f3ac	-0.05687301
177	0xbd26d6c5	-0.040732164
178	0x3c05d1ed	0.008167726
179	0x3b0ca7c8	0.002146231
180	0xbc8faef0	-0.017539471
181	0xbb65b111	-0.0035048167
182	0xbd3033df	-0.043018218
183	0xbcb8a366	-0.022538852
184	0x3d399bae	0.045314483
185	0xbd6193d1	-0.05507261
186	0x3d047c93	0.032345366
187	0xbc571192	-0.013126748
188	0xbc349544	-0.011021916
189	0xbd22f163	-0.039780986
190	0xbcdfa80e	-0.027301814
191	0xbc3d8852	-0.011568146
192	0x3c5aa882	0.013345839
193	0x3c9fcecd	0.01950779
194	0x3d39b4a4	0.045338288
195	0x3d18707d	0.037216652
196	0xbba46125	-0.0050164633
197	0xbd5de469	-0.054172907
198	0x3d409154	0.047013596
199	0xbd3863e1	-0.045017127
200	0x3d493578	0.049123257
201	0x3c9cf484	0.019159563
202	0xb9d5582d	-0.00040692222
203	0x3ce66d5c	0.028128318
204	0x3cb51e85	0.02210928
205	0x3cebd044	0.028785832
206	0xbcce2cee	-0.025167909
207	0xbcf08716	-0.029361289
208	0xbbc81418	-0.006105911
209	0x3ce31ccc	0.027723692
210	0x3bdcf64a	0.006743227
211	0x3c359b9d	0.011084464
212	0xbd2d31d5	-0.04228385
213	0xbca1b262	-0.01973838
214	0x399b8249	0.00029660974
215	0xbceeee83	-0.029166466
216	0x3d06600f	0.032806452
217	0xbc918f33	-0.017768478
218	0x3c78039e	0.015137581
219	0x3be99c81	0.0071292524
220	0x3c60ca44	0.013720099
221	0xbd4148b0	-0.04718846
222	0x3c8bd0bb	0.017067304
223	0x3cfae3c7	0.03062619
224	0x3c33d79f	0.010976701
225	0x3cc3ed75	0.02391694
226	0x3cf0999e	0.029370125
227	0x3c46af1c	0.01212671
228	0x3a1658a1	0.00057352526
229	0x3b78c2a9	0.0037957823
230	0x3cc4afd5	0.024009624
231	0xbd36bead	-0.044615436
232	0x3d332253	0.043733906
233	0xbce07fa8	-0.027404621
234	0x3cf444d6	0.02981798
235	0xbd327561	-0.043568972
236	0x3c9cd80d	0.01914599
237	0xbca0ace3	-0.019613689
238	0xbbdfc3c0	-0.006828755
239	0x3d4636fc	0.04839228
240	0x3ca564b3	0.020189619
241	0x3cd2e40d	0.025743509
242	0xbc0ddc9b	-0.0086585535
243	0xba02be8e	-0.00049875013
244	0xbd51e760	-0.051246047
245	0xbd217300	-0.039416313
246	0x3a8255e6	0.0009943813
247	0xbd274992	-0.040841646
248	0x3b76ba8b	0.003764781
249	0x3ce39ebc	0.027785651
250	0x3d588fa8	0.052871376
251	0x3c898dc3	0.01679123
252	0xbaaa08f0	-0.0012972634
253	0xbd03f811	-0.032218996
254	0xbc44bee5	-0.012008403
255	0xbd1207de	-0.035652034

fc1.bias f4 [128]
0	0xbd372ced	-0.04472058
1	0xbab196fc	-0.0013549025
2	0x3d007c64	0.03136863
3	0x3d861d4d	0.065485574
4	0xbcbd6e15	-0.02312378
5	0x3d9a95b7	0.07548087
6	0xbc0b420d	-0.008499634
7	0x3cce150c	0.02515652
8	0xbc25285b	-0.010080422
9	0x3d110435	0.035404403
10	0x3c555899	0.013021612
11	0xbd4bfa2f	-0.04979914
12	0x3d366a11	0.044534747
13	0x3d05f728	0.03270641
14	0xbd55e3f6	-0.052219354
15	0x3cd4266d	0.02589723
16	0xbce69ee6	-0.02815194
17	0x3d14876c	0.03626196
18	0xbab58229	-0.0013847995
19	0xbc9c5107	-0.019081606
20	0x3d60a68b	0.054846328
21	0x3d0ceb00	0.0344038
22	0x3bfc4b63	0.0076994165
23	0xbc0ae807	-0.008478171
24	0xbd69e923	-0.057107102
25	0x3c4414f1	0.011967883
26	0xbd7b2381	-0.061313156
27	0xbc9034ed	-0.017603362
28	0xbc9d46f0	-0.019198865
29	0x3cd69651	0.026194723
30	0x3d6455d6	0.055745922
31	0x3d060d7d	0.032727707
32	0xbbae5b8a	-0.005320971
33	0x3d2edfba	0.04269383
34	0xbabe2e20	-0.0014509596
35	0x3d1d0fae	0.03834503
36	0xbd3c8f63	-0.04603518
37	0xbcc2c931	-0.023777576
38	0xbc6c4249	-0.0144201005
39	0x3d5d4dcc	0.05402927
40	0xbb904210	-0.0044024065
41	0x3cbdceee	0.02316996
42	0x3b050818	0.0020299014
43	0x3d718b21	0.058970574
44	0x3b5d1d45	0.003373937
45	0x3d818837	0.06324809
46	0x3d146966	0.03623333
47	0x3cad9472	0.021188948
48	0xbc52f8b3	-0.012876677
49	0x3d1d9167	0.038468745
50	0x3c92dd25	0.017927716
51	0x3b560db9	0.0032661988
52	0xbb394a12	-0.002827291
53	0x3d2b319c	0.041795358
54	0x3d874892	0.066056386
55	0xbce26ce8	-0.027639821
56	0xbb9bc2d0	-0.004753448
57	0x3cfe9aee	0.031079736
58	0x3d71136c	0.058856413
59	0xbc6e514c	-0.01454575
60	0x3bb55671	0.0055339863
61	0x3bc3900e	0.0059681004
62	0x3b508434	0.003181708
63	0x3d77cfeb	0.06050102
64	0x3d404073	0.046936464
65	0x3b6711fe	0.0035258527
66	0x3d5614ce	0.052265935
67	0x3d52f37c	0.051501736
68	0x3d85db36	0.06535952
69	0x3c1810f8	0.009281389
70	0x3d8ce803	0.0688019
71	0x3d8d4f73	0.06899919
72	0xbd8933ef	-0.06699359
73	0xbc9195f5	-0.0177717
74	0x3dbc262f	0.091869704
75	0x3dbe7877	0.093003206
76	0x3d8ab99a	0.06773682
77	0xbc2716f8	-0.010198347
78	0xbccbd8b7	-0.024883611
79	0x3d1edac2	0.038782842
80	0x3b8733e0	0.004126057
81	0x3d6a80d5	0.05725177
82	0x3cc43445	0.023950705
83	0xbce64f9b	-0.02811413
84	0x3cddd575	0.027079323
85	0x3d4c5596	0.04988631
86	0xbd441de5	-0.047880072
87	0xbd4b8bf6	-0.049694024
88	0xbd089a2b	-0.03335015
89	0xb9ec6950	-0.00045091892
90	0x3d853a51	0.065052636
91	0x3d7b7050	0.061386406
92	0x3c36d3a8	0.011158861
93	0xbd1744ae	-0.036930732
94	0xbca3f37c	-0.020013563
95	0x3b0a3e2b	0.0021094184
96	0x3d0081e0	0.03137386
97	0xbd25d8ed	-0.04049008
98	0xbbb20a9e	-0.0054333946
99	0x3d864161	0.06555439
100	0x3d9eea4c	0.07759532
101	0x3d1d943f	0.038471457
102	0xbd093f3f	-0.03350758
103	0x3d56e707	0.05246642
104	0x3c996449	0.018724578
105	0x3b15a492	0.0022833687
106	0xbd64a67c	-0.055822834
107	0xbd08a0a3	-0.03335632
108	0x3d00431a	0.031313993
109	0xbcce7a90	-0.025204927
110	0xbd215a6c	-0.039392874
111	0xbcf04250	-0.029328495
112	0xbd0460d2	-0.032318898
113	0x3d8b6bff	0.06807708
114	0xbbec0237	-0.0072024125
115	0x3d2fa3ee	0.042880945
116	0x3c71a0c2	0.0147478
117	0x3d12d6df	0.03584945
118	0x3d2896f3	0.04115958
119	0x3d328a78	0.043589085
120	0x3c7da6ff	0.0154817095
121	0x3d8aa2ca	0.06769331
122	0x3cdeb52f	0.027186004
123	0x3c0ad926	0.008474624
124	0xbd10e8b4	-0.035378173
125	0x3d0b0a8c	0.033945605
126	0xbcafb16f	-0.021446912
127	0x3ccf8c94	0.025335588

fc2.weight f4 [2, 128]
0	0xbd00fb07	-0.0314894
1	0xbd2a1897	-0.041527357
2	0x3c570ff3	0.013126361
3	0x3cc59610	0.024119407
4	0xbd577660	-0.052603126
5	0xbdae5a40	-0.085133076
6	0x3d9653a1	0.0734017
7	0x3d86d82f	0.065842025
8	0x3db7df84	0.08978179
9	0x3d84f109	0.06491286
10	0x3da14bad	0.07875762
11	0xbd203318	-0.039111227
12	0x3d4d2a37	0.050089087
13	0x3d274a5e	0.040842406
14	0xbd20601c	-0.039154157
15	0xbc8dced2	-0.017310534
16	0xbb3d1db4	-0.0028856816
17	0x3cae00ec	0.021240674
18	0xbd7e1128	-0.06202808
19	0x3d8e9af4	0.06963149
20	0x3d8e98a1	0.069627054
21	0xbc4d3eef	-0.012527212
22	0xbcd196bb	-0.02558457
23	0x3cc077c5	0.02349461
24	0xbd2e2730	-0.04251784
25	0x3caaa718	0.02083163
26	0xbd9fecf9	-0.07808871
27	0xbabb43f4	-0.0014287219
28	0xbd4c2ba5	-0.04984631
29	0xbb876e74	-0.00413304
30	0x3d6a8122	0.057252057
31	0xbdb44984	-0.088030845
32	0xba28cac7	-0.00064389076
33	0x3bf2bdbf	0.0074078734
34	0xbd94ba48	-0.07262093
35	0x3d8e4e99	0.06948585
36	0xbd6c22c5	-0.057650346
37	0xbb753cc4	-0.0037420252
38	0x3ca9d524	0.020731516
39	0x3d8ee21a	0.06976719
40	0xbd3bd9cc	-0.045862004
41	0xbd47f288	-0.04881528
42	0x3d5b18ea	0.053490557
43	0xbdb955b5	-0.090495504
44	0x3b344d86	0.0027512028
45	0xbc92097e	-0.017826792
46	0xbd9b0258	-0.075688064
47	0xbd7a37c1	-0.061088327
48	0x3aaac7ad	0.0013029479
49	0xbd6965b2	-0.05698175
50	0x3d4ba04e	0.049713425
51	0x3d6f1520	0.058369756
52	0x3cd84b01	0.026402952
53	0xbd989de0	-0.07451987
54	0x3d1ce7d4	0.038307026
55	0xbd12029d	-0.035647023
56	0xbd89f315	-0.06735817
57	0x3da77ea4	0.08178452
58	0x3bb78bfd	0.0056014047
59	0x3d6af488	0.05736211
60	0xbbf7a13e	-0.0075570634
61	0x3d2895e5	0.041158576
62	0x3d4d2ee3	0.050093543
63	0xbdcca614	-0.099926144
64	0x3d6bafd9	0.05754075
65	0x3d95e9d7	0.07319992
66	0x3c347848	0.011015005
67	0x3d059454	0.03261216
68	0xbd8d49f4	-0.06898871
69	0xbda209e8	-0.07912046
70	0x3d29a602	0.041418083
71	0xbe1a7b15	-0.15086015
72	0x3cc1a899	0.023639964
73	0xbaf38f47	-0.0018582129
74	0x3d3c9f44	0.046050325
75	0x3d1f9d28	0.038968235
76	0x3cacffe5	0.021118114
77	0xbcfe43b2	-0.031038139
78	0xbb41f569	-0.0029595739
79	0xbd309860	-0.043114066
80	0xbbd61234	-0.0065329317
81	0x3d83d705	0.06437496
82	0x3d69b6dd	0.057059158
83	0xbd6af22a	-0.057359852
84	0xbdab6190	-0.08368218
85	0x3d05a2f2	0.0326261
86	0xbd10c7c2	-0.035346754
87	0xbd991e25	-0.07476453
88	0xbd26d5fe	-0.040731423
89	0x3d6c7c48	0.05773571
90	0xbd92f450	-0.07175505
91	0x3dbda09d	0.0925915
92	0x3d5ac437	0.05340978
93	0xbc6870ee	-0.014187081
94	0xbc8405e1	-0.016116085
95	0x3de919d2	0.11381878
96	0xbd58ef8f	-0.052962836
97	0x3d9a0810	0.07521069
98	0xbd13e759	-0.036109302
99	0x3c1894d9	0.009312832
100	0xbd332b72	-0.043742605
101	0xbd920ac4	-0.0713096
102	0xbcce0951	-0.025150927
103	0xbd2e1ef9	-0.042510007
104	0xbd30450c	-0.0430346
105	0x3cc22a14	0.023701705
106	0xbca07078	-0.01958488
107	0xbcadec5f	-0.021230875
108	0x3d469a09	0.048486743
109	0x3cc0fae4	0.023557134
110	0xbd720d57	-0.059094753
111	0xbd5fb91c	-0.054619893
112	0xbd55061e	-0.052007787
113	0x3db85f2a	0.09002526
114	0xbd70c9f0	-0.058786333
115	0xbd7cb829	-0.061699066
116	0xbd9b7db5	-0.07592336
117	0x3d9e11b9	0.07718224
118	0x3d51e113	0.051240038
119	0x3c37a44d	0.011208606
120	0xbdae61ce	-0.085147485
121	0xbd46d3a3	-0.048541676
122	0x3d325f93	0.043548178
123	0xbdb6fba2	-0.08934714
124	0x3d8f8dbe	0.07009457
125	0x3d9e1f4b	0.077208124
126	0xbd26ea39	-0.040750716
127	0xbb12cfc3	-0.0022401668
128	0x3db677ff	0.08909606
129	0x3d9368ca	0.07197721
130	0xbce2be44	-0.027678616
131	0x3ce1d5c4	0.027567752
132	0x3d926107	0.07147413
133	0x3a9bea10	0.0011895318
134	0xbc0d67dc	-0.008630719
135	0xbd9f1fea	-0.07769759
136	0xbd93b3fd	-0.072120644
137	0x3a9d2d9c	0.0011991742
138	0x3d773f84	0.060363308
139	0x3d97b065	0.074066915
140	0x3d2e1a4d	0.04250555
141	0xbd5256f4	-0.051352456
142	0xbb424d6f	-0.0029648205
143	0x3cb96162	0.022629444
144	0x3d959be1	0.07305122
145	0x3d977814	0.0739595
146	0x3da60e35	0.081081785
147	0x3d6107e1	0.054939155
148	0xbda2d175	-0.07950107
149	0xbc9794a7	-0.0185035
150	0x3d842bbb	0.064536534
151	0x3b9c3ff3	0.0047683655
152	0x3d686a62	0.05674208
153	0x3d0a11bf	0.03370833
154	0x3d89788d	0.06712446
155	0x3d3dfd58	0.046384186
156	0xbd9b55b6	-0.075847074
157	0x3d5979e4	0.05309476
158	0xbd66120a	-0.056169547
159	0x3b089810	0.002084259
160	0xbcb141cc	-0.02163782
161	0x3cefc2df	0.029267726
162	0xbd2a8cf5	-0.041638333
163	0x3d80cdbb	0.0628924
164	0x3da0d4c5	0.078530826
165	0xbcc672bd	-0.024224633
166	0x3d059be8	0.032619387
167	0x3d84e674	0.06489268
168	0xbc08facf	-0.008360579
169	0xbd8ad400	-0.06778717
170	0x3cc69a0a	0.024243373
171	0x3c9f1cea	0.019422967
172	0x3d388291	0.045046393
173	0xbdb13743	-0.086531185
174	0x3d5346d3	0.051581215
175	0xbd860753	-0.06544366
176	0xbd88439c	-0.066535205
177	0xbbe76359	-0.0070614037
178	0xbc8dbcf4	-0.017302014
179	0xbd5f8e7a	-0.054579236
180	0xbcd4f9a3	-0.025997942
181	0xbc9f74b9	-0.019464837
182	0x3da14a2d	0.07875476
183	0xbc9e522b	-0.01932629
184	0x3cd05c96	0.025434773
185	0x3cfbc26f	0.030732362
186	0xbdb4eac4	-0.088338405
187	0xb97a3de2	-0.00023864911
188	0x3d85815f	0.06518816
189	0x3d0ccf75	0.034377534
190	0x3db442e8	0.08801824
191	0xbce76092	-0.02824429
192	0x3d85eaaa	0.06538899
193	0xbd9719bb	-0.073779546
194	0x3c555493	0.013020652
195	0x3a4d2180	0.0007825121
196	0xbd1e0da9	-0.038587246
197	0x3c9b6288	0.018967882
198	0xbd2dbed1	-0.042418305
199	0x3d2772a3	0.04088081
200	0x3d0c1965	0.034203906
201	0xbd93407d	-0.071900345
202	0xbd5442d3	-0.05182154
203	0xbd1095d4	-0.035299137
204	0x3d33d3eb	0.043903273
205	0xbc43fe4e	-0.011962486
206	0x3cbdd488	0.023172632
207	0xbcf0fa93	-0.029416358
208	0xbd348bb6	-0.04407855
209	0xbdb10909	-0.086443014
210	0x3c6231e3	0.013805839
211	0x3d9127bd	0.070876576
212	0x3d8612b5	0.06546537
213	0xbdc3508c	-0.095368475
214	0x3d6a3bed	0.057186056
215	0xbca7539d	-0.020425612
216	0xbd1942aa	-0.03741709
217	0xba341ac2	-0.00068704423
218	0xbc302fcc	-0.010753583
219	0xbc0368ba	-0.008020574
220	0x3d09ae02	0.033613212
221	0x3d8bd680	0.06828022
222	0x3d027482	0.03184939
223	0x3c7ab3d1	0.015301661
224	0xbba85447	-0.005137
225	0x3d18ffee	0.03735345
226	0xbb97fc05	-0.0046381974
227	0x3da381c2	0.07983734
228	0xbb5ffd68	-0.0034178142
229	0x3d5a1015	0.053237993
230	0xbd58d272	-0.05293507
231	0x3cc7b5ca	0.024378676
232	0xbd8c3821	-0.06846643
233	0x3d8420d0	0.06451571
234	0x3da42d4f	0.080164544
235	0xbc85a9e0	-0.016316354
236	0xbcbbe6fb	-0.022937289
237	0x3bb66651	0.0055663963
238	0x3ce0bffb	0.027435293
239	0xbd7b042e	-0.061283283
240	0x3d79ef18	0.061019033
241	0x3dadeb8e	0.08492194
242	0x3d9fbf70	0.07800186
243	0x3a8dbe2e	0.0010814124
244	0xbd7597d5	-0.05995925
245	0x3d8abe2c	0.06774554
246	0xbd176d21	-0.036969308
247	0x3d9c6ec2	0.07638313
248	0xbd2cd8a1	-0.04219878
249	0xbc259afa	-0.01010775
250	0x3d52e150	0.051484406
251	0x3d34730f	0.04405504
252	0x3d253965	0.04033794
253	0x3d62e4d4	0.05539401
254	0x3c8ca485	0.017168293
255	0xbc92fabc	-0.017941825

fc2.bias f4 [2]
0	0xbd903e16	-0.07043092
1	0xbd414e22	-0.047193654

qnn.weight f4 [4]
0	0x3f908f74	1.1293778
1	0x3ecaa2b8	0.3957727
2	0x3e30e002	0.17272952
3	0x3e753340	0.23945332

qnn._weights f4 [4]
0	0x3f908f74	1.1293778
1	0x3ecaa2b8	0.3957727
2	0x3e30e002	0.17272952
3	0x3e753340	0.23945332
