models/classification/control/mnist/mnist_0v1_2qubits_r3.pt (torch, 207416 bytes, 10 tensors)

conv1.weight f4 [2, 1, 5, 5]
0	0x3d8469df	0.06465506
1	0xbdc9bc61	-0.098503835
2	0xbda87166	-0.08224754
3	0xbd33c44b	-0.04388837
4	0x3dce221f	0.10065102
5	0x3c692928	0.014231004
6	0x3e4f4880	0.202425
7	0xbd0b62d3	-0.034029793
8	0x39e66ef4	0.00043951685
9	0x3b1bf85e	0.0023799161
10	0xbe0e9c57	-0.13926826
11	0xbbc33daf	-0.005958281
12	0x3d3c3d8f	0.045957144
13	0xbd3c798c	-0.046014354
14	0x3d9fa0e1	0.07794357
15	0x3e365946	0.17807493
16	0x3e504a9e	0.20340964
17	0xbd531c80	-0.05154085
18	0xbd446673	-0.047949266
19	0xbd94ccbf	-0.07265615
20	0x3d96252e	0.0733131
21	0x3df2a044	0.118469745
22	0xbd40ef84	-0.04710342
23	0x3e3cec00	0.18449402
24	0x3e33f113	0.17572431
25	0x3911e276	0.00013912641
26	0x3dbafad8	0.09129876
27	0xbdb96761	-0.09052921
28	0xbd0bc87f	-0.034126755
29	0xbe3b8789	-0.18313421
30	0xbd3f0e2f	-0.046644386
31	0x3dbfa86d	0.093582965
32	0x3e06925b	0.13141768
33	0xbd8de7ce	-0.06928979
34	0x3d31a55a	0.043370582
35	0xbdf48b14	-0.119405895
36	0x3e1fcda0	0.15605783
37	0xbddc5599	-0.10758514
38	0xbd254137	-0.040345397
39	0xbe0a0f96	-0.13482508
40	0xbd6269c3	-0.055276643
41	0x3d768171	0.06018204
42	0x3dfbfbcc	0.12303886
43	0x3df1dac8	0.11809307
44	0x3dd5b0d3	0.10434117
45	0xbd4c5f8b	-0.049895804
46	0xbdeb2b7b	-0.114829026
47	0xbdef0745	-0.116713084
48	0x3e6ca160	0.23108435
49	0xbdc7777f	-0.09739589

conv1.bias f4 [2]
0	0xbb0765b0	-0.0020659976
1	0xbdc82974	-0.097735316

conv2.weight f4 [24, 2, 5, 5]
0	0x3c427251	0.0118680755
1	0x3e068638	0.13137138
2	0x3da6ba17	0.081409626
3	0xbdac2299	-0.084050365
4	0xbdcb948f	-0.09940445
5	0x3d11cc67	0.035595324
6	0xbdf2e72e	-0.118605
7	0xbce323e9	-0.027727084
8	0x3bf7f656	0.0075672073
9	0xbdb76246	-0.08954291
10	0xbd474909	-0.048653636
11	0xbd273f18	-0.040831655
12	0x3d97ce68	0.07412416
13	0x3da7f67c	0.0820131
14	0x3d9f1f2a	0.07769616
15	0xbc090ef4	-0.0083653815
16	0xbd49874c	-0.049201295
17	0x3df95773	0.12174883
18	0xbcc36114	-0.023850001
19	0x3c8bec07	0.01708032
20	0x3d6d86a2	0.057989724
21	0x3d4d8db4	0.050183967
22	0xbd91be73	-0.071164034
23	0xba11374b	-0.00055395503
24	0x3bc63309	0.0060485643
25	0xbdd8d973	-0.1058835
26	0x3b23ce39	0.0024994744
27	0x3d0c0629	0.034185562
28	0xbd03af25	-0.032149453
29	0xbca94327	-0.020661904
30	0xbdae764b	-0.08518656
31	0x3d9af942	0.075670734
32	0x3db2c1c0	0.08728361
33	0xbd89a7f0	-0.06721485
34	0x3dd39296	0.103306934
35	0xbb553ad2	-0.003253628
36	0x386f0752	5.6988858e-05
37	0xbd16c10f	-0.03680521
38	0x3d6fa080	0.058502674
39	0x3d8615e4	0.06547144
40	0xbd74e06e	-0.059784345
41	0xbd74de15	-0.059782106
42	0x3e2a3842	0.16623023
43	0x3d27967e	0.040915005
44	0xbd958a75	-0.07301799
45	0xbdbd4fc3	-0.09243729
46	0x3e10619b	0.14099734
47	0x3e20708f	0.15667938
48	0xbd3008f0	-0.042977273
49	0xbe08d8c4	-0.1336394
50	0xbdc3be92	-0.09557833
51	0x3cfe46b3	0.031039571
52	0x3e0ba0b0	0.13635516
53	0xbcc6f6ae	-0.024287548
54	0x3da350e8	0.07974416
55	0x3d645a2e	0.055750065
56	0x3d81a452	0.0633017
57	0xbd4e9285	-0.0504327
58	0x3dafbd85	0.0858107
59	0xbd9587d9	-0.073013015
60	0xbdcb911e	-0.09939788
61	0x3d87561e	0.066082224
62	0xbd4454ec	-0.04793255
63	0x3d562145	0.052277822
64	0x3d140dc2	0.036145933
65	0x3cb4651e	0.022020873
66	0xbdc10151	-0.09424079
67	0xbdc47f0d	-0.095945455
68	0xbe2d086d	-0.16897745
69	0xbddfb6b6	-0.10923521
70	0xbb9aa6e5	-0.0047196024
71	0xbcbe988b	-0.023266098
72	0xbda84de9	-0.08217985
73	0xbd8914f2	-0.06693448
74	0x3e2050b4	0.15655786
75	0x3def1d21	0.11675478
76	0x3db4c0db	0.08825847
77	0x3bc367a0	0.005963281
78	0x3d780729	0.060553703
79	0x3da60ef3	0.0810832
80	0x3e27e3c4	0.1639548
81	0xbe347d3c	-0.17625898
82	0xbd1a1555	-0.037618
83	0x3e325ae6	0.17417488
84	0x3df06f6e	0.117400035
85	0x3df56bce	0.11983453
86	0x3dac7b3c	0.084219426
87	0xbdb7d983	-0.08977034
88	0xbdbf84b9	-0.09351487
89	0xbd9a2f92	-0.075286046
90	0x3d3facb1	0.04679555
91	0x3e042936	0.12906346
92	0xbdb1b9b4	-0.08677998
93	0x3da43018	0.08016986
94	0x3d7dd3d1	0.061969582
95	0xbe0e6760	-0.13906622
96	0xbcc5224f	-0.024064211
97	0xbdd79203	-0.105258964
98	0x3bcf5470	0.0063272044
99	0xbe256907	-0.16153346
100	0xbdaa3930	-0.08311689
101	0x3daf6add	0.085653044
102	0x3e0f52fb	0.13996498
103	0xbd3c830e	-0.04602342
104	0xbe0163e4	-0.12635761
105	0x3cdf6de6	0.027274083
106	0xbde3a8c0	-0.11116171
107	0xbd2ed974	-0.04268785
108	0x3d6f6b4a	0.05845193
109	0xbdd9f829	-0.10643036
110	0xbd9266a7	-0.07148486
111	0xbdd13f82	-0.10217191
112	0x3db0732e	0.08615719
113	0x3cb4a94d	0.022053385
114	0x3db1e1dd	0.08685658
115	0xbd00566c	-0.03133242
116	0x3d45ff54	0.048339203
117	0x3d4a29aa	0.04935614
118	0xbc932220	-0.017960608
119	0xbd6b99e1	-0.057519797
120	0xbd9bde64	-0.07610777
121	0xba6a5103	-0.0008938463
122	0x3e146a80	0.14493752
123	0xbdeb648d	-0.11493788
124	0xbdaa3139	-0.0831017
125	0xbde0d6ed	-0.10978494
126	0x3df06f52	0.11739983
127	0x3c8fd0d0	0.017555624
128	0x3dc3bd91	0.09557641
129	0x3e1a0202	0.15039828
130	0x3d44555d	0.04793297
131	0x3dbbc824	0.09169033
132	0x3c8b8f34	0.017036058
133	0xbdf37a20	-0.11888528
134	0xbb6793c6	-0.0035335883
135	0xbd66073a	-0.056159236
136	0x3bc843b5	0.006111587
137	0x3d5c6a8c	0.05381255
138	0xbda9bf5c	-0.08288452
139	0x3dadcbd5	0.084861435
140	0xbe1c112d	-0.15240927
141	0x3e081c73	0.13292103
142	0xbdb503b2	-0.088385954
143	0x3d93d664	0.07218626
144	0xbda68704	-0.08131221
145	0x3c336d12	0.010951297
146	0xbda1191e	-0.07866119
147	0xbdd78537	-0.105234556
148	0x3d8f4c5a	0.06996985
149	0xbcc44476	-0.023958426
150	0xbdc5bcf8	-0.096551836
151	0xbc8d74f9	-0.017267691
152	0x3de070dc	0.10959026
153	0xbd50da17	-0.050989237
154	0x3dd6490b	0.104631506
155	0xbde77b14	-0.11302772
156	0xbcd9013e	-0.02648985
157	0x3dadf49a	0.0849392
158	0x3d8830d3	0.066499375
159	0xbe07285a	-0.13198987
160	0x3d969659	0.07352895
161	0x3e0fc005	0.14038093
162	0x3e1357d7	0.14388977
163	0xbcfac03f	-0.030609248
164	0xbb7e0579	-0.0038760586
165	0xbdd02f6f	-0.10165297
166	0x3cc3138c	0.023813032
167	0xbdc9f44d	-0.0986105
168	0x3d03b486	0.032154582
169	0x3d7dce10	0.061964095
170	0x3d11c60d	0.035589267
171	0x3d833921	0.06407381
172	0xbdbc25de	-0.0918691
173	0x3c5394f1	0.012913928
174	0x3d5788e2	0.052620776
175	0xbdb9d8e3	-0.09074571
176	0xbdbebf55	-0.093138374
177	0xbdeb996f	-0.115038745
178	0xbd9f094b	-0.07765444
179	0x3da7d9c5	0.08195833
180	0x3dce2efb	0.100675546
181	0x3d830202	0.06396867
182	0x3e0e16d1	0.13875891
183	0xbdd6fae9	-0.10497076
184	0xbd063600	-0.032766342
185	0xbd06093e	-0.032723658
186	0xbd2edcd4	-0.042691067
187	0xbc027242	-0.0079618115
188	0xbd8f052c	-0.06983408
189	0x3d055fb5	0.032561976
190	0x3d869ec5	0.06573252
191	0xbe305a12	-0.17221859
192	0x3d0fff82	0.03515578
193	0xbc7c46aa	-0.015397707
194	0xbdc14f3d	-0.09438942
195	0xbd9c5c51	-0.076347955
196	0x3ce1751f	0.027521668
197	0x3e1f1e9d	0.15539022
198	0x3df843ed	0.12122331
199	0x3d7cce44	0.061720148
200	0x3df21e42	0.118221775
201	0x3dd59b24	0.10429981
202	0x3d8f6ab9	0.070027776
203	0xbcadb6e0	-0.021205366
204	0xbd7236ed	-0.059134413
205	0x3d3fe0f0	0.046845376
206	0xbd85ecd5	-0.06539313
207	0xbde70f91	-0.11282266
208	0x3c530e20	0.012881786
209	0x3d9a9693	0.07548251
210	0x3b8dd0b3	0.0043278574
211	0x3dee294a	0.11628969
212	0x3dd2aa4a	0.10286386
213	0x3d51474e	0.051093392
214	0x3dc92694	0.09821811
215	0x3d80fa60	0.06297755
216	0xbe1a8a05	-0.15091713
217	0xbe22d738	-0.15902412
218	0xbe0e24d7	-0.13881241
219	0x3dabba79	0.08385176
220	0xbdc32af0	-0.09529674
221	0xbca13372	-0.019677851
222	0xbe03c26a	-0.12867132
223	0xbe0f1c9c	-0.13975757
224	0xbcbb0151	-0.022827776
225	0xbcef4982	-0.029209856
226	0x3db52668	0.08845216
227	0x3cc54dbb	0.024084916
228	0xbdca56e0	-0.09879851
229	0x3dfce6c0	0.123486996
230	0x3e135dad	0.14391203
231	0xbe07cf87	-0.13262759
232	0xbdb09536	-0.0862221
233	0xbd7d4804	-0.061836258
234	0xbdc11c02	-0.0942917
235	0xbd329161	-0.043595675
236	0x3d2e31ea	0.04252807
237	0xbdb7ed07	-0.08980756
238	0x3e31176c	0.17294091
239	0x3dc31210	0.095249295
240	0x3d837888	0.06419474
241	0x3ceb58e1	0.028728904
242	0x3de019ef	0.109424464
243	0x3d6e3078	0.058151692
244	0x3bd940c8	0.006630037
245	0x3cbbbfa3	0.022918528
246	0xbddbd88f	-0.10734665
247	0xbe0150a3	-0.12628417
248	0xbd010d30	-0.031506717
249	0x3de2bab1	0.11070765
250	0xbdffef84	-0.12496856
251	0xbda66834	-0.08125344
252	0x3dd479c6	0.10374789
253	0xbd81272d	-0.063063
254	0x3ddab104	0.10678294
255	0x3ca661c3	0.020310288

conv2.bias f4 [24]
0	0x3d21a23b	0.039461356
1	0x3d421207	0.047380473
2	0x3d39a2e9	0.04532138
3	0xbd8d7fe0	-0.06909156
4	0x3cbf0026	0.0233155
5	0x3d33a3a1	0.04385722
6	0xbdff03e9	-0.12451918
7	0x3d2f7b54	0.042842224
8	0xbd1d02e1	-0.038332824
9	0xbd06e12b	-0.03292958
10	0x3d21702d	0.03941362
11	0x3ddfe832	0.109329596
12	0xbddcddae	-0.107844695
13	0xbe007dd8	-0.12548006
14	0x3d490595	0.04907759
15	0x3cb286e6	0.02179284
16	0x3ca91c32	0.020643327
17	0x3c1e24ee	0.009652359
18	0x3941f7f5	0.00018498285
19	0x3dcdfc58	0.100578964
20	0x3c533ba0	0.012892634
21	0x3c591a39	0.013250881
22	0xbdf15db1	-0.11785448
23	0x3dafca8b	0.08583554

fc1.weight f4 [128, 384]
0	0x3d266349	0.04062203
1	0x3d381206	0.044939063
2	0x3d4cef6d	0.05003302
3	0xbb8b543d	-0.0042519853
4	0xbcac69b8	-0.021046504
5	0x3cdc598c	0.026898168
6	0x3c30e0b9	0.010795766
7	0x3b2b7d77	0.0026167312
8	0x3bdbdeaf	0.0067098956
9	0xbd0caeab	-0.034346264
10	0xbb90a274	-0.004413897
11	0xbbe7ef27	-0.0070780697
12	0x3c88a7e6	0.016681623
13	0x3bd5cde7	0.0065247896
14	0x3cd6f185	0.026238212
15	0x3d0594ad	0.03261249
16	0x3c927652	0.017878685
17	0x3d08c0d5	0.033387024
18	0x3d6833b2	0.056689925
19	0xbc62fb90	-0.0138539225
20	0xbd578295	-0.052614767
21	0x3c2d889a	0.01059165
22	0x3cabeaf4	0.020986058
23	0x3cd77fc0	0.026306033
24	0xbd2bee15	-0.0419751
25	0xbaac1f02	-0.00131318
26	0x3c3c5c36	0.011496594
27	0x3d318b4c	0.043345734
28	0xbcb1cca4	-0.021704026
29	0x3bf5d674	0.0075023714
30	0x3d4ffa0d	0.050775576
31	0xbd11ac41	-0.035564665
32	0x3c0837fb	0.008314128
33	0xbd6f2ff8	-0.058395356
34	0x3cda47bb	0.026645532
35	0x3c98b378	0.018640265
36	0xbcd85fa2	-0.026412789
37	0x3d1d66dc	0.038428172
38	0xbcdf031a	-0.027223159
39	0x3bed8d19	0.007249486
40	0x3cc5804d	0.02410903
41	0xbcaca13b	-0.021072974
42	0xbc5c964d	-0.013463569
43	0x3d44ec39	0.048076842
44	0xbd08d26c	-0.0334038
45	0xbc1bfc7e	-0.009520648
46	0xbd6c2b42	-0.05765844
47	0x3cd2accd	0.025717163
48	0x3ceeb0d2	0.029137049
49	0x3cfe999b	0.031079104
50	0xbcb28ec3	-0.02179659
51	0xbcdeaa2d	-0.027180756
52	0x3b474720	0.0030407384
53	0xbb321e83	-0.002717883
54	0xbc008d1c	-0.007846143
55	0x3c299e55	0.010352691
56	0x3d596c56	0.053081833
57	0x3d4a8c4e	0.04945021
58	0xbd0d4ec9	-0.034498964
59	0xbb8a2fc9	-0.004217122
60	0x3d4b7c6b	0.0496792
61	0x3b9aad82	0.004720391
62	0x3ce1c6bb	0.027560582
63	0x3cf0d230	0.0293971
64	0xbcc3cebe	-0.023902293
65	0x3c41f542	0.011838259
66	0x3d3d2c30	0.04618472
67	0x3c88fe65	0.016722867
68	0xbc8e13d8	-0.017343447
69	0xbd4f39cb	-0.050592225
70	0xbd0599e9	-0.032617483
71	0xbc4a7915	-0.01235797
72	0x3b1e5081	0.002415687
73	0xbbd188e7	-0.006394494
74	0x3bf44a76	0.0074551655
75	0x3d38dd51	0.04513294
76	0x3bc46748	0.0059937574
77	0x3c840da8	0.016119793
78	0x3d13a07c	0.03604172
79	0xbc195bfa	-0.009360308
80	0x3c0dd3ed	0.008656484
81	0x3d20311d	0.039109338
82	0xbcb1b69b	-0.021693518
83	0xbcec933a	-0.028878797
84	0xbd1795bc	-0.037008032
85	0xbcef6b2b	-0.029225906
86	0x3b8fe797	0.0043916213
87	0x3d39d003	0.04536439
88	0x3b56835c	0.0032732105
89	0x3c808dd5	0.01569263
90	0x3af3563e	0.0018565131
91	0x3cb1c7a9	0.02170165
92	0xbca3604a	-0.019943375
93	0xbd1b4be9	-0.03791419
94	0x3d4e498b	0.050363105
95	0xba4cfa2d	-0.00078192615
96	0x3cb66594	0.022265233
97	0xbd848251	-0.064701684
98	0xbc950015	-0.018188516
99	0xbd1e6736	-0.03867265
100	0x3be89f65	0.0070990794
101	0xbd01e904	-0.03171636
102	0xbd90a065	-0.07061843
103	0x3d7b5758	0.061362594
104	0xbd1b406e	-0.03790324
105	0xbc3d1bc9	-0.011542269
106	0x3d0c0516	0.034184538
107	0x3ce4f3c7	0.027948273
108	0x3d0a067e	0.033697598
109	0xbd057757	-0.032584514
110	0x3d5668be	0.052345984
111	0xbad04f7c	-0.0015892829
112	0x3d45aaa9	0.048258457
113	0xbd1b43a7	-0.037906315
114	0x3d2d4a2f	0.042307075
115	0xbd13c459	-0.036075924
116	0xbcdffe9f	-0.027343092
117	0xbd0bdbd7	-0.034145202
118	0xbd35f983	-0.044427406
119	0xbd229fba	-0.03970311
120	0xbc296e7f	-0.010341286
121	0x3ccf2630	0.025286764
122	0xbd39af6a	-0.045333304
123	0x3bcf69b3	0.006329739
124	0x3c8d56a8	0.017253235
125	0xbcca746b	-0.024713716
126	0xbbb9c1af	-0.005668841
127	0x3d1b33fe	0.03789138
128	0x3d1c478d	0.038154174
129	0x3d2ee0a4	0.042694703
130	0xbc8eeb98	-0.017446324
131	0x3d411e63	0.04714812
132	0x3d156b90	0.036479533
133	0xbd41ae0e	-0.047285132
134	0x3cfc1f41	0.030776622
135	0x3d6972f7	0.056994405
136	0x3bf6694c	0.0075198766
137	0xbc35964d	-0.011083198
138	0x3d621210	0.055193007
139	0x3d03e6a0	0.032202363
140	0xbd165095	-0.036697943
141	0x3d7b3953	0.061333966
142	0x3c7be97b	0.01537549
143	0xbd5dd1f4	-0.054155305
144	0xbc844794	-0.016147412
145	0x3ced025e	0.028931793
146	0x3d07fa54	0.033197716
147	0x3b9be934	0.0047580246
148	0xbd014bc7	-0.031566408
149	0x3d1f9958	0.0389646
150	0xbd1634e2	-0.036671527
151	0x3c312e21	0.010814221
152	0x3ae6280a	0.001755954
153	0x3d3fa26a	0.04678575
154	0x3cc68e12	0.024237666
155	0xbd884f76	-0.06655781
156	0xbd402289	-0.046907935
157	0x3ce812bb	0.028329244
158	0xbcae442e	-0.021272745
159	0x3be6f75b	0.00704853
160	0x3c5431c2	0.012951316
161	0xbd191c61	-0.03738058
162	0xbc183b2f	-0.009291454
163	0x3c5baabd	0.013407406
164	0x3bb83e7b	0.0056226826
165	0x3d1e62fb	0.038668614
166	0xbc349c36	-0.011023572
167	0x3c41b9cd	0.0118240835
168	0xbc42a756	-0.011880716
169	0xbcc49977	-0.023998959
170	0xbd02c3d5	-0.03192504
171	0x3d83c75b	0.064345084
172	0x3cf523f1	0.029924365
173	0xbd057fb3	-0.032592487
174	0x3c9350f8	0.017982945
175	0x3c2f0db6	0.010684421
176	0xbbf40550	-0.0074469224
177	0xbb1dd1c7	-0.0024081336
178	0x3d5ba847	0.05362728
179	0xbd885e56	-0.06658618
180	0xbc7d31ad	-0.015453738
181	0x3d39f895	0.045403082
182	0xbd0d186c	-0.03444712
183	0x3baba116	0.005237709
184	0xbd447785	-0.047965545
185	0xbd41ad22	-0.047284253
186	0xbcf26f24	-0.029594012
187	0x3c2fe8fc	0.0107367
188	0x3d30429f	0.043032285
189	0x3a948fd2	0.0011334366
190	0x3a570ab5	0.00082031946
191	0x3d716464	0.05893363
192	0xbd5a41b4	-0.053285316
193	0xbd2e9d88	-0.042630702
194	0xbcf2e997	-0.0296524
195	0x3d7d69f8	0.061868638
196	0xbd4bd7cd	-0.04976635
197	0x3d3056e5	0.04305162
198	0x3cb4548c	0.022012971
199	0x3c061d68	0.008185722
200	0x3d0d76a7	0.034536984
201	0x3cb33630	0.021876425
202	0xbd502d52	-0.05082447
203	0xbd69e211	-0.05710036
204	0x3caf28cb	0.021381756
205	0x3c073955	0.008253415
206	0xbc2b5276	-0.010456672
207	0xbcfeef97	-0.031120105
208	0xbc9c563f	-0.019084094
209	0xbc9a1554	-0.018808998
210	0x3c2cd9b5	0.010549952
211	0xbd2f528b	-0.04280333
212	0x3d4d832d	0.050173927
213	0x3d1ba481	0.03799868
214	0x3b2f4bb8	0.0026748013
215	0x3a9fcddd	0.0012192089
216	0x3bd223ea	0.0064129727
217	0x3d7cd5e9	0.061727438
218	0x3d6c9add	0.057764877
219	0xbcdb6284	-0.026780374
220	0x3c344cb2	0.011004614
221	0xbcf8af5d	-0.030357057
222	0x3d4bfa8b	0.049799483
223	0x3cc877f9	0.02447127
224	0x3c6230ed	0.01380561
225	0xbd22824c	-0.039675042
226	0x3cad0651	0.021121176
227	0x3be14d1d	0.0068756477
228	0x3cd3a4a1	0.025835337
229	0xbd62c875	-0.055366952
230	0x3cce8314	0.025208987
231	0x3d075cd6	0.03304752
232	0x3ce8bedd	0.028411323
233	0x3d8dbfd2	0.069213524
234	0x3d03c914	0.032174185
235	0xbc519e76	-0.012794128
236	0xbb5a7bee	-0.0033338028
237	0x3cea2bee	0.0285854
238	0xbca49db8	-0.020094737
239	0xbd27d557	-0.04097494
240	0x3d1b8cf9	0.03797624
241	0x3c5a9d4e	0.013343168
242	0xbba7d8a0	-0.0051222593
243	0x3c7b080a	0.015321741
244	0x3a6a5e5b	0.00089404517
245	0x3c5b9e1e	0.013404397
246	0xbd1470d8	-0.03624043
247	0x3cc43e88	0.023955598
248	0x3c604f69	0.013690808
249	0xbc5ee549	-0.0136044705
250	0x3d1e39cf	0.03862935
251	0x3d2fbfc4	0.04290749
252	0x3cf9089b	0.030399611
253	0xbbe2f075	-0.0069256374
254	0x3cd230d8	0.025658056
255	0x3c1ef1b0	0.0097011775

fc1.bias f4 [128]
0	0x3c3b1e0b	0.011420737
1	0x3d231c11	0.039821688
2	0x3d856105	0.06512646
3	0xbcbcdf0a	-0.023055572
4	0x3c642a2b	0.013926069
5	0x3d04feb2	0.03246946
6	0x3c773e02	0.015090467
7	0x3ca28a17	0.019841237
8	0xbd19ae73	-0.037519883
9	0xbb9848b0	-0.004647337
10	0xbca6271f	-0.020282326
11	0xbc7a56b2	-0.015279459
12	0x3daacb92	0.08339609
13	0xbc65c54e	-0.014024092
14	0xbc3628a1	-0.011118085
15	0x3b6a446c	0.003574635
16	0xbd92b5f7	-0.07163613
17	0x3d5d5328	0.054034382
18	0x3cedc486	0.029024374
19	0x3d6b29d2	0.05741293
20	0x3d7f4735	0.062323768
21	0xbc93f8c8	-0.018062964
22	0x3d895fad	0.06707702
23	0x3d98d287	0.0746203
24	0xbb913ecc	-0.004432535
25	0x3daad7b0	0.083419204
26	0x3d61c15f	0.055116054
27	0x3d64187f	0.055687424
28	0xbc682bee	-0.01417063
29	0x3cbddc2b	0.023176273
30	0x3d43613c	0.04770015
31	0x3b1e7740	0.0024179965
32	0x3d490f7f	0.049087044
33	0x3d049c75	0.03237577
34	0xbd67b491	-0.056568686
35	0x3d04c994	0.032418802
36	0x3d114cae	0.035473518
37	0xbca6b2e1	-0.020348968
38	0xbc3384ec	-0.010956984
39	0x3a498234	0.0007686943
40	0xbd01076d	-0.031501222
41	0xbcdbc79f	-0.026828585
42	0xbcffe6f3	-0.031238055
43	0xbd1d4c94	-0.03840311
44	0xbd5d45f9	-0.05402181
45	0x3d61550b	0.055012744
46	0x3bcf8e19	0.006334078
47	0xbcefcfdc	-0.02927392
48	0x3c0cd38a	0.008595357
49	0x3d2c9b09	0.04214004
50	0xbb948b8d	-0.0045332373
51	0x3c908018	0.017639205
52	0x3c406501	0.011742831
53	0x3d4af7a0	0.04955256
54	0x3d3eee7b	0.04661415
55	0xbcd9c08f	-0.026581077
56	0x3d268c06	0.04066088
57	0x3c3bb0a5	0.01145569
58	0xbb149cbc	-0.0022676429
59	0xbd1aaae7	-0.03776064
60	0x3ba1dc86	0.0049396185
61	0x3d7f8987	0.062387016
62	0x3d0dea68	0.034647375
63	0x3dceaffe	0.100921616
64	0xbca0fe7d	-0.0196526
65	0x3d467b3b	0.048457365
66	0x3da652f6	0.08121292
67	0x3d7d1ad2	0.061793156
68	0xbdb96be7	-0.09053784
69	0x3d9322bf	0.07184362
70	0xbd28a46a	-0.041172422
71	0xbd3f8318	-0.04675588
72	0xbb949d8f	-0.004535384
73	0x3d751041	0.059829954
74	0xbd401be6	-0.046901606
75	0x3d271cb7	0.04079887
76	0xbb9807dd	-0.0046396093
77	0x3d4a675b	0.049414974
78	0x3da797bf	0.0818324
79	0xbccdb526	-0.025110792
80	0x3d81bfb6	0.06335394
81	0x3d8f2f5f	0.06991457
82	0xbd26752a	-0.04063908
83	0x3d657e79	0.056028817
84	0x3d6c3d2c	0.057675526
85	0xbd9581ff	-0.073001854
86	0xbd5f93f8	-0.054584473
87	0x3d57945b	0.052631717
88	0xbbb756c2	-0.005595059
89	0xbc7978a6	-0.015226519
90	0x3d5946cf	0.053046044
91	0x3ad7316e	0.001641793
92	0xbc85fb85	-0.016355285
93	0xbb247829	-0.0025096035
94	0x3de36967	0.11104088
95	0x3d209361	0.03920305
96	0x3d263e2b	0.04058663
97	0x3aa004e7	0.0012208492
98	0xbd2736b7	-0.040823665
99	0xbd6e1305	-0.058123607
100	0xbd05d9aa	-0.032678284
101	0xb966013e	-0.00021934972
102	0xbd6dd944	-0.05806853
103	0x3d38e384	0.04513885
104	0x3b373ebf	0.0027960984
105	0x3d24dade	0.04024779
106	0xbb7ad4ee	-0.0038273889
107	0x3ca84ac6	0.020543467
108	0x3bd9347a	0.00662857
109	0x3ddc5cb9	0.10759873
110	0x3c5bbfed	0.013412458
111	0x3bca3fe7	0.0061721685
112	0xbd049cb4	-0.032376006
113	0x3d4364a5	0.047703404
114	0xbc95bfba	-0.018279899
115	0x3d205c6f	0.03915065
116	0xbc8b953f	-0.01703894
117	0x3be684ce	0.0070348745
118	0xbc0904df	-0.008362978
119	0x3d193846	0.037407182
120	0x3d2e3563	0.042531382
121	0xbcdd0193	-0.02697829
122	0xbca1dd6b	-0.0197589
123	0xbba67aaf	-0.005080543
124	0x3d55888a	0.052132167
125	0x3cafc4a7	0.021456076
126	0x3cbdd466	0.023172569
127	0xbcc62e91	-0.024192126

fc2.weight f4 [2, 128]
0	0xbc0a7d68	-0.008452751
1	0xbd054772	-0.03253884
2	0x3ca46b0c	0.020070575
3	0x3d7160b1	0.058930103
4	0x3d9d7bc9	0.07689626
5	0x3a2728d3	0.0006376628
6	0x3d4f499c	0.05060731
7	0xbdabcc8f	-0.08388626
8	0x3d85234e	0.065008745
9	0xbd2e1f23	-0.042510163
10	0xbd79a731	-0.06095046
11	0x3d20a172	0.039216466
12	0xbd95d194	-0.073153645
13	0x3d18ca15	0.037302095
14	0x3dad13cc	0.084510416
15	0x3d7e4c2a	0.062084354
16	0x3d5b1c64	0.053493872
17	0xbce29fb7	-0.027664049
18	0x3d02efaf	0.03196686
19	0xbd9d511b	-0.07681485
20	0x3cbd1374	0.023080565
21	0x3dd6ea59	0.10493917
22	0xbd53bf07	-0.05169585
23	0xbdd0be38	-0.10192531
24	0x3d3f9a8a	0.04677824
25	0xbd99174b	-0.07475146
26	0xbdd2f900	-0.10301399
27	0xbb9a5064	-0.0047092903
28	0xbd44b266	-0.048021697
29	0xbd3b32b9	-0.04570267
30	0xbb1a2175	-0.0023518477
31	0x3c5000a1	0.012695462
32	0xbbeacde1	-0.007165656
33	0x3d2a09ae	0.041513138
34	0x3beabac9	0.00716338
35	0xbd905f6f	-0.070494525
36	0xbcb355a9	-0.021891432
37	0x3cf2dcb7	0.02964626
38	0x3c12679f	0.008935838
39	0xbd195c27	-0.0374414
40	0xbc6808cc	-0.014162254
41	0xbc498d2c	-0.012301724
42	0x3bd9003a	0.0066223415
43	0x3d8c8c89	0.068627425
44	0x3d40c298	0.04706058
45	0xbd06eff4	-0.03294368
46	0x39381ecc	0.0001755908
47	0xbc17ffa2	-0.009277256
48	0xbd922e24	-0.07137707
49	0x3d512432	0.05105991
50	0xbc82fcd8	-0.015989706
51	0x3d17b345	0.0370362
52	0xbdc23ac0	-0.09483862
53	0xbc3f6c17	-0.0116834855
54	0xbd38a2fa	-0.0450773
55	0x3d8a824e	0.06763135
56	0x3d9ce24f	0.076603524
57	0xbcd53e12	-0.026030574
58	0x3d110c89	0.035412345
59	0xbd0b5278	-0.034014195
60	0x3d8be17f	0.06830119
61	0x3d7e91db	0.062150817
62	0xbd8bcfa2	-0.06826712
63	0xbd969356	-0.07352321
64	0x3d119e5c	0.035551414
65	0xbd49b976	-0.049249135
66	0xbdaf38ed	-0.085557796
67	0x3db008df	0.08595442
68	0x3d86d2ff	0.06583213
69	0xbd8f7954	-0.070055634
70	0xbcfffff5	-0.03124998
71	0x3d31e5a9	0.04343191
72	0xbd32e36d	-0.04367392
73	0xbc70223d	-0.014656601
74	0xbc8a32d9	-0.01686995
75	0xbd72ca03	-0.059274685
76	0x3d6519d2	0.055932827
77	0x3c4d4779	0.012529247
78	0xbdd318c6	-0.103074595
79	0x3d152785	0.036414642
80	0x3cc86d76	0.024466258
81	0xbba1aa8e	-0.004933662
82	0x3bb1db29	0.0054277373
83	0x3c76f528	0.015073098
84	0xbd97e958	-0.07417554
85	0x3db1bfd7	0.08679169
86	0xbd987466	-0.07444076
87	0xbca745a3	-0.020418948
88	0x3bbda5c7	0.0057875845
89	0x3d96a049	0.07354791
90	0x3d67ea6d	0.05662005
91	0xbd94f1de	-0.07272695
92	0x3d859de9	0.065242596
93	0x3c42f6ac	0.0118996315
94	0xbdac5c61	-0.084160574
95	0x3d82d06c	0.063874096
96	0x3d931994	0.07182613
97	0xbd24c1a0	-0.040223718
98	0xbcabbee4	-0.020965047
99	0x3c6b46c6	0.014360135
100	0x3d44828a	0.047976054
101	0x3c7cf3b3	0.015438962
102	0xbd44c35f	-0.048037883
103	0x3dc16640	0.09443331
104	0xbd87bcd7	-0.06627815
105	0x3cf637df	0.030055938
106	0xbd8c12c9	-0.068395205
107	0xbcce8f3f	-0.02521479
108	0x3da10257	0.078617744
109	0xbd9c8823	-0.076431535
110	0xbc9bbb6b	-0.019010266
111	0xbbd5e921	-0.0065280353
112	0x3d7a4a73	0.061106157
113	0x3d09a222	0.033601888
114	0xbd1a836a	-0.037722982
115	0xbcb920d9	-0.02259867
116	0xbc569e7f	-0.013099312
117	0x3d6d8ef0	0.057997644
118	0xbc9fb7df	-0.019496856
119	0xbd616563	-0.05502833
120	0xbd390f60	-0.04518068
121	0x3c414f05	0.011798625
122	0x3d2971fe	0.041368477
123	0x3c19e3bd	0.009392676
124	0xbd08cc8b	-0.033398192
125	0x3c98f7a5	0.018672774
126	0x3d87c872	0.06630029
127	0xbb6a5e13	-0.003576164
128	0x3cdba40c	0.026811622
129	0xbd6331bd	-0.055467356
130	0xbdafcd83	-0.0858412
131	0xbcaee4c4	-0.021349318
132	0xbc6537b6	-0.013990333
133	0x3ca57de0	0.020201623
134	0xbd103b15	-0.035212595
135	0x3d0440fe	0.032288544
136	0xbd4e45a3	-0.05035938
137	0x3d330df8	0.043714494
138	0xbc926546	-0.017870557
139	0x3d627db3	0.055295657
140	0x3c9d8f81	0.019233467
141	0x3d309cd4	0.043118313
142	0xbc961277	-0.018319352
143	0x3c81d4c3	0.015848523
144	0xbd80f552	-0.06296791
145	0x3da5912e	0.080843315
146	0x3db3fc4f	0.087883584
147	0xbd3039a1	-0.04302371
148	0xbdcbe897	-0.09956472
149	0xbd318d34	-0.043347552
150	0xbcff0d03	-0.031134134
151	0x3d7d2784	0.061805263
152	0xb9cc8345	-0.00039007716
153	0xbcb89289	-0.02253081
154	0xbc963efa	-0.018340576
155	0xbd184bdf	-0.03718173
156	0x3bcee57b	0.0063139773
157	0xbd6fad2c	-0.05851476
158	0x3d319940	0.04335904
159	0x3cde1db4	0.027113773
160	0x3d8bcd62	0.06826283
161	0x3d3f505b	0.046707492
162	0xbc3e1511	-0.011601702
163	0xbd94a500	-0.07258034
164	0xbd0f2d69	-0.034955416
165	0x3d111084	0.03541614
166	0x3d3efad1	0.046625916
167	0x3d1eb16b	0.038743418
168	0x3d907c21	0.07054926
169	0x3d51665e	0.051123016
170	0xbcf15ab8	-0.029462203
171	0xbd0f6162	-0.03500498
172	0x3d5cce7d	0.05390786
173	0xbd7efcb5	-0.06225272
174	0x3d05b21c	0.03264056
175	0xba400570	-0.0007325029
176	0xbd83b590	-0.06431115
177	0x3b1bd927	0.0023780556
178	0xbd911c56	-0.07085483
179	0x3bc88b19	0.0061200974
180	0xbc8d134b	-0.017221114
181	0xbcaca982	-0.021076921
182	0x3d5c7608	0.0538235
183	0xbc0c35bd	-0.008557734
184	0xbd23d1bf	-0.03999495
185	0x3d0a05c2	0.033696897
186	0xbd717bd7	-0.058955994
187	0xbcd5eb98	-0.026113316
188	0x3d5ad627	0.053426888
189	0x3da04b00	0.07826805
190	0xbcac206b	-0.021011552
191	0x3d0a21c3	0.033723604
192	0x3c810a56	0.015751999
193	0xbd92db90	-0.071707845
194	0xbd2a11af	-0.04152077
195	0xbc0ea880	-0.008707166
196	0xbdb2dbdd	-0.08733342
197	0x3daeb124	0.08529881
198	0x3c842be3	0.016134208
199	0xbd95cb80	-0.07314205
200	0x3d9068a9	0.07051212
201	0xbce26ed7	-0.027640743
202	0xbc9de1c9	-0.019272702
203	0xbc834def	-0.016028373
204	0x3d99dfc5	0.07513384
205	0xbd4d4e96	-0.050123774
206	0xbd8eddaa	-0.06975873
207	0x3c8bc110	0.017059833
208	0x3d8aabf4	0.06771079
209	0xbd50d5fa	-0.050985314
210	0xbd53b1e6	-0.05168333
211	0x3d23e33e	0.040011637
212	0xbd87c3a0	-0.066291094
213	0xbda0863c	-0.07838103
214	0xbd83f7f1	-0.064437754
215	0xbda04946	-0.07826476
216	0x3dac01ed	0.08398805
217	0x3d3e5713	0.04646976
218	0x3d4f3c5f	0.050594684
219	0x3d940882	0.07228185
220	0x3cb96eb9	0.022635804
221	0xbd22551d	-0.03963195
222	0x3dabfec5	0.08398203
223	0x3d009083	0.031387817
224	0x3cda339c	0.026635937
225	0x3d16ec46	0.03684642
226	0xbb4003e9	-0.0029299206
227	0x3c7751a1	0.015095145
228	0x3c9dab91	0.019246848
229	0xbcb4a38f	-0.022050647
230	0x3d330a92	0.043711253
231	0xbcdd88fb	-0.027042856
232	0xbaed2112	-0.0018091521
233	0xbd58a9ff	-0.052896496
234	0x3d5f1c4f	0.054470357
235	0x3d8a15af	0.06742417
236	0x3cf9ae1e	0.030478533
237	0x3d3bf520	0.045888066
238	0x3c93df82	0.018050913
239	0xbd4c1957	-0.049828853
240	0xbd475275	-0.04866262
241	0x3d25e171	0.0404982
242	0xbd21d2ea	-0.039507784
243	0x3d0c9c17	0.034328546
244	0x3d19bfc5	0.0375364
245	0x3d0af9c0	0.033929586
246	0xbd195a2c	-0.03743951
247	0x3d590a12	0.05298812
248	0x3d81fe96	0.063473865
249	0xbd4ba6fe	-0.049719803
250	0xbd383970	-0.04497665
251	0x3d4fcf58	0.050734848
252	0xbcfe1c81	-0.031019451
253	0xbd41e587	-0.047338035
254	0x3d2f1025	0.042740006
255	0x3d2eaf83	0.04264785

fc2.bias f4 [2]
0	0xbd9d5c13	-0.076835774
1	0xbd0f0a25	-0.034921784

qnn.weight f4 [4]
0	0xbf37c514	-0.7178509
1	0x3e728473	0.23683338
2	0x3eb286cd	0.3486847
3	0xbecdad8e	-0.40171474

qnn._weights f4 [4]
0	0xbf37c514	-0.7178509
1	0x3e728473	0.23683338
2	0x3eb286cd	0.3486847
3	0xbecdad8e	-0.40171474
