models/classification/control/mnist/mnist_0v1_2qubits_r5.pt (torch, 207416 bytes, 10 tensors)

conv1.weight f4 [2, 1, 5, 5]
000000 94 3e a3 3d f4 93 71 3d 7f 34 9b 3d 88 1d 23 3e
       0.0797092 0.05897899 0.07578372 0.15929234
000010 ce b2 df bd 63 2a 9f bd 42 6e ea bd f9 60 5c bd
       -0.10922776 -0.077717565 -0.11446811 -0.053803418
000020 66 5f 64 3d d3 4e 9f 3d 29 5f 25 be b1 3f cb bd
       0.05575504 0.077787064 -0.16149582 -0.099242575
000030 2a d0 e8 bd 3a 65 ef 3d 9d 9d 45 3e c7 22 d9 3d
       -0.11367829 0.11689229 0.19298406 0.106023364
000040 68 1f e7 bb 29 f4 38 be 82 4c 4d 3d 9d a0 44 bb
       -0.0070533045 -0.1806189 0.05012179 -0.003000296
000050 dd 68 a9 bd ac 70 e9 bc 3b e3 18 be d6 9e 0e be
       -0.08271954 -0.028496109 -0.14930432 -0.13927779
000060 59 e6 4e 3e 02 6c 1f be d7 7a af bc 4a d3 a9 bd
       0.20205058 -0.15568545 -0.02142088 -0.08292253
000070 73 dc 9a bd 43 ca 97 bc 5b 80 69 bd e7 1f 08 be
       -0.075615786 -0.018529063 -0.057007175 -0.1329342
000080 16 5c bb 3d ee ea d5 3d 4c 30 44 be 8e f3 31 3d
       0.091484234 0.104452 -0.19159049 0.043445162
000090 85 c3 50 3b c3 cb 8b bd f5 89 49 3d 6e fe 4b bd
       0.003185482 -0.06825974 0.04920383 -0.04980319
0000a0 af f1 38 3e 7c 36 c6 bd 82 33 dd bd c1 80 b3 bd
       0.18060945 -0.09678361 -0.1080084 -0.08764792
0000b0 bd 2b b0 bd 21 30 e0 bd 36 dc 18 be 06 06 af 3d
       -0.086020924 -0.1094668 -0.14927754 0.08546071
0000c0 82 4b 21 bd 3d a1 45 3e
       -0.03937865 0.19299789

conv1.bias f4 [2]
000000 a7 a9 12 3e b6 00 34 bb
       0.1432253 -0.0027466244

conv2.weight f4 [24, 2, 5, 5]
000000 7e 04 ed 3c 38 7f c3 3d 3b 75 8b 3b 33 13 cb 3d
       0.028932806 0.095457494 0.0042559183 0.09915771
000010 b0 29 34 bc a4 63 f8 3c 40 70 03 3e e2 bb c8 3d
       -0.010996267 0.03032095 0.12835789 0.09801461
000020 a2 34 01 be 32 7a 3c be 9e a7 09 3e c4 43 e7 3d
       -0.12617734 -0.18405989 0.13442847 0.11292222
000030 4b bf 07 3e 46 68 d9 bd 87 40 29 be 71 6a 48 bd
       0.13256566 -0.10615592 -0.16528521 -0.048929635
000040 91 4c 25 bd fe 70 ce 3b 87 e7 15 bd eb f2 0d be
       -0.040356223 0.006300091 -0.036597755 -0.13862197
000050 26 32 00 bd 94 13 38 3d 2e 78 0f 3d 63 bf ea 3c
       -0.031297825 0.044940546 0.03502672 0.028655713
000060 04 78 bc bd fe 19 f2 bd 8f 7d 07 bd ec 4d 69 3d
       -0.09202579 -0.11821364 -0.033078726 0.056959078
000070 94 62 21 be d0 e2 57 bc 34 4f 15 be 2f f8 4a 3e
       -0.15760261 -0.013176635 -0.14580995 0.19821237
000080 cb b5 8d bb 1c a8 09 3d b1 ac 32 bd 8d a9 de bc
       -0.00432465 0.033607587 -0.043621723 -0.027180457
000090 0f 9b 4f bc d5 18 be 3c 6e 64 a9 3c ec ba ec bd
       -0.012671246 0.0232052 0.020677771 -0.1155909
0000a0 4c 65 37 bc 3c 26 99 bd 1f fa db bd a2 f6 7a bd
       -0.011193585 -0.07477996 -0.10741066 -0.061270364
0000b0 52 c8 47 3d cb f8 0b 3e 50 c8 ff 3b b8 e4 9b bd
       0.048775025 0.13669126 0.0078058615 -0.07611984
0000c0 c3 04 ab 3c 8b 62 a1 3d dd 6c e5 bd e6 08 25 bc
       0.020876294 0.07880124 -0.11202405 -0.010072922
0000d0 09 e8 0c be 9c 2f b7 3d e3 6b c6 3d 4e 1f 1d 3e
       -0.1376039 0.08944628 0.096885465 0.15343973
0000e0 6a 58 33 3d 2b 2c d3 bd ff be 2a bd 78 b8 92 bd
       0.04378549 -0.10311159 -0.041686054 -0.07164091
0000f0 f0 8a 4c bd d3 09 2d 3e 3f ad f8 3d 35 ae c8 bd
       -0.04993719 0.16898279 0.12142419 -0.09798852
000100 0e 62 0a 3d 43 e1 40 bd 0d d6 6a bd 88 99 bb bd
       0.03378492 -0.047089826 -0.05733304 -0.09160143
000110 b3 c3 01 3e f4 1d 7c 3c 32 ba 8e 3d 40 e0 2e 3e
       0.1267231 0.015388001 0.06969108 0.17077732
000120 f0 47 81 3d 47 8d 2a be 8b d2 03 be 42 2c 23 3e
       0.06312549 -0.16655456 -0.12873285 0.15934852
000130 af 80 ff 3c 81 2f a4 bd 08 62 5b 3d 02 80 3b 3c
       0.03118929 -0.08016873 0.053560287 0.011444094
000140 89 e7 96 bd dd 51 35 3c 42 55 6f bd 50 cf 82 3d
       -0.073683806 0.011066881 -0.058430918 0.06387198
000150 12 79 0f 3c 8c a9 d3 bd 1f 37 92 bc cc c5 8b bd
       0.008756893 -0.10335073 -0.01784855 -0.06824836
000160 28 18 03 be 80 d6 13 3e 7e 3a 35 3b 94 bd 9c bd
       -0.12802184 0.14437294 0.0027653272 -0.07653347
000170 97 1a 00 be cf 24 29 3d ff 41 cc 3d df 9f 21 bd
       -0.12510143 0.04129487 0.09973525 -0.039459106
000180 7c d4 85 bd f6 73 c7 3d 5f a7 12 3d 9e c9 78 bd
       -0.06534669 0.09738915 0.03580415 -0.060739152
000190 66 1d 60 3d 57 86 2e 3c 9e 38 ba 3d e4 8d 48 3d
       0.054715537 0.010652146 0.0909283 0.048963442
0001a0 3b 76 81 bb d5 71 b8 3d fd bd e6 bd 2f 20 85 3d
       -0.0039508617 0.09006087 -0.11266706 0.06500279
0001b0 69 c5 90 3d aa 95 14 be 40 b3 6d bd 78 dd 8a bd
       0.07068903 -0.14510217 -0.058032274 -0.06780523
0001c0 fc a6 58 bd 55 da d0 3c a0 f2 0d be f0 e2 25 3d
       -0.052893624 0.025494734 -0.13862085 0.040499628
0001d0 42 a7 1a be 55 33 12 bd 4f ea ce 3d 8d 89 85 3d
       -0.15102866 -0.035693485 0.101032846 0.06520376
0001e0 4c 04 16 bd ab d3 99 bd 4f ae 07 3b 28 d5 8a bd
       -0.03662519 -0.075110756 0.0020703261 -0.067789376
0001f0 d2 9c c7 bd eb f4 73 bd 9f c3 be bd bf b4 d4 3d
       -0.09746708 -0.059559744 -0.093146555 0.10386037
000200 db 2c 6c 3d 8c 3c c0 3d d7 41 14 3e a9 25 08 3e
       0.057659965 0.093865484 0.14478241 0.13295616
000210 35 be 87 bd 03 8d b7 bd 7a 2e 71 bd ab 91 c0 3d
       -0.06628076 -0.08962443 -0.058882214 0.09402784
000220 64 2b 6d bd 9c 8d 28 3d 48 01 05 bd c0 ac 50 bc
       -0.05790271 0.041150674 -0.032471925 -0.012736499
000230 50 27 31 bd 19 bc 86 3d 30 74 52 3d 1b 3e 3b bb
       -0.043250382 0.065788455 0.051380336 -0.0028570953
000240 44 93 57 3d 8c a7 d8 bc b8 97 89 bd 23 a2 b4 3d
       0.052630678 -0.02644708 -0.06718391 0.088199876
000250 c2 b8 8d 3c cc 80 0d be 6b cb 84 3d 85 fc 9e bd
       0.017300013 -0.13818663 0.064841114 -0.07763008
000260 c4 e7 1c be 40 bc ad bc f4 fd 3a bc 68 f1 bc bd
       -0.15322787 -0.021207929 -0.011413086 -0.09225732
000270 74 0e 17 be d6 5b c9 3c 0b e6 51 bc 97 48 b0 3d
       -0.14751607 0.024579924 -0.012811194 0.086075954
000280 8b b7 99 3d fd 1d a3 bd c2 f1 0a bd 03 7b dd bd
       0.07505711 -0.07964704 -0.033921964 -0.10814478
000290 4b a1 bf 3d ce e8 10 3b c5 ab a8 bb 7d a3 00 be
       0.09356936 0.0022111419 -0.0051474296 -0.12562366
0002a0 04 33 38 bd 46 65 01 be 24 6d 8a 3c 9d ba a8 3d
       -0.044970527 -0.12636289 0.016897745 0.08238719
0002b0 58 78 98 3d 50 99 df bd b7 2f 2b 3d 7b 64 d4 3c
       0.07444829 -0.10917914 0.04179355 0.02592682
0002c0 20 6c 98 3d 9c c8 19 bd da 1e 1c bd 6c 45 d2 bc
       0.07442498 -0.03754483 -0.03811536 -0.025667869
0002d0 c0 08 1a be f6 f3 bd bd bd f1 dd bd 90 3f 18 3d
       -0.150424 -0.092750475 -0.108371235 0.037169993
0002e0 3c 2e b8 3d fd ef 1e bd bf 70 99 bc f5 1e 1a be
       0.089931935 -0.03880309 -0.01873052 -0.15050872
0002f0 ac ec 1d be fc 32 1a be 79 31 8d bd dd ee b1 bb
       -0.15422314 -0.15058511 -0.06894202 -0.005430086
000300 c0 b6 18 be 65 66 8f bd 09 8c c7 bd 52 e2 6d bd
       -0.14913464 -0.07001952 -0.097435065 -0.058077164
000310 93 ce e7 bd 80 a7 59 bd c1 65 b8 bd dd 42 eb 3d
       -0.11318698 -0.053138256 -0.09003783 0.114873625
000320 c9 e1 02 be d9 88 d1 3d 08 aa 6a 3d 76 1f 0b 3d
       -0.12781443 0.1023118 0.05729106 0.03396555
000330 5f 93 c3 bd 18 46 ab 3d 0c de 2a 3d 05 7a c8 bd
       -0.09549593 0.08362979 0.041715667 -0.097888984
000340 46 bd e7 bd dd 74 a1 3c 65 4e 27 3d 47 74 c4 3c
       -0.11315398 0.019709045 0.040846247 0.023981227
000350 db 53 d9 bd 73 32 60 3d aa 61 ab bd ed ea 33 3d
       -0.10611697 0.054735612 -0.08368237 0.043925215
000360 08 ae d3 bd 2e 92 af 3d 19 3c 16 bc 90 0e 0e bd
       -0.10335928 0.085728034 -0.009169602 -0.034681857
000370 37 87 ac bc 37 0a 1d be 92 27 01 3e 41 89 50 bd
       -0.02106057 -0.15335928 0.12612751 -0.050912146
000380 7b 85 11 be eb e9 cb bd 7f 3f 83 3c 1a c9 3a 3e
       -0.14211075 -0.09956726 0.016021488 0.18240777
000390 74 2a eb 3c 76 f9 e5 bd 0b 59 43 3e c8 e0 c6 bc
       0.028706767 -0.112292215 0.19076936 -0.024277106
0003a0 dc 08 17 3e 68 5e 81 bd cd 48 b6 bc 4e 2d 28 3e
       0.14749473 -0.06316835 -0.022251511 0.16423532
0003b0 c1 e6 a0 bc 24 de 86 3d c9 dd 01 be 79 63 42 bd
       -0.019641282 0.06585339 -0.1268226 -0.047458146
0003c0 2b 04 cc 3c e8 a2 bb bd 7d 21 b8 bd 04 7a 67 3d
       0.024904331 -0.09161931 -0.089907624 0.056512848
0003d0 22 b0 64 bd 52 6c 6d bd 3f 90 61 3d 6f 99 fd bd
       -0.055832036 -0.05796463 0.055069204 -0.12382781
0003e0 3c cc 9f 3c f0 de 03 bc 4d 4e b1 bd cd b2 4a bd
       0.019506566 -0.008048758 -0.08657513 -0.049486924
0003f0 c7 23 1e be 76 e8 5a 3d ff 5e c2 3d de 22 ca bb
       -0.15443335 0.05344435 0.09490775 -0.0061687073

conv2.bias f4 [24]
000000 c2 c6 d3 3c 59 50 c3 bd 88 25 8b 3d 9a 20 ca 3d
       0.025851611 -0.095368095 0.06794268 0.098694995
000010 76 f9 b3 3d da b6 2b 3d 54 c6 a8 3d d1 b2 21 bb
       0.08787815 0.041922428 0.08240953 -0.0024673233
000020 c1 f8 53 bd 1f bc 7c bd fe 85 9b 3b 21 6f 41 3d
       -0.051750902 -0.061702844 0.0047461977 0.04722512
000030 15 a5 d7 bd 46 08 0c bb d9 cf 94 bb 67 78 ea bd
       -0.10529534 -0.0021367236 -0.004541379 -0.11448746
000040 db 09 b0 3d bb d4 31 bc 35 e5 a5 bc 14 f0 1c 3c
       0.0859563 -0.010853942 -0.020250896 0.009578723
000050 7b db bd 3d 30 b4 c8 bc f9 f8 23 bd ed 98 e1 3d
       0.09270378 -0.024499983 -0.04003236 0.110154964

fc1.weight f4 [128, 384]
000000 b9 bd 48 bd 3e 9f 17 bd 8d 9d 26 bd 37 cf 02 3d
       -0.04900906 -0.0370171 -0.040677596 0.031935897
000010 9b 90 02 bd 02 0e 20 3d 55 c0 b4 3b 3a 80 ee 3b
       -0.031876188 0.03907586 0.005516092 0.0072784694
000020 4c e3 13 bd 79 cf dd 3c 78 a4 58 bc 7b 8e 65 bd
       -0.03610544 0.02707647 -0.013222806 -0.056044083
000030 4c 15 fa bc f3 29 d6 3c 0f d3 d4 3c fe 8c b9 bc
       -0.030527733 0.02614305 0.025979547 -0.022650238
000040 b5 6d ad ba dd 1b 15 bd 1e 6f 88 bc 80 dc 87 bd
       -0.0013231548 -0.036403526 -0.016654547 -0.06633854
000050 a7 ce 9b bd db 8d 6d bd 6c 28 47 bb 8e 9a 91 bd
       -0.07607775 -0.057996612 -0.0030389084 -0.07109557
000060 c2 94 fb bc ad be ed 3c 50 97 af ba 87 42 aa 39
       -0.030710582 0.029021585 -0.0013396535 0.00032474493
000070 a5 51 30 3d 81 b0 fb 3c 25 57 3c bd 4d d2 12 3c
       0.043046612 0.030723812 -0.045981545 0.008961272
000080 c4 31 2f 3d 1e a0 e4 bc c3 d7 bb 3c 6d 8b 22 bd
       0.04277207 -0.027908381 0.022930032 -0.039683748
000090 41 01 77 bb 66 6a 43 bd 4a b8 ac 3c 50 ab eb bc
       -0.0037689956 -0.04770889 0.02108397 -0.028768212
0000a0 0f 73 e9 ba 71 65 83 3c de 10 f6 bc d5 40 05 3d
       -0.0017810779 0.016039582 -0.03003734 0.03253253
0000b0 39 10 b0 3c b9 0d b7 3c 52 99 90 3c 02 11 e7 bc
       0.02149211 0.02234541 0.017651234 -0.028206352
0000c0 d2 13 8c 3c 4e cf 9e bc 6d 71 fc bc 36 d2 d6 bc
       0.017099295 -0.01938596 -0.030815804 -0.026223283
0000d0 64 46 9d 3b 29 fd 58 bd aa 8f 07 bd 22 5c 2f 3c
       0.004799651 -0.052975807 -0.033095993 0.0107031185
0000e0 49 9e 13 3d 92 d9 16 bc 85 fd ec bc 21 87 64 bb
       0.036039624 -0.009207146 -0.028929481 -0.0034870582
0000f0 5e 93 fd 3c 5c 73 dd bc da 77 29 3d 9b 22 07 bd
       0.03095406 -0.027032547 0.041374065 -0.032991987
000100 a3 70 6c bb ac a1 c5 3c 16 b7 1a 3d da b3 3b 3d
       -0.003607788 0.024124943 0.03777226 0.045825817
000110 fc aa 33 bd ac 07 0b bd 84 f8 5c 3d 75 c2 f8 3c
       -0.043864235 -0.033942863 0.05394794 0.030366162
000120 14 c1 85 bc 18 04 ac 38 2f 25 0d bd 9b bc b2 bb
       -0.016327418 8.202362e-05 -0.03445929 -0.0054546124
000130 9f ab cf bc 66 ae 2a bd 74 a1 c6 bc f3 8c 01 3d
       -0.02535039 -0.041670226 -0.024246909 0.03162856
000140 db 83 5e 3b e2 11 8d bc 81 e3 94 3c 7e 66 2d bd
       0.0033953104 -0.017220441 0.018174889 -0.042334072
000150 8f 4b 29 3d 84 1e 2a bd 32 a4 1c 39 7b fe 25 3d
       0.041331824 -0.04153301 0.00014938487 0.040525895
000160 2a 06 18 3d d5 46 6c bc 98 4a 2a bd 0f 58 23 3d
       0.037115254 -0.014421185 -0.041575044 0.0398789
000170 70 50 f5 bc 9a 49 9b bb 15 fc ef bb dc 6f 8b 3c
       -0.029945582 -0.0047389986 -0.0073237517 0.017021112
000180 e9 de 8d 3b 5e 10 5d bd 8f 58 35 bd 2b 3d 04 bd
       0.0043295515 -0.053970687 -0.04427391 -0.032284897
000190 e1 9c da bc 13 a8 b4 3b 09 b4 41 3d ec 63 0a 3d
       -0.026686134 0.0055132 0.047290836 0.0337867
0001a0 19 11 07 bd 33 ae cf bb 94 5b 80 3c ad 39 f6 bc
       -0.03297529 -0.006337905 0.015668668 -0.030056799
0001b0 62 9d ea 3c e3 49 07 bc e0 c5 16 bd e7 6b 07 3d
       0.0286395 -0.008257362 -0.036809802 0.033061888
0001c0 50 ff 58 ba e3 f5 2c bd 31 fa 10 3d 94 0a e8 3c
       -0.00082777906 -0.042226683 0.03539485 0.028325357
0001d0 d7 79 80 3c 96 33 ab ba b4 cb 60 3c ae bf 0e 3c
       0.015683098 -0.0013061638 0.013720442 0.008712692
0001e0 a8 41 72 bc ad 40 49 3c 85 3b 53 bb 1d 6d 12 3b
       -0.0147861615 0.012283486 -0.0032231521 0.0022342869
0001f0 f9 06 f0 3a 91 31 9f bc 59 43 90 3a 80 a4 74 bd
       0.0018312625 -0.019432815 0.0011006399 -0.059727192
000200 a9 b8 6f bd 4b 94 3c 3d 71 04 33 bb 9f 4f ee bc
       -0.058525715 0.04603986 -0.002731588 -0.0290907
000210 2e 89 89 3c 1a 9e 4a 3c 87 97 6e 3c e7 e3 0a bc
       0.016789045 0.012366796 0.014562494 -0.008477188
000220 38 d2 31 bd e3 57 f5 3c 7d f7 37 bd ce 1d 58 bd
       -0.04341337 0.029949134 -0.044913758 -0.0527628
000230 e1 50 31 ba 46 2c 2a bd f7 58 10 bd 79 77 89 bd
       -0.0006764066 -0.04154613 -0.035241093 -0.06712241
000240 c0 f4 8a bd 0d 04 38 bd 4f 65 14 bd d3 7e 39 3c
       -0.067849636 -0.044925738 -0.036229428 0.011321741
000250 f8 0c 1f 3d e7 23 0f 3d 1d ac 69 3b d4 82 50 bd
       0.038830727 0.03494635 0.0035655566 -0.050906017
000260 a6 d8 eb 3c 06 7e e5 bc f7 65 22 bc 4f 91 29 3c
       0.02878983 -0.028014194 -0.009912006 0.010349586
000270 68 15 89 bd f8 cc 18 bd 86 c4 15 3d c8 3c 98 bd
       -0.06693536 -0.03730485 0.036564372 -0.07433468
000280 30 ee f2 bb f7 06 21 3d 71 cb 17 3d 34 1c 04 bc
       -0.007413648 0.039313283 0.03705925 -0.008063365
000290 eb 23 01 bd 2a 65 c7 bc 33 a1 88 3a 0a 5e d3 bc
       -0.031528395 -0.024340231 0.0010424018 -0.025801677
0002a0 9f dd 4c bc db 24 2b bd d1 b0 d5 bc 91 e3 12 bd
       -0.01250401 -0.041783195 -0.02608529 -0.035861555
0002b0 c6 a1 16 3d 7e 56 0d 3d 6d c3 46 3c a4 73 58 bc
       0.036775373 0.034506314 0.012131554 -0.013211165
0002c0 12 66 f6 3c b3 9d a6 bc e6 31 91 bc 00 4c 1a bb
       0.030077968 -0.020338869 -0.017723989 -0.0023543835
0002d0 32 f3 50 bd ee ae 87 bb 91 07 23 3d ad 20 43 bd
       -0.05101318 -0.0041407263 0.039802138 -0.047638584
0002e0 d9 2c b7 bc bc a0 3f 3d a3 24 18 3d 6a 90 12 3d
       -0.022360252 0.046784148 0.037144314 0.035782255
0002f0 03 d2 f2 3c 73 e3 9a 3b d9 16 71 bc d3 b1 ca 3c
       0.029641157 0.004726821 -0.01471492 0.024742996
000300 a0 1d 88 bb c4 0d 28 3d ae 16 55 bd 0a 30 8a bc
       -0.004153922 0.041028753 -0.052023582 -0.01686861
000310 e9 7c 34 bd 7e f2 86 3c d6 06 57 bb e4 00 f4 3c
       -0.044064436 0.016473051 -0.003281047 0.029785581
000320 4e b8 4d 3d 92 b8 b1 3c 21 77 7a bd 30 14 10 3b
       0.050224595 0.021694455 -0.061148766 0.002198469
000330 4e 79 06 bc 71 14 06 bd d2 ce 67 bd 64 3f 6b bc
       -0.008207632 -0.03273434 -0.056593724 -0.014358375
000340 a1 0d 30 bd 1e 6d 00 bd 1e 6b 72 bd 05 82 4e bd
       -0.042981748 -0.031354062 -0.059184186 -0.050416965
000350 75 c9 59 3b 08 53 a4 3b df b8 2c 3d 9e d4 8d bb
       0.003323165 0.005014781 0.042168494 -0.0043283245
000360 75 72 e9 3c 10 44 62 3b 67 4c 58 3c 2f 03 00 bc
       0.02849696 0.0034525432 0.0132018095 -0.007813259
000370 95 f0 1e 3d 11 de 65 bc cd 9b 01 bd b5 88 d5 3c
       0.038803656 -0.014029996 -0.031642724 0.026066164
000380 f2 a7 35 3c b3 23 9c 3c 0a f5 ed bc 68 de e2 bc
       0.011087405 0.019059991 -0.029047508 -0.027693942
000390 f1 d9 a6 3c 4c f5 36 bd 17 ca f3 3b 72 cd 3a 3c
       0.020367594 -0.044667527 0.0074398625 0.011401521
0003a0 8f 83 e5 3a 92 ed 92 bc ff 01 12 3d 07 e1 ff bc
       0.0017510521 -0.017935548 0.035646435 -0.031235231
0003b0 33 b4 4a bd 90 a6 22 3d f8 aa 51 bc 58 3e b5 bc
       -0.049488258 0.039709628 -0.01279711 -0.022124454
0003c0 02 67 30 3c ba 7e 1c bb fc 8b 1b 3d 6c 47 8a bd
       0.0107667465 -0.0023879246 0.037975296 -0.06751904
0003d0 54 df 24 3d e3 5a 3b bc ac e0 a1 bd 1b 32 07 3a
       0.040252045 -0.011435243 -0.07904181 0.00051573076
0003e0 57 a7 05 3d 0a 9c 51 bd d5 31 42 3c e2 1b 56 bc
       0.03263029 -0.0511742 0.011852701 -0.013068171
0003f0 2f 8a a7 3c 6e 97 57 bd f1 4b 05 bd 0f f1 b9 bb
       0.020451633 -0.05263465 -0.032543126 -0.0056744884

fc1.bias f4 [128]
000000 9f 3e cd 3c 80 92 c5 3c fa b5 92 3d a5 64 88 3d
       0.025054274 0.024117708 0.071636155 0.066598214
000010 3c ce be 3d 46 ac 33 bc b2 ff a5 3d 91 6e 22 3d
       0.0931668 -0.010966366 0.08105411 0.039656226
000020 39 08 45 3c 4a a4 76 3d f7 02 66 3c d2 13 a8 3d
       0.012025886 0.060215272 0.014038793 0.082069054
000030 9f 70 76 3d 93 9d 68 bd 3e 87 fd 3c da 96 6f 3c
       0.060165998 -0.0567909 0.030948278 0.014623368
000040 10 74 5f 3b c6 67 47 3d 37 b7 b1 3d 07 f0 34 3d
       0.0034096278 0.04868295 0.086775236 0.04417422
000050 8f 65 c9 3d 2b 74 c2 3d cf 5c b5 bc 81 d2 c6 3d
       0.09833824 0.094948135 -0.022138981 0.09708119
000060 62 67 ad 3d 30 c8 cb bb 84 91 77 3d 67 a1 17 bd
       0.08466984 -0.0062189326 0.06044151 -0.03701916
000070 9c bf 8e 3c bb e1 44 bd 69 c0 ef 3c 5b 0c 2d 3d
       0.01742535 -0.048066836 0.029266553 0.04224811
000080 d5 cc 90 3d 19 7b 3f bc 00 87 ca 3c 86 03 1c 3d
       0.070703186 -0.011687064 0.024722576 0.038089298
000090 43 7c 8c 3d 19 b3 b6 3d 2b 21 ab 3d f6 04 84 3d
       0.068596385 0.08920879 0.08355936 0.06446259
0000a0 f4 f7 9e 3d 58 59 bc 3d d9 de 19 3d a7 cc d4 3d
       0.07762137 0.091967285 0.03756604 0.10390597
0000b0 8d 04 d0 3d 1d eb 77 3d bb 15 cc 3c a2 82 95 3a
       0.10157118 0.060526956 0.024912706 0.001140673
0000c0 03 44 00 bd 9f 48 34 bd 4a ab db 3c af d7 42 bc
       -0.03131486 -0.04401457 0.026815075 -0.011892243
0000d0 4a 90 88 3d 9b 59 b5 3d 4b ce c2 3d b0 b5 27 3d
       0.06668146 0.088549815 0.095120035 0.040944755
0000e0 d8 7c 58 3d 2f 89 b7 3d 24 25 77 bd 7b 35 7c 3d
       0.052853435 0.089617126 -0.060338154 0.06157444
0000f0 dd 6c f7 3c 4c 39 d6 bb 8d 57 66 bc 8f aa 2f 3d
       0.030203277 -0.006537592 -0.01405896 0.042887267
000100 bb 1a 9b 3c b8 ff 18 3c 68 4e 49 bb 04 48 8d 3d
       0.018933645 0.009338312 -0.00307169 0.068985015
000110 4d 1b 35 bd 3a be e2 3d 95 f8 05 bd 42 13 e9 bc
       -0.04421549 0.11071439 -0.03270777 -0.028451566
000120 0a 7a 88 3d 5e 29 02 3c 78 6b 13 3d a1 e9 df 3c
       0.06663902 0.007944433 0.035991162 0.027333083
000130 35 15 14 3b e3 83 86 bb 0e 22 e2 3d 1c e6 ba bc
       0.0022595648 -0.0041050776 0.11041652 -0.022814803
000140 b8 51 a6 3d 16 f9 9a 3d 7d 31 cb 3d ff 8e 70 3d
       0.08121055 0.075670406 0.099215485 0.05873012
000150 38 a7 c3 3d 57 4f 83 bb 48 2f b9 3d 81 1c b0 3d
       0.09553379 -0.004007261 0.09042221 0.08599187
000160 25 55 20 3d e7 be e4 bc 62 b7 19 3c 69 e5 4c 3d
       0.0391437 -0.02792306 0.009382101 0.05002347
000170 fc b3 9b 3c 07 b3 19 3d 6e 6a b6 3d ef 88 64 bd
       0.019006722 0.03752425 0.089070186 -0.055794653
000180 83 21 b4 3d 60 79 b8 bc 62 57 28 bd e0 5e 54 3b
       0.08795454 -0.022518814 -0.04109896 0.0032405183
000190 a7 77 8b bd d7 90 96 3c 22 a1 d5 b8 a5 75 36 3d
       -0.06809931 0.018379612 -0.00010186645 0.04454579
0001a0 24 2a 48 3d 3d a2 20 3d 25 da 12 3d aa 95 f8 bc
       0.048868313 0.039217222 0.03585257 -0.030344803
0001b0 71 ff 0c 3b c2 55 4c 3d 95 18 8f 3d 3c 49 d7 3d
       0.002151456 0.049886473 0.069871105 0.10512015
0001c0 9c 66 b0 bc 1b 15 a8 3d 27 ee 31 3d 0d 4a be 3c
       -0.021533303 0.082071505 0.04344001 0.02322867
0001d0 2d 10 dd 3d bd a3 45 bd 59 e9 a2 bc 85 ec a8 3d
       0.10794101 -0.048251856 -0.01988666 0.082482375
0001e0 b6 75 a7 3d 01 17 55 bc f7 fe db 3c 25 aa c2 3d
       0.081767485 -0.013005973 0.026854975 0.09505109
0001f0 5b 27 86 bc b2 92 90 ba 48 c1 33 3d 14 d9 30 bc
       -0.016376188 -0.0011030047 0.0438855 -0.010793943

fc2.weight f4 [2, 128]
000000 f6 92 f6 3b f8 de 9f 3d c5 2b 55 bd aa 70 e4 3c
       0.0075248433 0.078062 -0.052043695 0.027885754
000010 c9 a8 98 bd d7 8a 17 3d fa 89 df bc 86 86 37 bb
       -0.07454068 0.036997642 -0.027287472 -0.0028003766
000020 47 a1 a8 bd 2e 14 6e bd 15 9c 8e 3d 2d ec 82 bd
       -0.08233886 -0.058124714 0.06963364 -0.06392703
000030 fa 6e cb bd 14 e1 24 bd 00 8f c8 3d e6 13 b9 3b
       -0.099332765 -0.040253714 0.097929 0.005648124
000040 c9 db 26 3d 8f 56 ae bd d0 9d a7 bd ea 07 90 3d
       0.040736947 -0.085126035 -0.08184397 0.070327595
000050 d8 88 45 bd c6 1c 7f 3c c3 cb a8 bd 31 a2 08 3d
       -0.048226207 0.015570825 -0.082419895 0.033357803
000060 5d 74 7e 3c cf ee 2c bd bb 8a 5f 3d 77 99 89 3d
       0.015530673 -0.042219933 0.054575663 0.06718724
000070 ec 61 50 bd e3 3c 98 3d 29 6c cc 3c e7 8d 70 3c
       -0.050874636 0.07433488 0.024953919 0.01468227
000080 a6 c7 9f 3d 50 eb 22 bd 70 ee 58 bd c4 6c 25 3d
       0.07801752 -0.039775193 -0.052961767 0.04038693
000090 68 4d 14 3d af f1 22 3d 2c 83 8d bd c8 05 ec 3b
       0.036206633 0.03978127 -0.06909785 0.0072028376
0000a0 62 17 69 3d 59 b1 14 bd 27 16 b7 bb e6 c6 cf 3c
       0.056907065 -0.036301944 -0.0055873576 0.025363397
0000b0 6c da 8f bd 11 d5 d2 bc 39 d5 5d 3d f8 94 4d 3c
       -0.070240825 -0.025736364 0.054158423 0.012547724
0000c0 56 23 13 3d 6e 59 49 bd 41 25 fa bc 50 d1 7e 3d
       0.03592237 -0.049157552 -0.030535342 0.062211335
0000d0 6f 7c b3 3b 1b 46 db 3d 93 40 0f 3d d2 40 a6 bd
       0.00547748 0.10706731 0.034973692 -0.08117832
0000e0 3a eb ee 3c 06 f9 49 3d 77 68 3b 3d 00 df 86 3d
       0.0291649 0.049309753 0.045753922 0.065855026
0000f0 37 5a eb bb c0 ae 3a bd ef d7 61 bd 0e 8e b6 bd
       -0.0071823853 -0.04557681 -0.05513757 -0.089138135
000100 24 b0 d3 bb 56 32 8d 3b b3 b2 90 3c 3e eb 1c 3d
       -0.0064602066 0.004308979 0.017663335 0.038310282
000110 38 d9 a5 3d cc 9e 6a 3d 25 89 5c bd bb 4a 98 bc
       0.08098072 0.057280347 -0.05384173 -0.018590322
000120 34 0c b0 bd 8e bd 81 bc 23 df 5a bd cd 17 25 3d
       -0.085960776 -0.015837457 -0.053435456 0.0403059
000130 37 96 86 3d 97 b1 81 bd b5 45 2e bc a3 fe 8d bd
       0.0657162 -0.06332701 -0.010636737 -0.06933334
000140 11 1e 9c 3d ad 6a 94 bd 8b 84 45 bd 23 d7 ad bd
       0.07622922 -0.07246909 -0.048222106 -0.084883
000150 30 e2 83 bd 50 11 90 3d 03 e9 8a bd 15 b5 cf 3c
       -0.06439626 0.07034552 -0.06782725 0.025354901
000160 03 75 5d 3d b1 f6 8a 3d 83 0f b0 bd 15 1e a5 bc
       0.05406667 0.06785334 -0.085967086 -0.020155946
000170 48 1e 50 bd 79 10 7c 3c eb 3f 76 3b ec 8b 2c 3d
       -0.05081013 0.015384787 0.003757472 0.042125627
000180 d6 e6 bb bd 58 88 1b bd 44 73 64 bd d3 0f 80 3d
       -0.09174888 -0.037971824 -0.05577399 0.06253018
000190 5a 3d 37 3d 2f 53 a0 bd 30 27 c2 bc 6c 49 19 3d
       0.044736244 -0.07828366 -0.023700327 0.037423536
0001a0 7a 7b ac 3c 57 7a b0 3d f6 f1 03 bd 0e 50 07 3d
       0.021054972 0.086170845 -0.032213174 0.03303533
0001b0 42 fe 13 3d 98 7f a7 bd ad a7 87 bd 58 92 39 bb
       0.03613115 -0.081786335 -0.066237785 -0.0028315987
0001c0 b9 7d a3 bd a2 ff 7a 3d 80 99 31 3d de 2f 8a 3c
       -0.07982964 0.061278947 0.04335928 0.016868528
0001d0 4c e1 d1 3c 5b e8 9d 3d ae 7f cb bc ca 50 dc 3c
       0.025620125 0.07710334 -0.024841156 0.026893992
0001e0 c1 c4 ba bd b4 60 78 bd a1 ad ab 3c 4e 07 e4 bc
       -0.09119559 -0.0606391 0.020956816 -0.027835514
0001f0 46 81 0d 3c 5d 60 08 bc c5 1a 2a bc 48 fc 52 3d
       0.008636778 -0.008323756 -0.010382359 0.051510125
000200 2e 94 7e b9 92 68 cb bc 47 54 af bc 65 41 d7 3d
       -0.00024278529 -0.024830136 -0.021402491 0.1051052
000210 29 86 78 bd 3c 49 88 3b e7 87 83 bd 23 0a 30 3d
       -0.06067482 0.004159121 -0.06422406 0.042978417
000220 c9 38 5d bd 85 6d 21 bd 26 87 ab 3d 7d e2 1e bd
       -0.054009233 -0.039411087 0.08375387 -0.038790215
000230 ed 59 0e bd c3 e1 83 3d a9 d3 50 3d 9b a8 7d 3d
       -0.03475373 0.06439545 0.050983105 0.061928373
000240 49 4c e2 3b be eb 2c 3c c4 55 4d bb f7 3e 8e bd
       0.0069060666 0.010554252 -0.0031331638 -0.06945603
000250 bc 30 ab bd 5c f3 cb bd 6d 3e 6f bd ef fd ad 3d
       -0.08358905 -0.099585265 -0.058409143 0.084956996
000260 04 50 e1 3d 88 93 a3 bd c4 72 89 bd e9 3c 8e 3b
       0.1100159 -0.07987124 -0.06711343 0.004340757
000270 1f 00 aa bd 8a 99 26 3d 23 92 d2 3b d3 10 70 3d
       -0.08300804 0.04067377 0.0064261123 0.058609795
000280 7d 4d d3 3d 22 a2 87 3d a3 2c 3c bd 40 ab 26 3c
       0.10317514 0.06622721 -0.045941006 0.010172665
000290 5d 8c ec 3c bf 4b 6b 3d f3 01 cc 3b 2d 6a 74 bd
       0.028875524 0.057445284 0.0062258183 -0.05967157
0002a0 0b 6a d8 3d 75 01 3d bc 1f b9 4f 3d 52 a3 e7 3d
       0.10567101 -0.011535992 0.050713655 0.11310448
0002b0 5d ec 83 bd f7 6f a5 3a da dd 57 bd 3e 2b 82 3d
       -0.06441567 0.0012621869 -0.05270181 0.06355904
0002c0 71 44 e9 3c 77 9a 37 3d a1 d1 8a bd ae 37 28 bd
       0.028475018 0.044825044 -0.06778265 -0.041068725
0002d0 a0 b2 a9 3d fc c5 c5 3d 79 2b 40 bd 4a 0f d4 3c
       0.08286023 0.09656903 -0.04691646 0.025886197
0002e0 24 3a b3 3d 88 ea bb bd be 06 50 3d fe c6 bb 3d
       0.08751324 -0.09175593 0.05078768 0.09168814
0002f0 ce e0 fe bc 90 ca 91 bd e2 7e 61 3d 44 ea 5f bc
       -0.031113055 -0.07118714 0.055052646 -0.013666693
000300 67 6b 40 3d a1 22 96 3d ae 2a 10 3d 8f 18 41 bd
       0.046977427 0.07330824 0.035196953 -0.04714256
000310 04 5a 7f bc b5 dd b8 bd 6c 46 79 3d 2e 7a 20 ba
       -0.015585426 -0.09026662 0.060858175 -0.0006121722
000320 60 53 12 bd 0b 7b 7c bd b1 89 45 bc 27 fa a7 3d
       -0.035724044 -0.06164078 -0.012056754 0.0820201
000330 8c 24 36 bd 35 f0 ad bd 78 65 1d bd 71 4f 50 3d
       -0.044468448 -0.084930815 -0.038426846 0.05085701
000340 dc 61 65 3d b6 10 87 3c fe 1a f1 3d 7f 37 aa bd
       0.05600153 0.01648746 0.117727265 -0.08311366
000350 83 70 81 bd f6 77 98 bd 80 37 1f bd 74 fc 95 bd
       -0.06320288 -0.07444756 -0.03887129 -0.07323542
000360 ec ce 7a bd 77 8c 1c bd 23 0a 02 3d 56 2a 9c bc
       -0.061232492 -0.038219895 0.03174795 -0.019063156
000370 fb 81 6d bc c9 37 5f 3d 87 6d 01 3e f7 fc 61 bc
       -0.014496322 0.05449656 0.12639438 -0.013793222
000380 f6 44 4e bb 1d 35 06 bb 12 64 83 bd c3 6f 8d 3c
       -0.003147421 -0.0020478435 -0.06415571 0.017265206
000390 c0 25 77 3c 84 3e b5 bc fe 93 60 bc c5 02 c3 bd
       0.015084684 -0.022124536 -0.013707159 -0.095220126
0003a0 0f f9 34 bd 91 77 d7 3d b6 0b 80 bd 9d 8a 69 3d
       -0.044182833 0.10520852 -0.06252234 0.057016958
0003b0 44 73 83 3d 60 33 a0 bd 37 93 45 bd f2 d3 b5 bd
       0.064184695 -0.07822299 -0.0482361 -0.08878316
0003c0 87 1c 1d 3d 6f 70 90 bd 48 9a 87 3d 2d b9 88 bd
       0.038357284 -0.07052695 0.06621224 -0.066759445
0003d0 1b 1a b5 bd 2f 3a cb bb 04 98 19 3d 9c cd 07 bd
       -0.0884287 -0.0062020044 0.03749849 -0.03315507
0003e0 fb a5 f2 3c d7 91 49 3d c1 ca 83 3d ee cd 81 bd
       0.029620161 0.04921135 0.064351566 -0.06338106
0003f0 a3 75 01 bc a5 84 83 bd 9a ed ba 3d 16 05 58 3d
       -0.007901582 -0.06421784 0.0912735 0.052739225

fc2.bias f4 [2]
000000 fa d6 07 3c bb 30 6a bd
       0.0082910005 -0.05717538

qnn.weight f4 [4]
000000 28 5a 11 bf ef aa dc 3e 84 65 de 3e 8e 11 02 bf
       -0.5677819 0.43099162 0.43436825 -0.50808036

qnn._weights f4 [4]
000000 28 5a 11 bf ef aa dc 3e 84 65 de 3e 8e 11 02 bf
       -0.5677819 0.43099162 0.43436825 -0.50808036
