models/classification/control/mnist/mnist_4v5_2qubits_r1.pt (torch, 207416 bytes, 10 tensors)

conv1.weight f4 [2, 1, 5, 5]
0.17676844 -0.044704348 -0.12961622 -0.1304178 0.15136853 -0.16963549 0.17401199 0.19685964
-0.105400205 -0.16652583 0.03740009 -0.037945267 0.16044472 -0.15956622 -0.07351859 0.0104415165
-0.13218322 -0.17181846 0.097157404 0.08334651 -0.09476313 0.043543566 -0.0068420675 0.0010118752
-0.04528105 -0.20151982 0.18389547 0.01769102 0.11064412 0.07152216 -0.1112967 -0.18419023
-0.009560397 0.13491444 0.09236706 0.026341725 -0.18220311 0.09911294 -0.05348227 -0.06842733
-0.13568838 -0.1509166 -0.27180055 -0.17962451 0.0445654 -0.013288603 -0.01992746 -0.042148124
0.09016975 -0.15286306
00000000: c902 353e e81b 37bd 1dba 04be 3e8c 05be
00000010: 5a00 1b3e edb4 2dbe 3330 323e 9395 493e
00000020: 10dc d7bd bf85 2abe d630 193d 7f6c 1bbd
00000030: 9f4b 243e 5465 23be ea90 96bd e512 2b3c
00000040: 0a5b 07be 2ef1 2fbe 76fa c63d 93b1 aa3d
00000050: 2c13 c2bd bd5a 323d 6c33 e0bb e6a0 843a
00000060: 9f78 39bd 365b 4ebe 184f 3c3e c2ec 903c
00000070: 6299 e23d 367a 923d 86ef e3bd 5d9c 3cbe
00000080: 36a3 1cbc 0327 0a3e f12a bd3d 9aca d73c
00000090: 7493 3abe bafb ca3d 3a10 5bbd a123 8cbd
000000a0: e5f1 0abe e289 1abe 7129 8bbe 7def 37be
000000b0: 358a 363d 71b8 59bc ea3e a3bc 83a3 2cbd
000000c0: ebaa b83d 2288 1cbe

conv1.bias f4 [2]
-0.108821295 0.08776067
00000000: b3dd debd debb b33d

conv2.weight f4 [24, 2, 5, 5]
-0.11755528 -0.15401734 -0.06006717 -0.12848341 -0.07033212 0.09992813 0.07153591 -0.1481788
-0.0044706296 0.031189417 -0.060753085 0.07795724 -0.05932776 -0.017647162 -0.0472992 -0.14504513
-0.02829702 -0.11954206 -0.10564006 -0.066480204 0.10475196 0.011144559 -0.09689687 0.08009635
0.09997931 0.13235897 -0.011811099 -0.047384407 0.105361655 0.094339475 -0.106111415 0.15964754
0.14668317 0.131472 -0.113233544 -0.076240644 -0.045707054 -0.12039907 -0.056005042 -0.10024712
0.06087979 -0.035209317 -0.007393497 -0.022522144 0.049246423 0.12622012 0.0047301925 0.13484073
0.12677945 -0.12184486 0.09022605 0.02440542 -0.14382912 0.056857117 -0.06872108 0.10374697
0.061514072 0.06142937 0.12313908 -0.028664354 0.11353355 -0.16509722 -0.07320202 -0.13534404
-0.104222074 0.089253195 -0.12285702 -0.09384728 -0.09790665 0.052674714 0.10780909 0.026799705
-0.05028872 -0.03526946 0.010862169 0.0053238957 -0.041182227 0.10898074 0.108010344 0.013684793
-0.13344917 0.046439078 0.0739919 0.032557473 -0.06270474 0.031123068 0.09260823 0.10521503
0.03723166 0.12404866 0.029744351 -0.017655771 0.14733002 0.15238193 0.14488764 0.014187733
-0.044421777 -0.04602588 0.061240576 -0.09341057 0.071265884 0.06833524 -0.12348304 0.15018536
0.0003581436 -0.016662737 0.002486717 -0.12453088 -0.031376522 0.035352048 -0.016040592 0.094709694
-0.09233355 -0.011101876 0.02230791 -0.030496439 0.005655506 -0.14987051 -0.10550549 -0.10056097
-0.07955164 -0.1136877 -0.042268597 -0.13874123 -0.09509618 -0.05209214 0.03109306 0.08930788
0.15758456 0.15363586 0.08811029 -0.12336001 -0.012444906 0.05950545 -0.025093058 -0.00084957795
0.08002356 -0.009411689 -0.070576414 -0.073092446 -0.058992323 -0.1375464 0.026578663 -0.048763935
-0.08413959 0.008718071 -0.039167 0.03550162 -0.17201298 -0.06362155 -0.13649918 0.049840786
-0.049430978 0.10102606 0.102522366 0.043712053 -0.008428125 -0.00612887 0.083930805 -0.12198039
0.07463224 -0.08517104 0.07599285 0.12540694 -0.05088209 0.07234343 -0.091844365 -0.13431628
0.123787366 0.027642282 0.061616685 0.03416974 0.09481556 0.12172613 0.13942371 -0.04504989
-0.008306914 0.047120508 -0.021223964 0.10759757 0.10556981 -0.07224564 -0.04292629 -0.021922447
-0.186549 0.015184021 -0.051278435 -0.12181915 -0.005896386 -0.004691724 -0.030924106 -0.059371408
0.17688467 0.083040744 0.0802166 0.038974572 0.05665339 0.030471656 0.045474652 0.020791288
0.078077756 -0.0073256292 -0.12101656 0.079789594 0.031132888 -0.006050211 0.057552274 0.12612806
0.06647808 0.028231867 -0.016711263 0.047344662 -0.060454622 0.06857221 -0.08829842 -0.11061861
0.005668695 0.047379706 0.080214135 -0.09343365 0.050710544 -0.13087013 -0.08236079 -0.12030492
-0.027840368 0.103928335 0.0014542781 0.0049821995 -0.09887653 0.12133172 0.048222657 -0.015779728
0.0490892 -0.12505364 -0.13194205 0.033230633 0.03543015 -0.05993991 -0.08551098 -0.074224494
0.096287034 -0.036597665 -0.0816098 -0.2106266 -0.02577595 -0.10452962 -0.14882196 -0.04598757
-0.20401259 -0.0096006 0.03411003 -0.058175534 -0.15008579 0.031807125 -0.09294421 0.051300716
00000000: d3c0 f0bd b9b6 1dbe fe08 76bd 2891 03be
00000010: 490a 90bd 1fa7 cc3d 6b81 923d 2fbc 17be
00000020: 5c7e 92bb f380 ff3c 3ad8 78bd 0ca8 9f3d
00000030: aa01 73bd c890 90bc cebc 41bd b686 14be
00000040: 27cf e7bc 78d2 f4bd d159 d8bd c626 88bd
00000050: 3288 d63d ab97 363c de71 c6bd 8e09 a43d
00000060: f4c1 cc3d 1c89 073e 5783 41bc 2716 42bd
00000070: dac7 d73d 0e35 c13d f150 d9bd a57a 233e
00000080: 1d34 163e 99a0 063e fde6 e7bd 0e24 9cbd
00000090: 5237 3bbd ca93 f6bd 8b65 65bd 5d4e cdbd
000000a0: 165d 793d a537 10bd 2645 f2bb 5c80 b8bc
000000b0: 9eb6 493d d93f 013e bbff 9a3b b013 0a3e
000000c0: 79d2 013e cc89 f9bd 6fc8 b83d e0ed c73c
000000d0: f147 13be 02e3 683d a3bd 8cbd 4b79 d43d
000000e0: 2ef6 7b3d 5d9d 7b3d 5830 fc3d 82d1 eabc
000000f0: 4784 e83d 3f0f 29be f1ea 95bd a197 0abe
00000100: 6272 d5bd 61ca b63d 769c fbbd 0133 c0bd
00000110: 4883 c8bd 71c1 573d 03cb dc3d 0e8b db3c
00000120: 8bfb 4dbd b676 10bd 3df7 313c 1374 ae3b
00000130: b2ae 28bd 4b31 df3d 8734 dd3d 2f36 603c
00000140: e6a6 08be e736 3e3d 1189 973d fc5a 053d
00000150: 586b 80bd cef5 fe3c 62a9 bd3d fa7a d73d
00000160: 3a80 183d 390d fe3d 6daa f33c d6a2 90bc
00000170: aedd 163e 020a 1c3e 6d5d 143e aa73 683c
00000180: 9cf3 35bd a285 3cbd 66d7 7a3d 0a4e bfbd
00000190: d9f3 913d 59f3 8b3d ade4 fcbd 31ca 193e
000001a0: 38c5 bb39 4b80 88bc 30f8 223b 0c0a ffbd
000001b0: ab84 00bd 4fcd 103d 8f67 83bc 28f7 c13d
000001c0: 5f19 bdbd a5e4 35bc 14bf b63c abd3 f9bc
000001d0: d351 b93b a877 19be 4313 d8bd e9f2 cdbd
000001e0: f8eb a2bd 19d5 e8bd d621 2dbd 2e12 0ebe
000001f0: c9c1 c2bd 915e 55bd dfb6 fe3c 0de7 b63d
00000200: d95d 213e b852 1d3e 2b73 b43d 2ca4 fcbd
00000210: b8e5 4bbc fdbb 733d f58f cdbc 36b6 5eba
00000220: 64e3 a33d 7c33 1abc 5e8a 90bd 7eb1 95bd
00000230: efa1 71bd f7d8 0cbe 7fbb d93c b1bc 47bd
00000240: 6151 acbd 3dd6 0e3c 946d 20bd 266a 113d
00000250: 2c24 30be 044c 82bd 71c6 0bbe da25 4c3d
00000260: 2378 4abd c0e6 ce3d 3ff7 d13d 690b 333d
00000270: 1e16 0abc b0d4 c8bb eae3 ab3d dbd0 f9bd
00000280: cad8 983d 276e aebd 24a2 9b3d ad6a 003e
00000290: bd69 50bd cb28 943d e618 bcbd 358a 09be
000002a0: 3b84 fd3d 1172 e23c c761 7c3d 92f5 0b3d
000002b0: a92e c23d 8d4b f93d 17c5 0e3e 3c86 38bd
000002c0: b919 08bc 6f01 413d e1dd adbc 1d5c dc3d
000002d0: fc34 d83d 86f5 93bd 7ad3 2fbd b496 b3bc
000002e0: b306 3fbe 66c6 783c 5609 52bd 527c f9bd
000002f0: 7936 c1bb 09bd 99bb 8d54 fdbc 6f2f 73bd
00000300: 4121 353e 4411 aa3d 9a48 a43d cda3 1f3d
00000310: 630d 683d b29f f93c a143 3a3d 7e52 aa3c
00000320: 3be7 9f3d d50b f0bb 88d7 f7bd ba68 a33d
00000330: 660a ff3c d940 c6bb efbb 6b3d b727 013e
00000340: a925 883d 8446 e73c 0fe6 88bc 7aec 413d
00000350: 449f 77bd 966f 8c3d cdd5 b4bd 038c e2bd
00000360: 76c0 b93b 3911 423d 4f47 a43d 245a bfbd
00000370: dcb5 4f3d d202 06be c6ac a8bd 6d62 f6bd
00000380: 7c11 e4bc 61d8 d43d 7a9d be3a b841 a33b
00000390: c77f cabd c47c f83d 1f85 453d 7d44 81bc
000003a0: c211 493d 100e 00be d11b 07be d81c 083d
000003b0: 341f 113d 8d83 75bd 6120 afbd 0303 98bd
000003c0: 2332 c53d 6fe7 15bd 0a23 a7bd 80ae 57be
000003d0: 1628 d3bc a013 d6bd c964 18be 765d 3cbd
000003e0: ade8 50be d64b 1dbc f5b6 0b3d 7849 6ebd
000003f0: 17b0 19be 3048 023d 8959 bebd b320 523d

conv2.bias f4 [24]
-0.15149274 -0.08799709 0.035211734 -0.012275229 0.09378076 -0.01509228 -0.024423419 0.004494347
0.057227068 -0.03263353 -0.053595606 -0.12168511 -0.01705709 0.06354313 -0.073375694 0.03166566
0.006761355 0.060251173 -0.07296704 0.05933592 0.06601063 -0.040703904 -0.027034322 0.07964662
00000000: ea20 1bbe d137 b4bd 2e3a 103d 0b1e 49bc
00000010: 2110 c03d 9c45 77bc 9f13 c8bc 5145 933b
00000020: ee66 6a3d bdaa 05bd 1187 5bbd 0b36 f9bd
00000030: 4fbb 8bbc e722 823d ff45 96bd dab3 013d
00000040: 5b8e dd3b efc9 763d be6f 95bd 390a 733d
00000050: 9530 873d 23b9 26bd 1577 ddbc c41d a33d

fc1.weight f4 [128, 384]
0.038164485 0.028623803 0.011168983 0.029517816 -0.08092929 -0.049762312 -0.025383318 -0.025624188
-0.029496923 -0.028693955 0.027389234 0.0026231725 -0.07396668 -0.044382308 0.033948254 -0.02818333
0.054276884 0.044404566 0.045037687 0.07954083 0.04297981 -0.020668497 0.031455554 0.0721592
-0.024111273 -0.09694131 -0.06023769 0.091291234 -0.023556402 0.0041745654 0.0020360346 -0.0070129526
0.034445427 -0.011020908 -0.02507978 -0.01116486 0.04947245 0.048555087 -0.032751117 -0.008360364
0.0009737846 -0.04953694 0.049981747 -0.005480612 -0.013223457 -0.07315684 -0.019585771 0.014748989
-0.052608903 0.013755837 -0.058172513 0.030351484 -0.01860348 -0.08213673 -0.009728099 -0.00636094
0.0023649866 0.021766912 0.02299172 -0.018369654 0.07421313 0.04193561 0.04189143 -0.008529879
0.052163713 0.020173492 -0.03319399 0.0063519566 0.037266772 0.048016336 0.039257348 0.0024942313
0.06665135 -0.02963852 0.0445365 -0.04647684 0.0360372 -0.0611311 -0.074879214 0.0375891
-0.0132504795 0.049560502 0.023156941 0.08743634 -0.026471863 -0.107788965 -0.029903222 -0.08204846
0.008245264 0.049561005 -0.008306153 0.003489159 0.00047408586 0.02306501 -0.016580913 0.06249036
0.004092695 -0.0018129261 0.015809454 0.08504688 0.04605081 -0.040589817 -0.04392882 0.011759074
-0.06029122 -0.04762072 -0.013181698 0.017549263 -0.025018316 0.023925142 0.037316628 0.03661868
-0.023396352 0.04556385 0.0068277568 0.0024223065 0.022292366 0.0074543483 0.015089548 0.011093605
-0.014009862 -0.06902811 -0.09652244 -0.03677583 0.0060036746 0.043338466 0.005425583 0.045632817
0.02522695 0.03326317 0.02327959 -0.0152810905 0.010999328 0.0154692605 -0.034702603 -0.0055380682
-0.002783573 0.01137595 0.005220809 0.023172727 -0.033455316 0.030631293 0.066400796 -0.027842667
0.018781379 0.025327967 0.0016239577 0.04216491 -0.01498749 -0.042367864 -0.108814456 -0.035423785
-0.039923556 -0.06417718 0.006256297 0.086680114 0.06295562 0.021410504 0.0129614975 0.04573758
0.007092351 0.022044959 0.04124691 0.06861708 -0.03662036 0.059869185 0.018746851 0.035397425
0.06774512 -0.0138910245 -0.015697615 0.03680361 -0.045049395 -0.1014304 -0.06868509 0.05893789
-0.042672116 0.006982383 0.018580439 -0.031650152 0.0048164204 0.03910457 0.021251677 0.019607812
-0.04043133 0.02510858 -0.029245205 -0.013694771 0.044941418 -0.002697303 -0.012102563 0.017339788
-0.010794449 0.018282829 -0.029876702 0.033081073 -0.017675577 -0.008554074 0.0068014925 0.071536794
-0.054746103 -0.012554344 -0.009532809 -0.0032990454 -0.012349901 -0.027707374 0.010432542 -0.027835157
0.00050678954 -0.041222166 -0.025959492 -0.020453177 0.025013389 -0.036830947 -0.018078651 -0.030158367
-0.0019458012 0.0057072965 -0.028281365 -0.034698006 -0.016393263 0.069411844 -0.008550301 -0.026628394
-0.06127746 -0.06097848 -0.034676492 0.0697285 0.068117045 0.02095281 -0.02023621 -0.06167079
0.02303194 -0.028894285 -0.01674951 0.04763037 -0.016167546 0.004118284 -0.03341457 -0.032623723
0.009422554 -0.004058118 0.0065811393 0.015309934 0.034150902 -0.036806803 0.041479986 0.05009837
-0.043607827 -0.0038053626 -0.033297744 0.034125447 0.019515354 -0.007644263 -0.0007372882 0.022100655
00000000: 5d52 1c3d 777c ea3c 1cfe 363c 59cf f13c
00000010: 41be a5bd 91d3 4bbd adf0 cfbc d1e9 d1bc
00000020: 88a3 f1bc 960f ebbc 635f e03c 88e9 2b3b
00000030: d87b 97bd 39ca 35bd 530d 0b3d bae0 e6bc
00000040: 7051 5e3d 90e1 353d 7079 383d 4de6 a23d
00000050: 990b 303d fb50 a9bc 8ad7 003d 34c8 933d
00000060: 0185 c5bc 2a89 c6bd ccbb 76bd e6f6 ba3d
00000070: 5bf9 c0bc cbca 883b fe6e 053b e9cc e5bb
00000080: a616 0d3d 0a91 34bc 1c74 cdbc d1ec 36bc
00000090: a0a3 4a3d b3e1 463d 0926 06bd e8f9 08bc
000000a0: 9445 7f3a 3fe7 4abd a9b9 4c3d b596 b3bb
000000b0: 33a7 58bc 41d3 95bd 5772 a0bc bea5 713c
000000c0: 6f7c 57bd 2a60 613c 4d46 6ebd ada3 f83c
000000d0: 5366 98bc 4d37 a8bd 9b62 1fbc 6f6f d0bb
000000e0: e4fd 1a3b 8650 b23c 2259 bc3c f57b 96bc
000000f0: 0efd 973d adc4 2b3d 5996 2b3d e8c0 0bbc
00000100: 9ea9 553d e142 a53c 6cf6 07bd 1324 d03b
00000110: 0ba5 183d c7ac 443d 50cc 203d 4276 233b
00000120: 8180 883d 7bcc f2bc e86b 363d 805e 3ebd
00000130: be9b 133d 9b64 7abd 465a 99bd 07f7 193d
00000140: 8a18 59bc f4ff 4a3d a0b3 bd3c d311 b33d
00000150: 85db d8bc 76c0 dcbd 9af7 f4bc 0609 a8bd
00000160: 2517 073c 7b00 4b3d 8816 08bc 60aa 643b
00000170: ba8e f839 d5f2 bc3c b2d4 87bc e4f5 7f3d
00000180: 041c 863b b59f edba d482 813c 0f2d ae3d
00000190: c69f 3c3d 8241 26bd b5ee 33bd 22a9 403c
000001a0: edf3 76bd f20d 43bd 0cf8 57bc 79c3 8f3c
000001b0: 36f3 ccbc a9fe c33c 52d9 183d 78fd 153d
000001c0: b5a9 bfbc 29a1 3a3d 60bb df3b 8fbf 1e3b
000001d0: 7b9e b63c 9b43 f43b 273a 773c f4c1 353c
000001e0: 9f89 65bc 9c5e 8dbd 8fad c5bd 41a2 16bd
000001f0: 79ba c43b ad83 313d 17c9 b13b 7ae9 3a3d
00000200: c0a8 ce3c f63e 083d d7b4 be3c 8a5d 7abc
00000210: 8736 343c c872 7d3c 5124 0ebd af78 b5bb
00000220: 9b6c 36bb 3162 3a3c 5213 ab3b bbd4 bd3c
00000230: 7108 09bd 7aee fa3c 24fd 873d 4e16 e4bc
00000240: 68db 993c 997c cf3c fada d43a 1db5 2c3d
00000250: 178e 75bc ed89 2dbd 1dda debd 8818 11bd
00000260: e286 23bd 536f 83bd a001 cd3b 5885 b13d
00000270: e0ee 803d 1565 af3c 765c 543c 5457 3b3d
00000280: f466 e83b a197 b43c 85f2 283d 1d87 8c3d
00000290: 3bff 15bd 6439 753d ff92 993c e4fc 103d
000002a0: f4bd 8a3d 2e97 63bc 4998 80bc 62bf 163d
000002b0: b785 38bd beba cfbd c5aa 8cbd db68 713d
000002c0: f5c8 2ebd 79cc e43b 0136 983c 97a3 01bd
000002d0: 10d3 9d3b 1d2c 203d ff17 ae3c 90a0 a03c
000002e0: 539b 25bd 82b0 cd3c a493 efbc 0860 60bc
000002f0: 7e14 383d 3cc5 30bb d449 46bc 2c0c 8e3c
00000300: 33db 30bc dfc5 953c fcbf f4bc 0580 073d
00000310: 5fcc 90bc 6326 0cbc 0edf de3b e281 923d
00000320: 733d 60bd bcb0 4dbc 802f 1cbc cc34 58bb
00000330: 3d57 4abc 93fa e2bc 41ed 2a3c 8e06 e4bc
00000340: 12da 043a 93d8 28bd 00a9 d4bc 6c8d a7bc
00000350: e1e8 cc3c 0cdc 16bd ae19 94bc ae0e f7bc
00000360: 410a ffba 4604 bb3b 52ae e7bc 7f1f 0ebd
00000370: 2a4b 86bc cc27 8e3d 9016 0cbc ca23 dabc
00000380: 13fe 7abd 92c4 79bd f008 0ebd d1cd 8e3d
00000390: f380 8b3d 3aa5 ab3c 69c6 a5bc 839a 7cbd
000003a0: 7bad bc3c b5b3 ecbc 4536 89bc 1018 433d
000003b0: cd71 84bc acf2 863b b7dd 08bd 74a0 05bd
000003c0: 0e61 1a3c f6f9 84bb 99a6 d73b 84d6 7a3c
000003d0: d1e1 0b3d bbc2 16bd ebe6 293d f333 4d3d
000003e0: 1f9e 32bd 6463 79bb 3763 08bd 20c7 0b3d
000003f0: aade 9f3c ba7c fabb 9346 41ba 6f0c b53c

fc1.bias f4 [128]
0.08879014 -0.05673416 0.118772715 0.18648593 0.04015167 0.006840965 0.16503234 -0.0236887
0.100969784 0.0078175375 0.009711486 0.05362234 0.08911332 -0.0074863033 0.13607073 0.0010432724
0.06447459 -0.0054365094 0.09726452 0.06750026 0.10758484 -0.008594554 0.050816502 0.0927758
0.014196478 0.047780618 -0.033205595 -0.04744963 0.045938995 0.08739732 0.03201132 0.05432468
0.051561616 -0.08604759 0.023227002 -0.01966086 -0.0049188174 0.06605015 0.015964907 -0.005131561
-0.022803545 0.03207338 0.02433937 0.15809163 0.0102950055 0.06810631 -0.026686285 0.009556868
0.120900504 0.021837749 -0.023328593 -0.0841617 0.1630232 0.10199907 0.038262736 0.13819657
-0.013451389 0.07564625 0.02750061 0.06414927 0.06872054 0.016913997 -0.01866373 -0.017770242
-0.027656369 -0.005665006 0.12886149 -0.038991015 -0.05715742 0.17633928 -0.06625222 0.009336196
-0.0035535796 -0.056781694 -0.027678331 0.0045437748 0.05804991 0.0030081351 -0.050791956 0.018490413
0.036128476 0.18175125 0.07645124 -0.050797448 -0.06274044 -0.05957585 0.025212184 0.030682117
0.0038477553 -0.0040390706 0.085846625 -0.023604104 -0.043018006 -0.008352655 -0.02487951 0.010526145
0.1450521 0.057229664 -0.015383849 0.003532188 0.08260102 0.07741075 0.005878002 0.03860739
0.105477944 -0.051792834 -0.00766935 0.10482652 0.11120129 0.03518939 0.031199226 -0.0019271174
-0.05560118 0.09108099 0.14367917 -0.060594648 0.052411366 -0.03356645 0.053320814 0.07781084
-0.03882986 0.04386906 0.1661752 -0.03187964 0.014589839 -0.046311557 0.04745067 -0.02026158
00000000: 9bd7 b53d 1462 68bd 1c3f f33d 2bf6 3e3e
00000010: 1476 243d 2c2a e03b 3dfe 283e ce0e c2bc
00000020: 3fc9 ce3d 2115 003c ed1c 1f3c 19a3 5b3d
00000030: 0b81 b63d aa4f f5bb 2056 0b3e 6abe 883a
00000040: 410b 843d bf24 b2bb 9f32 c73d 943d 8a3d
00000050: 7155 dc3d 2cd0 0cbc f724 503d 3d01 be3d
00000060: 5898 683c 9cb5 433d 9702 08bd 8b5a 42bd
00000070: 872a 3c3d 5efd b23d 4d1e 033d 8e83 5e3d
00000080: 4632 533d b839 b0bd 8e46 be3c d00f a1bc
00000090: 082e a1bb 4d45 873d d6c8 823c a726 a8bb
000000a0: 80ce babc 605f 033d 5c63 c73c c6e2 213e
000000b0: 62ac 283c 527b 8b3d 329d dabc 6994 1c3c
000000c0: af9a f73d 14e5 b23c 9b1b bfbc f85c acbd
000000d0: 8eef 263e e3e4 d03d 63b9 1c3d 6783 0d3e
000000e0: 3763 5cbc 6cec 9a3d f648 e13c b160 833d
000000f0: 5bbd 8c3d 398f 8a3c aee4 98bc e692 91bc
00000100: 9c8f e2bc 84a1 b9bb 44f4 033e 0bb5 1fbd
00000110: e61d 6abd 4992 343e 3eaf 87bd d8f6 183c
00000120: 2ce3 68bb ec93 68bd abbd e2bc f2e3 943b
00000130: bec5 6d3d 2224 453b 3a0b 50bd 3579 973c
00000140: 74fb 133d 001d 3a3e 7892 9c3d fc10 50bd
00000150: 0f7e 80bd ce05 74bd c889 ce3c 1059 fb3c
00000160: 9f2a 7c3b 2e5a 84bb 5bd0 af3d 655d c1bc
00000170: a633 30bd 93d9 08bc 1dd0 cbbc da75 2c3c
00000180: 8a88 143e a769 6a3d 8a0c 7cbc 487c 673b
00000190: b92a a93d 8789 9e3d 419c c03b c822 1e3d
000001a0: d204 d83d b924 54bd 2c4f fbbb 49af d63d
000001b0: 80bd e33d c022 103d 8595 ff3c 5497 fcba
000001c0: 10be 63bd ac88 ba3d a220 133e 1832 78bd
000001d0: 4dad 563d f97c 09bd ed66 5a3d 4a5b 9f3d
000001e0: 0f0c 1fbd 0bb0 333d d529 2a3e 3a94 02bd
000001f0: 380a 6f3c 30b1 3dbd a25b 423d 9dfb a5bc

fc2.weight f4 [2, 128]
-0.0254665 0.060872365 -0.08532916 -0.053094365 -0.020543223 0.031928964 -0.068296455 0.07604064
-0.035460867 0.048994932 0.0062035387 0.006607096 -0.042487204 -0.06435 -0.0850626 -0.04270875
-0.06900641 0.0039602416 -0.028488632 -0.09578236 -0.04539903 0.07936282 0.019868325 0.033865567
-0.023219945 -0.0510862 0.05506663 0.04314474 0.07139981 -0.05906584 -0.026141934 -0.0033256195
0.012460885 0.10457191 0.070390224 0.013584735 0.0018054077 -0.012987477 0.041574158 0.021392584
0.059774224 -0.025176495 -0.06628171 -0.08891585 -0.029574296 -0.035785895 0.073421314 0.036145266
-0.017122312 -0.028577702 -0.06051994 -0.05136694 -0.032420803 -0.0485114 -0.050252337 -0.033446122
0.06857143 -0.03732327 0.015840584 -0.07851153 -0.06569174 -0.037090898 0.037082683 -0.08293645
0.052521344 0.0073551415 -0.052739244 0.084146924 -0.024476802 -0.09227341 -0.032142602 -0.046794936
-0.01920671 0.0055716173 -0.018561246 0.09124461 -0.01602503 0.05700665 0.025792314 -0.00047164463
-0.0699171 -0.07459814 -0.042864837 -0.0017645988 0.0021731649 -0.037743952 0.03197716 0.04465839
0.018255524 -0.06899233 0.0074026515 -0.03470778 -0.005336625 0.05095422 -0.047422785 0.02424556
-0.07384444 -0.0689806 -0.04203902 0.01840436 -0.029099412 0.07451967 -0.019980783 -0.080459446
-0.072170064 0.019489275 0.011952162 -0.08171453 -0.043385267 0.01512275 0.035801455 -0.05307034
0.040798675 -0.08059374 -0.049028046 0.0471305 -0.018277893 0.03595806 -0.07072735 -0.023173241
-0.01914245 -0.058328867 -0.09548484 0.056160968 0.030569432 0.06635557 0.0073518353 0.077339716
0.052861325 -0.03069065 0.06039236 0.034862027 -0.076362886 -0.05583608 0.05737375 0.0012996467
0.020014117 -0.08727746 0.017790793 -0.0813127 0.06800522 -0.046382457 0.06425372 -0.017985582
-0.07289135 -0.050603956 0.059937287 -0.112811364 0.07506608 -0.03758106 0.019163167 0.08663705
-0.062000073 -0.049757734 -0.076413974 -0.011419232 0.039227363 0.0452268 -0.086620495 0.04466733
-0.066171505 -0.012064874 -0.12595761 0.023321282 0.028043259 -0.07073355 -0.050082292 -0.012220791
-0.05355512 -0.06706754 0.022102084 0.07570243 0.012429315 0.08342975 0.066276476 0.07085711
0.08264161 -0.025833145 -0.008120376 -0.044319883 0.046240114 0.038977217 -0.017160801 0.100790344
-0.0588292 -0.020865936 -0.064571545 -0.023485268 0.07779075 0.0011068376 0.031856388 0.07859466
-0.0389364 -0.041152894 0.03624686 -0.083195105 0.004792763 0.0641822 -0.0072971275 -0.03851305
-0.080981 -0.00702611 -0.007802107 -0.05770408 0.04568702 0.009725627 -0.052868128 0.07362967
0.0034097265 0.058242008 0.07962781 -0.004323352 -0.077599026 -0.07178228 0.034955468 0.04450362
-0.0125030875 -0.0024848932 0.044646595 -0.030878171 0.030834815 0.019412968 -0.043368906 -0.07859261
0.054971885 0.09367332 -0.05698325 0.064881146 -0.046665642 0.0484597 -0.06910563 -0.033202816
0.08670965 0.005258964 0.03421151 0.08269844 0.079872794 0.015915569 0.02542877 -0.024149988
-0.02966003 0.07571974 0.042551685 0.0042179003 0.044175677 0.050343834 -0.009359084 0.024045318
-0.0015915325 0.05023574 0.07568333 -0.04262895 0.029110372 0.009610388 0.043134898 0.07890632
00000000: 1f9f d0bc 4d55 793d 0ec1 aebd 7a79 59bd
00000010: 434a a8bc f2c7 023d 03df 8bbd 32bb 9b3d
00000020: 6a3f 11bd e9ae 483d 0e47 cb3b 5780 d83b
00000030: 1007 2ebd efc9 83bd 4d35 aebd 5fef 2ebd
00000040: 3c53 8dbd eac4 813b fe60 e9bc 8b29 c4bd
00000050: 55f4 39bd f988 a23d e6c2 a23c 9fb6 0a3d
00000060: c137 bebc c33f 51bd 8c8d 613d 8ab8 303d
00000070: 103a 923d 06ef 71bd 9c27 d6bc a3f2 59bb
00000080: bd28 4c3c cc29 d63d c028 903d 8292 5e3c
00000090: 6ea3 ec3a 6dc9 54bc aa49 2a3d 803f af3c
000000a0: d1d5 743d f03e cebc b5be 87bd 8319 b6bd
000000b0: cb45 f2bc 3b94 12bd ea5d 963d 0f0d 143d
000000c0: 1744 8cbc c91b eabc c2e3 77bd 2466 52bd
000000d0: adcb 04bd e4b3 46bd 65d5 4dbd cdfe 08bd
000000e0: 2e6f 8c3d 49e0 18bd 1dc4 813c a7ca a0bd
000000f0: 6489 86bd a0ec 17bd 03e4 173d 96da a9bd
00000100: 9f20 573d 6603 f13b 1b05 58bd 3955 ac3d
00000110: 9383 c8bc d7f9 bcbd f6a7 03bd 0cac 3fbd
00000120: 6457 9dbc 1d92 b63b c10d 98bc 74de ba3d
00000130: ec46 83bc ce7f 693d 674a d33c 1247 f7b9
00000140: b230 8fbd e9c6 98bd 0a93 2fbd 1c4a e7ba
00000150: a86b 0e3b 6799 1abd 7cfa 023d b7eb 363d
00000160: 9c8c 953c da4b 8dbd f191 f23b bf29 0ebd
00000170: dbde aebb 5fb5 503d 653e 42bd a09e c63c
00000180: c13b 97bd b345 8dbd 1c31 2cbd bec4 963c
00000190: e461 eebc c59d 983d bdae a3bc ecc7 a4bd
000001a0: e6cd 93bd f9a7 9f3c 00d3 433c f359 a7bd
000001b0: c0b4 31bd 69c5 773c 8ca4 123d 4960 59bd
000001c0: 831c 273d 550e a5bd a2d1 48bd e90b 413d
000001d0: 85bb 95bc c248 133d 80d9 90bd cfd5 bdbc
000001e0: a1d0 9cbc 40ea 6ebd 8e8d c3bd 0b09 663d
000001f0: bf6c fa3c 6ee5 873d aae7 f03b 4964 9e3d
00000200: 1e85 583d f56a fbbc fb5d 773d 7ccb 0e3d
00000210: 2564 9cbd 60b4 64bd bd00 6b3d e858 aa3a
00000220: a5f4 a33c 86be b2bd ffbd 913c 4687 a6bd
00000230: 5246 8b3d 88fb 3dbd 7497 833d 8056 93bc
00000240: 0f48 95bd 1846 4fbd cd80 753d a509 e7bd
00000250: 3fbc 993d 99ee 19bd 13fc 9c3c c46e b13d
00000260: caf3 7dbd c4ce 4bbd ee7e 9cbd bb17 3bbc
00000270: dfac 203d bd3f 393d 1666 b1bd 17f5 363d
00000280: ed84 87bd c0ab 45bc 08fb 00be 460c bf3c
00000290: faba e53c c0dc 90bd 1723 4dbd b639 48bc
000002a0: 9d5c 5bbd b55a 89bd 6e0f b53c e009 9b3d
000002b0: 53a4 4b3c 37dd aa3d f6bb 873d 881d 913d
000002c0: 0140 a93d 08a0 d3bc 530b 05bc c488 35bd
000002d0: 4666 3d3d 93a6 1f3d cf94 8cbc 2b6b ce3d
000002e0: e3f6 70bd 0aef aabc 163e 84bd 2d64 c0bc
000002f0: c250 9f3d 4f13 913a d87b 023d 3df6 a03d
00000300: c67b 1fbd f08f 28bd 9677 143d 3262 aabd
00000310: 9c0c 9d3b f571 833d be1c efbb dcbf 1dbd
00000320: 5ed9 a5bd 483b e6bb d1a8 ffbb 1d5b 6cbd
00000330: 5022 3b3d 3c58 1f3c 408c 58bd 27cb 963d
00000340: b875 5f3b 2c8f 6e3d e813 a33d e8aa 8dbb
00000350: 3dec 9ebd 9702 93bd 772d 0f3d 6e49 363d
00000360: c0d9 4cbc 97d9 22bb 59df 363d 38f4 fcbc
00000370: 4b99 fc3c f207 9f3c 98a3 31bd 2af5 a0bd
00000380: 332a 613d ccd7 bf3d 4567 69bd 68e0 843d
00000390: 7924 3fbd ae7d 463d 4187 8dbd adff 07bd
000003a0: d494 b13d 6353 ac3b 5e21 0c3d cd5d a93d
000003b0: 5994 a33d 5e61 823c ff4f d03c 32d6 c5bc
000003c0: 97f9 f2bc f312 9b3d ad4a 2e3d 5036 8a3b
000003d0: 8ef1 343d 5635 4e3d d856 19bc b0fa c43c
000003e0: f89a d0ba fec3 4d3d ddff 9a3d b29b 2ebd
000003f0: e078 ee3c e474 1d3c 38ae 303d a399 a13d

fc2.bias f4 [2]
-0.011586694 0.01659588
00000000: 1ed6 3dbc 15f4 873c

qnn.weight f4 [4]
0.060492635 -0.7639669 -0.4017008 -0.7046552
00000000: 20c7 773d 5693 43bf baab cdbe 4864 34bf

qnn._weights f4 [4]
0.060492635 -0.7639669 -0.4017008 -0.7046552
00000000: 20c7 773d 5693 43bf baab cdbe 4864 34bf
