models/classification/control/mnist/mnist_2v3_2qubits_r1.pt (torch, 207416 bytes, 10 tensors)

conv1.weight f4 [2, 1, 5, 5]
00000000: 2587 f83d 1d7c 0dbe 0c44 4abe 1d7e 9c3d
00000010: 2572 ab3c 0252 2bbe a395 07be 34a2 a8bc
00000020: 49d3 b73c 19c5 af3d e319 b5bd 9a9d c23d
00000030: 95ae 86bd db82 093e a35e 213e f4d6 3dbe
00000040: 83c7 703d c6ba 1c3e f8ab 72bd b86a 163e
00000050: 7766 0a3e ebfc d33d 41be 413e 0ba8 eebd
00000060: 553f 05bd 7bae 25bd 286c be3d 797e abbd
00000070: 82f4 26be fbdc 933d cec9 813d 85fe f8bd
00000080: 6f5a 6abd 762d 2ebe 1657 403a 44d4 8b3d
00000090: cc79 153e f97c 17be fcf8 88bd e5b2 3cbe
000000a0: 0ee4 343d 3e1d fe3c e2c1 33be 0470 33be
000000b0: 978a 43be 1775 f4bd 7251 613e 4a8b 0ebe
000000c0: 36ec 3e3e f72f 9c3d
0.12135152 -0.13816877 -0.1975252 0.07641242 0.020928452 -0.16730502 -0.13240676 -0.020585157
0.022439616 0.08582515 -0.08842828 0.09502716 -0.06576268 0.13428824 0.15758757 -0.1853903
0.05878402 0.15305623 -0.059246033 0.14689147 0.1351565 0.10350975 0.18920232 -0.116531454
-0.0325311 -0.0404496 0.09297973 -0.08373732 -0.1630421 0.07219883 0.06337319 -0.12157921
-0.05721515 -0.1700953 0.00073371956 0.06827596 0.14597243 -0.14793767 -0.06688115 -0.18427618
0.044162802 0.031019803 -0.17554429 -0.175232 -0.19095837 -0.119363956 0.22003725 -0.13920322
0.18644795 0.07626336

conv1.bias f4 [2]
00000000: 6780 35bd 1113 2bbb
-0.044311907 -0.0026103894

conv2.weight f4 [24, 2, 5, 5]
00000000: 9649 ae3d 5ba7 2dbe 0062 cbbd d645 95bc
00000010: 3fa4 16bd 83a5 8c3d c38d 7bbb d1d9 da3d
00000020: 09b4 26be 5be3 873d c016 2ebe 3b54 14bd
00000030: 0b09 8bbd 154b a73c 28dc 05be 6bbd aebd
00000040: 9979 9cbd 0429 043e d500 a1bd f88d 82bd
00000050: 6c6f a13d 1931 113e 259b 0ebe 9da1 56bd
00000060: f1db 783d 54a2 aebc b71b 513c 1993 c83d
00000070: 8da1 0bbd c5dc 25be be96 58bd 7431 df3d
00000080: f055 903c 09e8 963d 1337 56bc cdf0 06be
00000090: f7d8 b3bc ab2f 28bc 3156 91bc 038b 1abe
000000a0: a8d9 39ba 3e47 d3bc 5491 ebbd c0e0 b83d
000000b0: 739e 33bd 8990 1c3c aff1 22bc c8ae bebd
000000c0: d747 003d b23b 89bd 83e9 f33c c5f4 04bd
000000d0: c960 44bd 73ab bf3d c562 5cbd f1a5 c0bd
000000e0: 3180 d13d be6c 73bd d8db 84bd 7d34 153c
000000f0: 260c b33c 75a1 92bd 1ad3 153d 48e1 e63d
00000100: 7436 fdbc 8512 313d 3d07 e5bd 812d 123e
00000110: 07c8 04bd 2844 28bd 4af1 01bd 8520 ca3d
00000120: 6edf 143e c2ef b3bd d39f e5bc 7708 4c3c
00000130: 4544 77bd 4634 0c3d fd9a c53d 0461 2a3d
00000140: 1ce5 b73c 0ed8 ce3d 5044 e13d fbd7 00bd
00000150: 0c9f 633a 07ed cabc 2af6 00be 3c91 283d
00000160: b50e 453c b3cf 12bd 8cf6 2f3d c20d 33be
00000170: 22f3 c93d 6efa bbbc 8b01 83bc e54a 4ebd
00000180: 7bf9 8f3b 89c4 eb3c c332 bb3d ec27 a2bd
00000190: 17e2 07be 1d24 45bd e9b7 ae3d 5ec7 04bd
000001a0: e4d5 513c 6dfc aabd 4d8a 073e d70d a2bd
000001b0: 4329 163d 3ef4 6e3d 8e93 df3d 3801 1dbd
000001c0: c63d f13d 337e af3d 6ed6 e8bd 3c50 743d
000001d0: 7ab3 dcbc 7757 a1bd 20dd 43bb 6661 9e3c
000001e0: 26e0 a6bd 16e3 e83d 2557 debd cef7 93bd
000001f0: c27b c3bd 2220 fd3d 2b9f f93d 6804 d5bd
00000200: 5431 1cbe e9f7 c0bd daad 0dbe 1685 32bc
00000210: 5e2d ec3d 9b99 11be 6a02 8cbd 364b e4bd
00000220: 02b7 9cbb d70b 13be c94a debd 17bb 8abd
00000230: d756 c2bc 39ae f2bd 2980 58be 8ae4 82bc
00000240: ae26 6c3d 0daa 233e 838f ca3c 7405 893d
00000250: 0bf3 a83b f223 5a3d 5496 7cbc 6182 a83b
00000260: 7ad5 efbc f904 623d 5e60 2dbd 6b80 99bd
00000270: cd02 9d3d d48c 2fbd 7cec 493c 33f3 a7bd
00000280: 4c1f f9bd cd4e ffbc f3ab e1bd be00 5ebd
00000290: 897b febd c02c a63c 6483 da3d 56ac 01be
000002a0: 5b2f 953c 6056 7fbd 7a82 913d 6f9e c6bd
000002b0: 7756 3abd 99a3 113c 75e5 343b 58c5 4938
000002c0: 1670 31be 4e78 6f3d 60e0 32be 37bf 50bc
000002d0: eb97 763d 8a0d 9dbc 51b1 bb3d 127a a13d
000002e0: a807 30bd 9e91 c13d 6310 a33c 7a8e 003d
000002f0: 252a 18be fff8 23be ec96 123e 4d8d 92bc
00000300: 3980 aebd 8583 5a3c b052 893c e040 69bd
00000310: baf4 093e cef0 eabd be9d 283d 8ade 873d
00000320: 66cc c1bd 8d4f bfbd cc35 0ebe 1e6a c6bc
00000330: 09ab 8fbc 3160 0c3e d121 e13d d2ab 523d
00000340: 3bb7 ffbd 7040 d43d dad9 02bd 9797 1dbd
00000350: 4874 cebc 985e 8e3d 6ecb ebba cc28 20be
00000360: 2d48 a13b 364f 01bd f100 9c3d 8882 73bd
00000370: a12d 59bd 53fe 63bc c970 ec3d b462 c5bd
00000380: f2c5 98bd 49fb 083e 7f19 6dbc 1c55 e7bb
00000390: 7b73 743d 8c72 893c e2cd 7a3d bda5 95bd
000003a0: 74e3 293d c511 c9bd 7557 9e3c 61f5 b63d
000003b0: fae7 4f3c a356 4b3d 7767 e9bd 3cc3 24be
000003c0: 53a7 45be e34e 5e3b 06e7 b53d 7e21 cb3c
000003d0: 903e ddbd a742 9e3c 154e c0bb ce8d a63d
000003e0: 591b 003e 66a2 c63d 32ed aabc 978d 023e
000003f0: ec82 7bbd 764c abbd 052c 983d f3c2 19be
0.08510129 -0.16958372 -0.099308014 -0.018221777 -0.03677773 0.06867506 -0.0038384057 0.106860764
-0.16279615 0.066351615 -0.17000866 -0.03621314 -0.06788834 0.020421544 -0.13072264 -0.08532222
-0.076403804 0.12906271 -0.07861487 -0.06374735 0.0788258 0.14178886 -0.1392637 -0.05240022
0.060756627 -0.021317638 0.012762955 0.09793682 -0.034089614 -0.16197498 -0.052878134 0.10898104
0.017619103 0.07368476 -0.013074654 -0.13177796 -0.021954043 -0.010265271 -0.017741295 -0.15092091
-0.0007089623 -0.025790807 -0.115023285 0.09027243 -0.04385228 0.009555944 -0.009945317 -0.09310681
0.03131851 -0.06700839 0.029774433 -0.032459993 -0.047943864 0.09358873 -0.05380513 -0.09406651
0.10229529 -0.059429877 -0.06487244 0.009106752 0.021856379 -0.07159702 0.036578275 0.11273438
-0.030909754 0.043230552 -0.11183021 0.14275171 -0.032417323 -0.041080624 -0.03172425 0.09869484
0.14538357 -0.087859645 -0.028030312 0.01245319 -0.06036784 0.03422954 0.09648702 0.041596428
0.022448115 0.10099803 0.10999358 -0.031455975 0.00086830626 -0.024771227 -0.12593904 0.04115413
0.012027432 -0.03584261 0.042959735 -0.17485717 0.09860827 -0.022946563 -0.015991947 -0.050364394
0.004393754 0.028780239 0.091405414 -0.07917771 -0.1326984 -0.048130143 0.08531172 -0.032416694
0.012807343 -0.08348928 0.13236351 -0.07912796 0.036660444 0.058338396 0.10916816 -0.03833124
0.117793605 0.085689925 -0.11369024 0.05964683 -0.02694105 -0.07878011 -0.002988644 0.019333553
-0.08148222 0.11371438 -0.10856465 -0.07224999 -0.09545089 0.123596445 0.12188562 -0.10401231
-0.15253192 -0.09422285 -0.1383585 -0.010895988 0.115320906 -0.14218752 -0.06836398 -0.11147158
-0.0047825584 -0.14359985 -0.10854108 -0.06773966 -0.02372305 -0.118496366 -0.21142639 -0.015978117
0.057654075 0.15982838 0.024726635 0.06690493 0.005155926 0.053256936 -0.0154167 0.0051424955
-0.029276598 0.055180524 -0.04232823 -0.07495197 0.0766655 -0.042858914 0.012324449 -0.082006834
-0.121641725 -0.031165505 -0.11019125 -0.054199927 -0.12425906 0.02028501 0.10669592 -0.12663397
0.018211057 -0.062338233 0.071049646 -0.096981876 -0.045492616 0.008889102 0.0027602587 4.8105925e-05
-0.17327914 0.05846434 -0.17468405 -0.012740902 0.060203474 -0.019171495 0.0916468 0.07884611
-0.04297605 0.094516024 0.019905275 0.031385876 -0.14859827 -0.16012953 0.14315385 -0.017889643
-0.0852055 0.013337021 0.016763061 -0.056946635 0.13472262 -0.11471711 0.04116606 0.06634243
-0.09462814 -0.09341345 -0.1388771 -0.024220522 -0.01753761 0.13708569 0.10992778 0.051433392
-0.1248612 0.10363853 -0.03194604 -0.038474645 -0.025201932 0.06951636 -0.0017989704 -0.15640563
0.004921934 -0.031569682 0.07617367 -0.059450656 -0.05302203 -0.013915616 0.115449496 -0.09637967
-0.0745963 0.13377108 -0.014471411 -0.0070597064 0.059680443 0.016778253 0.0612315 -0.07307003
0.04147668 -0.098178424 0.019328812 0.08933521 0.012689585 0.04964317 -0.113966875 -0.16090101
-0.1930211 0.0033921532 0.08881955 0.024796244 -0.108029485 0.019318892 -0.005868683 0.08132516
0.12510432 0.09698944 -0.020865057 0.12749325 -0.061404154 -0.08364193 0.07430271 -0.15015773

conv2.bias f4 [24]
00000000: 2149 a13d aad4 9dbd 19e1 673c bf85 913d
00000010: 860e 4e3d 5e1b d63c 6769 8d3d 7599 cd3d
00000020: e39e 82bc c20e 883a c6b7 bcbd dc3a b5bd
00000030: 91dd 77bd 18db 11bc 9eb3 9d3c 2281 c8bd
00000040: b89b 71bd b92e c3bc cfe0 e0bd 3198 02bd
00000050: 62ac 51bb 9506 c0bd 8808 82bd 76b0 773d
0.07875276 -0.07706578 0.014152789 0.07105588 0.05030682 0.026136097 0.069048695 0.10039035
-0.015944904 0.0010380375 -0.092147395 -0.08849117 -0.060514037 -0.008902334 0.019250687 -0.09790255
-0.058986396 -0.02382599 -0.10980379 -0.031883422 -0.0031993617 -0.093762554 -0.063492835 0.06047102

fc1.weight f4 [128, 384]
00000000: dade e3bb 5cea ef3c 1c2a 163d 5aa6 24bd
00000010: ca94 2dbd dc25 62bd 4df8 0f3c 897c 8bbc
00000020: d501 ef3c f7b9 9f3b b5cf 253c bca6 cebc
00000030: b8e4 13bd f5b3 6abd 2311 fb3c 1ef3 063d
00000040: 1f5e d0bb dbc7 423b 819d 2ebd bc00 e4bc
00000050: 6c08 0abd 8336 903c e19a fd3b fd57 cb3c
00000060: 1a55 1a3d 59cf 2bbc 6945 41bc 6d58 0cbd
00000070: ab65 a73c fe12 46bd f19e b6ba 2feb 443c
00000080: 176e 293d 9ca5 26bc 1131 b9bc 764c c93c
00000090: eb75 f03c c18c f5bc 01be ffbc 8868 543c
000000a0: 13da 00bd 7c90 753c 092d 203c 63dd 83bd
000000b0: 171f ccbb 97dd 0d3d bf8a c0bb 887d 16bd
000000c0: 1628 1d3d 803b c33c fad0 28bd d17a fe3c
000000d0: a809 093d 6631 383c 4eb7 26bc 64c3 46bd
000000e0: ac34 7dbb 668b 4bbd 79f2 5f3c 3f85 77bd
000000f0: 6439 d53c e896 3c3c 730c 9dbc 2abd c43c
00000100: d055 87bd 9722 54bc 816e c7bc 7428 41bc
00000110: c342 86bd 931b 30bc 76fc 86bd 533e 89bd
00000120: 27e6 80bd a3d8 93bd 2be5 debc a2bc 50bb
00000130: f51e 55bc 47a6 32bd 672e 6cbd 87fe 7ebc
00000140: c2cf 36bc 1af9 d13a c7ec 273d 19dd 1d3d
00000150: d792 5fbc e1bd 15bd c808 043d ad24 6bbd
00000160: 3d24 883b 4aad b4bc 866f ac3b 47b0 4fbd
00000170: ebee cd3c f15e 323d 720a 083c f181 cebc
00000180: 43e1 c33b e796 27bd dc8f ba3c 1fa7 5a3a
00000190: 3e7e 50bb b31c 323c 45c0 f73c fb8c cdbc
000001a0: 8b46 823a a1a4 82bd ed89 063d bc60 0dbd
000001b0: 058e 753c c6fa 0f3d 1a9d 963c 209f 883c
000001c0: 4a93 753c 960a 5d3c 68b4 78bc 9c21 3b3b
000001d0: 9c0b 72bb e5c8 de3c f528 3dbd f07d b2bc
000001e0: 0cae 5bbd 8201 c0bc 9031 933c 5019 87bc
000001f0: 61f2 873c cc93 98bb 3a42 d0bb e034 29bd
00000200: cdb3 93bd 10af 0bbd 09e8 463c a2f2 923b
00000210: ee95 833d 3084 703c a172 933d ec38 943c
00000220: 0c8a 623c 5095 ca3b 7d39 1cbc e5bd 0dbd
00000230: ba61 0dbd b897 34bd c4d5 c03c b6db 80bd
00000240: e8bd 4cbd 1bbf 0f3c 3299 e4bc 470b f13b
00000250: 1211 39bd c2e8 0dbd fb1b 52bd c76c 21bd
00000260: 4160 9fbc b211 52bd 3279 e6bc ec59 643d
00000270: 4611 8a3c 95c8 49bd 1b39 fdba a600 293c
00000280: e79c 0b3c c2ca 41bd fda5 5ebc 60fa 883c
00000290: 2abb 61bd db1e 4d3d 64e5 acbc 7d8c 433d
000002a0: e868 c3ba c6b1 003d 1029 0d3c c923 143c
000002b0: 0d9f 0dbc caae 21bd 7eea 77bb 3f54 5ebc
000002c0: 394c b03c 718e 68bd eb36 70bd ba72 98bc
000002d0: dcdd 28bd 7a0f 0abd aace 24bd 245e be3c
000002e0: d48b 47bd 1afe 343d b5f7 ab3c c8b2 8bbc
000002f0: a2bf 81bc 1455 4e3d 9c9f 49bd 0c44 31bc
00000300: 41b5 b2bb 6642 1a3d a226 4fbc f166 3bbc
00000310: 13af 56ba e999 a6bc 8a38 973c d3a7 df3b
00000320: b7bb a3bc b2cc 5a3c 56cf 0b3d 9b4b a1bc
00000330: fde1 d9bc aaf3 4cba 2943 d2bc fead 23bd
00000340: 5435 473d 8ae8 91bb cd6e 883c 632d d53c
00000350: 23a9 b13c 4fd1 463d 8ea7 43bc 83f3 1b3d
00000360: 927c c6bc 9947 dc3c 7ea0 aabc 6f25 d7bc
00000370: f873 c93b 1a2d a0bc 7bff 91bc 9f30 d03c
00000380: ef8f 663c 5665 2fbd 5caa 2fbd 3e11 cabb
00000390: 901c e039 e314 613d 15f6 733d 1323 c2bc
000003a0: b492 e83b 05a0 30bc a485 87bd a08b b73c
000003b0: c48d 8abc 8824 76bd 93b2 63bd be15 aebb
000003c0: 5a0a 833b bdd4 bc3c 11eb 13bd 21f2 993c
000003d0: 9d67 003d e190 873c 231f d53a 0fec c93b
000003e0: be9b cf3b 857c b5bd 57cd 98bd e670 5d3c
000003f0: 77cb 1dbc 70c5 d83c 3e4d 703c 3136 a1bb
-0.006954056 0.029286556 0.036661252 -0.040197708 -0.042378224 -0.055211887 0.008787227 -0.017027156
0.029175678 0.0048744637 0.010120322 -0.02522599 -0.036106795 -0.057300527 0.03064782 0.0329467
-0.0063588764 0.0029721174 -0.042630676 -0.027832381 -0.033699438 0.017604118 0.0077394103 0.02482223
0.037678815 -0.010486447 -0.011796334 -0.034264017 0.020434221 -0.048357956 -0.0013932866 0.012018963
0.041364755 -0.01017132 -0.022606404 0.024572592 0.029353103 -0.029974343 -0.03121853 0.012964375
-0.03145797 0.014988061 0.009776362 -0.064387105 -0.006229292 0.034635153 -0.005875915 -0.03674081
0.038368307 0.023832083 -0.04121492 0.031064423 0.033456475 0.011242246 -0.010175539 -0.048526183
-0.0038636131 -0.049693488 0.01366865 -0.060429808 0.026028343 0.011510588 -0.019170975 0.024015982
-0.06608164 -0.0129477 -0.024344685 -0.01178943 -0.065557025 -0.010748762 -0.06591122 -0.067013405
-0.06293898 -0.072190545 -0.027208885 -0.0031850715 -0.013007869 -0.043615606 -0.05766144 -0.015563614
-0.011157932 0.0016019673 0.040997293 0.038540933 -0.013645849 -0.036558036 0.032234937 -0.057408024
0.0041547106 -0.022055287 0.005262318 -0.05070522 0.025138339 0.043547574 0.008303272 -0.025208445
0.005977781 -0.040915396 0.022773676 0.0008340943 -0.0031813527 0.0108711 0.030243048 -0.025091639
0.0009939236 -0.06379057 0.03284638 -0.03451608 0.014987473 0.035151266 0.018385459 0.01667744
0.01498873 0.013491293 -0.015179731 0.0028553968 -0.003693319 0.027195403 -0.046181638 -0.021788567
-0.05363278 -0.023438219 0.01796797 -0.016491562 0.016595067 -0.0046562906 -0.006355551 -0.04131019
-0.07212029 -0.0341025 0.012140282 0.0044844905 0.06425081 0.014679953 0.07199598 0.018093549
0.013826858 0.00618235 -0.009535191 -0.034604926 -0.034517027 -0.044090003 0.023539431 -0.062919065
-0.049985796 0.00877359 -0.02790508 0.0073560807 -0.045182295 -0.034645803 -0.051296216 -0.03941038
-0.019455077 -0.051286407 -0.028133962 0.05574982 0.01685394 -0.049263556 -0.0019319387 0.010315096
0.008521295 -0.047312506 -0.013589379 0.01672095 -0.055110134 0.050078254 -0.021105476 0.047741402
-0.0014908584 0.031419538 0.008615747 0.009041735 -0.008643878 -0.039473332 -0.0037828977 -0.0135698905
0.02152072 -0.056776468 -0.058646124 -0.018609393 -0.041227207 -0.033706166 -0.040236153 0.02323825
-0.048717335 0.044187643 0.02099214 -0.017053023 -0.015838448 0.050374106 -0.04922448 -0.010819446
-0.005453736 0.03766098 -0.012643488 -0.011438117 -0.000818954 -0.020337062 0.018459577 0.006825426
-0.01998697 0.013354467 0.034133278 -0.019689372 -0.026597017 -0.0007818291 -0.02566679 -0.039960854
0.048634842 -0.0044527696 0.016654396 0.026022619 0.021687096 0.048539456 -0.011941804 0.038074028
-0.024229322 0.02688961 -0.020828482 -0.026262967 0.0061478578 -0.019552756 -0.017822018 0.02541381
0.014072402 -0.04282125 -0.042887077 -0.006166606 0.0004274589 0.05495156 0.059560854 -0.023698365
0.0070975665 -0.010780339 -0.06617287 0.022405446 -0.016913302 -0.060093433 -0.055590224 -0.0053126505
0.0039990367 0.02305066 -0.03611285 0.018792214 0.031348813 0.016548576 0.001625989 0.0061621736
0.0063357046 -0.08861641 -0.074610405 0.013515687 -0.009631029 0.026461333 0.0146668535 -0.00491979

fc1.bias f4 [128]
00000000: d688 fb3b 2ca9 5d3d c959 09bd 6fe4 debc
00000010: 4fed 4abb 9ce1 11bd 9e05 7fbc 47b0 5dbc
00000020: c70f 653d 7502 453d d653 093e fcbe 3fbd
00000030: adb8 e53c 0274 513c ca10 c4bc 060a 7fbc
00000040: b066 bb3d e351 423d 6d5f 44bd a73c 97bc
00000050: 8c59 05bd 6775 fa3c 6388 0ebd ddf6 b43b
00000060: 425c da3d fa3a 953d 8ab2 1e3d 721b 25bd
00000070: ec30 e43c b3ad ae3d aa3c 893c 5d34 a03d
00000080: 048f b1bb 4efe a13d b097 e23d c752 953d
00000090: 5645 7e3d 7acf 80bc f2df 4f3d 3793 08bd
000000a0: e1c6 a13d 4bfd 073d 3c6f 0f3d 1351 293d
000000b0: 591f 8ebc 3c20 443d b14a 493d efff c0bd
000000c0: 6e5d 96bc b3a6 3a3d 3dcb 943d 7856 35bd
000000d0: 0f8a d2bc 53b2 dabc cdaa 1e3b c11e 113d
000000e0: 84de 313d c0b8 623d c0fa a23d 1a51 c73d
000000f0: 9c84 813d 1e7b ae3d de80 443d f067 013e
00000100: 0795 a43c b157 2f3d 21fa 283d 22f3 0abd
00000110: 8e10 e23c c3b5 993d 19d8 6f3d e1b5 15bd
00000120: 14e3 b13c 98b2 033c 28f1 483d c03f 303d
00000130: 8b99 073d 786e 8c3d 412a a0bc 0a47 0a3c
00000140: 5b5e 41bc cad7 9c3d 9ae4 3abc 45c8 273d
00000150: d9b3 a63c 019b 8a3d 63a9 83bd b3b1 10bd
00000160: 3366 80bd 967f 03bd e9c6 6dbc 38de 7e3d
00000170: 1466 75bd e4fb 293d 6916 78bd 0a06 343d
00000180: e6b9 9c3d 23ac d13c 9c3b 533d c896 95bc
00000190: 9255 693d 9379 24bc 6c05 4e3d b934 b2bd
000001a0: 78ac 883d 09a1 1a3d e26c 193d bf6a 1e3d
000001b0: 9f25 933d 0399 c13d 4b83 d23c 5a9a 95bc
000001c0: 4dc1 a93d 5bf7 263d 4b70 963d 0c78 5e3d
000001d0: 7da4 843d 7b0c 053d 0007 e63c 3cb1 a2bc
000001e0: 94cd 9e3d d16f da3d 0c04 9cbc 5ea6 3f3d
000001f0: e91f 1a3d 33d5 9a3d c3f1 b43d 4996 923c
0.007676224 0.054116413 -0.03353289 -0.027208535 -0.00309642 -0.03561555 -0.015565304 -0.013530797
0.05592325 0.048098046 0.13410887 -0.046812996 0.028042162 0.012784006 -0.023933787 -0.015566355
0.091504455 0.047441375 -0.047942568 -0.018461538 -0.0325561 0.03057356 -0.034798037 0.0055225925
0.10662128 0.072866395 0.038744487 -0.040309377 0.027855359 0.08529224 0.01675256 0.078224875
-0.00541866 0.07909833 0.11064088 0.07291179 0.062077843 -0.015723933 0.05075068 -0.03334352
0.07899261 0.033200543 0.03501819 0.041337084 -0.017348932 0.047882304 0.049143497 -0.094238155
-0.018355098 0.045569133 0.07265327 -0.044271916 -0.025700597 -0.02669636 0.0024210692 0.03542972
0.043425098 0.055351973 0.07957983 0.09732266 0.06324121 0.085195765 0.04797446 0.12637305
0.020090593 0.04280824 0.041254167 -0.033923276 0.027595785 0.075053714 0.058555696 -0.036550406
0.021714725 0.008038186 0.04905811 0.043029547 0.033105414 0.06857008 -0.019551398 0.008439789
-0.011802281 0.07658346 -0.011407042 0.040962476 0.02034943 0.06767846 -0.06428792 -0.035325717
-0.06269493 -0.032104097 -0.014512756 0.062223643 -0.059911802 0.041499987 -0.060568247 0.04395107
0.07652645 0.025594776 0.05157052 -0.018260375 0.05696637 -0.010038751 0.05029814 -0.08701462
0.06673521 0.03775123 0.037457354 0.03867602 0.0718491 0.09453013 0.025697371 -0.018262077
0.08288822 0.04076324 0.07345637 0.054313704 0.06476686 0.032482605 0.02807951 -0.019859903
0.07754055 0.106658585 -0.019044898 0.04678952 0.03762809 0.07560196 0.08835175 0.017893927

fc2.weight f4 [2, 128]
00000000: 5fda ca3b e13c 0abd ac6c 90bd 2a00 d83c
00000010: 051a 383d 3f97 05bc 41c8 b2bc 9290 f2bc
00000020: 0e7f 37bc c574 efbc 551a 283d 4e7c 29bd
00000030: b4a8 c53d a3c9 68bd ca24 9c3d dafe 27bd
00000040: fcb7 c2bc 9d59 3d3d 20f7 333d 8253 eb3c
00000050: ec52 dc3c a419 4d3d 35e7 393d b563 1d3d
00000060: 142b 603d 6a80 a4bd 967c 633d 7359 98bd
00000070: 35d8 9dbd fbbb 0cbd 907c 6e3d 6a39 ad3b
00000080: 5b87 99bd 1a18 acbd b6a3 403d ca33 38bc
00000090: 5966 c6bc d172 06bd 9c58 293d bdb3 c33c
000000a0: 0ea3 79bc f803 79bb a1ef 86bd 8da2 dcbc
000000b0: 5228 6fbd 9cf6 4abd ebe8 7a3d be90 c73d
000000c0: 25d8 acbd bc5e 383a 634d ccbc 20df 9abb
000000d0: c96f 953a 6912 aabd 45ce 6cbd e1bf b63c
000000e0: a85d ee3c 689d 1fbc 4eec 8bbd 212d 1fbd
000000f0: ea3f 8abd 1a40 913c b801 643c dd36 403d
00000100: 5a9b a2bb b809 c33d cd04 833d 9c8f a63a
00000110: 2ab2 4c3d a7e8 a8bd 1558 ff3b 207a 583d
00000120: 66c0 603d 18e2 583d 7239 0cbd 7022 b13c
00000130: 818e 82bd 608d 463b 8377 66bd 18fc 2fbd
00000140: 3ffc c4bc 8878 adbd 83aa bc3d db78 90bd
00000150: 8cb4 1c3d 51ba 91bb 0893 683c f29c 563d
00000160: 4df7 233d 1641 033c a175 a8bb 4f17 a7bc
00000170: e96a 333d 6424 833d 2fbb 62bb 117d 6bbd
00000180: a8c0 0dbd 5b5f 5c3d 9898 1e3d cbdf 8cbc
00000190: ecda 843d 7687 9a3d 231f 15bd e542 5f3d
000001a0: f7bb 1e3b 1dbd 4f3d 49f4 3fbc 8c4a 923d
000001b0: 1926 f6bc 7888 37bd 38dc 803d d457 a0bd
000001c0: 4146 1a3d 016e 66bd d7ed 3d3c 7f8f 80bb
000001d0: 953c a5bc 8b20 a03d 6802 2abc 6adb 9c3b
000001e0: 0f75 87bd 7d73 3cbd 9dbd f3bb 16ad 903d
000001f0: 731d 9dbd 87f0 71bd 1283 9dbd fd5b ab3d
00000200: b3cd 823d fbf1 2abd 5449 dc3c 9088 003d
00000210: d48a 2b3d abd5 333d ee9b bc3d ef44 853d
00000220: 7ed2 0dbd 0582 3bbd ea02 85bd 7348 96bd
00000230: 2c25 4c3d 7d42 a23d 7bdb 90bd afa4 b93c
00000240: b313 4ebd a297 c13d d251 fa3c 371f 6c3d
00000250: 30de 3f3d a1a0 0bbd d77f 553d f29b 13bd
00000260: 2450 8dbd a854 8abc 9045 0d3c 59a3 a33c
00000270: c7b9 5c3b 4d51 88bd 5d4d 65bd cfee 83bd
00000280: 4a3a a33c 7372 8a3c 65fa cbbd 3618 f13d
00000290: 69bc 46bd f1f0 d03c 3642 843b a37e d4bc
000002a0: 9b2e 1abc 170a 1c3d 46b5 debc f2fc 173b
000002b0: 2229 de3c 2b81 8cbd 23e8 aabc 7a2e fbbc
000002c0: 896d c3bd c12a bdbd b09a 9abc ce69 953c
000002d0: 71cf 233d de8e a2bc 1b6b 503d 07e5 05bd
000002e0: 8133 28bd f915 a1bd 2995 d0bc b850 16bd
000002f0: 2d2b 83bd bc49 aebd 9939 973d 41c9 cebd
00000300: 5ffb a4bd d88a ed3d 322c 7e3d 2e14 823d
00000310: 7281 5abd 70a7 0c3d 25f3 43bd 8afd 343d
00000320: a19e 9a3c 3cbc bb3c f77e 38bd 0da0 673d
00000330: fbc7 8fbd 00b2 a0bd ad09 aabc ce4f cbbc
00000340: 8d48 8b3d b61a 12bb 9bea b03d 2a5c e5bc
00000350: 944f 1ebd 5ba1 c33d 5e9d b23c cac4 b6bb
00000360: f00f c5bc 455f 63bc 138b 373c 26c9 50bd
00000370: 5f54 b03c 7fd6 973d 7c87 f13c 6185 7c3c
00000380: a30b 78bd dd23 25bd e752 95bd 10af a23d
00000390: 6839 ccbd f2ae 163d 028c c6bc 4751 eb3c
000003a0: 4503 2abd 4431 b63c 7fd3 993d 05a1 81bd
000003b0: e8cc e9bc 1886 52bc 0dcb d23d 4be3 2d3d
000003c0: 74a6 9fbd e941 a3bc 3220 b6bd 2611 20bd
000003d0: 527b b9bd 610f 9d3d 50ff 8cbd 0763 873d
000003e0: 503e 64bd d09f 53bd d0ab bbbc e044 1f3c
000003f0: 5261 00bd 9c25 fdbb 45f4 9bbd d22f 8dbd
0.0061905826 -0.033749465 -0.070519775 0.026367266 0.04494669 -0.008153736 -0.021824004 -0.029609952
-0.011199726 -0.029230485 0.041040737 -0.04137831 0.09651318 -0.05683292 0.076242045 -0.04101453
-0.023769371 0.04622804 0.04393685 0.028726343 0.026895009 0.05007328 0.04538651 0.038425166
0.054728583 -0.080323055 0.055538736 -0.07438936 -0.07707254 -0.03435896 0.05822426 0.0052863853
-0.0749652 -0.084030345 0.047031127 -0.011242816 -0.024218725 -0.03282434 0.04134427 0.023889417
-0.015236629 -0.003799675 -0.06588674 -0.026932979 -0.05838806 -0.04955159 0.061257284 0.09744404
-0.08439664 0.00070331595 -0.024939245 -0.0047263056 0.0011401112 -0.08304293 -0.0578139 0.022308292
0.029097393 -0.009742118 -0.06832181 -0.038861398 -0.06750472 0.017730761 0.013916425 0.04692732
-0.004962367 0.09523338 0.063974 0.0012707594 0.049974598 -0.082475 0.0077924826 0.052850842
0.054870985 0.052949995 -0.03423447 0.021622866 -0.06374837 0.0030296668 -0.05626632 -0.042965025
-0.024046062 -0.08470255 0.0921221 -0.07054301 0.03825812 -0.0044472595 0.014195211 0.05239577
0.040030766 0.008011123 -0.0051409756 -0.020396857 0.04380313 0.06403425 -0.0034596433 -0.05749232
-0.03460756 0.053801876 0.038719743 -0.017196557 0.064870685 0.075453684 -0.036406647 0.054507155
0.0024220922 0.05071746 -0.011715957 0.07143125 -0.030047463 -0.04480788 0.062920034 -0.07829252
0.037664656 -0.05625725 0.01159235 -0.003923356 -0.02017049 0.07818707 -0.01037655 0.0047868984
-0.06614124 -0.046008576 -0.007438375 0.070642635 -0.076716326 -0.059067275 -0.07691015 0.08367155
0.0638689 -0.041734677 0.026890434 0.031380236 0.041880444 0.04390494 0.09209429 0.06507289
-0.03462457 -0.045778293 -0.064946964 -0.07338037 0.049840137 0.07922838 -0.070731126 0.022661535
-0.050311755 0.0945275 0.030556593 0.057646956 0.046842754 -0.034088735 0.05212387 -0.036037393
-0.06900051 -0.01688607 0.008622542 0.019975351 0.0033680068 -0.06656132 -0.055981982 -0.064420335
0.019925255 0.016900277 -0.09959868 0.11772196 -0.048519526 0.025505515 0.0040362133 -0.025939291
-0.009410526 0.03809556 -0.027186047 0.0023191539 0.027119223 -0.06860574 -0.020862645 -0.03066181
-0.095423765 -0.0923667 -0.018872589 0.018238928 0.039992753 -0.019843515 0.050883394 -0.03268912
-0.041064743 -0.07865519 -0.02546175 -0.036698073 -0.064047195 -0.085101575 0.07384033 -0.1009698
-0.08055758 0.11598748 0.062053867 0.06351505 -0.053346105 0.03433937 -0.047839303 0.044187106
0.018874468 0.022916906 -0.045042958 0.05654912 -0.07020565 -0.07846451 -0.020756567 -0.024818327
0.06800947 -0.0022293753 0.086384974 -0.027998049 -0.03865011 0.095522605 0.021803554 -0.0055776583
-0.024055451 -0.0138776945 0.0112025915 -0.05097308 0.021524606 0.07413959 0.02948355 0.015412659
-0.060557973 -0.040317405 -0.07291203 0.07943547 -0.09971887 0.036787935 -0.024236683 0.02872528
-0.041507024 0.022240289 0.07511043 -0.0632954 -0.02854009 -0.012849353 0.10292635 0.04245309
-0.0779542 -0.01992889 -0.088928595 -0.039078854 -0.090567246 0.07668949 -0.068846345 0.06610685
-0.05572349 -0.05166608 -0.022909075 0.009721011 -0.031342812 -0.0077254307 -0.0761495 -0.068938866

fc2.bias f4 [2]
00000000: 513e 33bc d984 cebd
-0.01094015 -0.100839324

qnn.weight f4 [4]
00000000: 6bb2 7dbb 457b e23e add7 083f 7c9c b3be
-0.0038711082 0.44234672 0.53454095 -0.35080326

qnn._weights f4 [4]
00000000: 6bb2 7dbb 457b e23e add7 083f 7c9c b3be
-0.0038711082 0.44234672 0.53454095 -0.35080326
