models/classification/control/mnist/mnist_2v3_2qubits_r4.pt (torch, 207416 bytes, 10 tensors)

conv1.weight f4 [2, 1, 5, 5]
00000000: 36a7 75be 2fbb a6bd b26c c6bc 7350 563e
00000010: a234 15b9 1117 91bc f0d0 06be 56c1 a33d
00000020: 5bc9 23be fce6 333e 1492 41be a33f 90be
00000030: bb06 a13b 87ae 01be 6889 8dbd 83a7 223d
00000040: c47a debc b860 15be 6bd5 aabd cde4 f13c
00000050: ddaf 283e d883 22bd c6d9 033e 7c91 5dbd
00000060: 0825 09be f415 a93d 4e15 dc3c 23ea 06be
00000070: 53f8 e13d d80a 843c 54f9 bc3d 4fb3 f9bb
00000080: 3cc8 c6bd 538f 29be 71ae bb3c 732d e43d
00000090: ccb7 003e 0b38 1cbd fbd8 4ebe fdb0 cabb
000000a0: 37bd e73c a9bc fbbd 2b76 45bb fe2b fdbd
000000b0: 24f2 47be ed86 08be 2b01 0a3e 9e55 953d
000000c0: 7363 53be 9c94 1f3d
-0.23989567 -0.08141171 -0.024221752 0.20929126 -0.00014229355 -0.017711194 -0.13165641 0.0799586
-0.1599478 0.17568582 -0.1890338 -0.2817355 0.0049141324 -0.12664233 -0.06910974 0.039710533
-0.027158149 -0.14587677 -0.083414875 0.029528046 0.16473337 -0.039676517 0.12876043 -0.054093823
-0.13393033 0.0825614 0.026865628 -0.13175254 0.11033692 0.016118452 0.09227243 -0.007620252
-0.097061604 -0.1655858 0.022910329 0.11141481 0.12570113 -0.038139384 -0.20199959 -0.0061856494
0.028288467 -0.122918434 -0.0030130248 -0.123619065 -0.19525963 -0.1333272 0.13477008 0.07291721
-0.20643406 0.038960084

conv1.bias f4 [2]
00000000: 1e46 053e 0507 353d
0.13015029 0.044196147

conv2.weight f4 [24, 2, 5, 5]
00000000: 9859 7abc 6690 983d f39e 9d3d b79d 913d
00000010: f605 0e3d 2788 bb3c c36b 1b3d 57ac 2c3d
00000020: d4da f13d 2d1c efbd 6f40 d93d 98f4 af3d
00000030: 08b7 c83d eddf a53d 07cf eebd c8d1 50bd
00000040: efe6 653d 2e41 a7bd 484b ebbd 79c0 b13c
00000050: 326f ecbd 4946 1dbe a5da 843d 7531 d6bd
00000060: a9cf 16be a137 213d 25ef a83d f31a ff3d
00000070: b138 59bd 19b1 723d 9e09 b93d dd0b 05bd
00000080: 85ab a83d c094 a33d a848 b53d acb8 97bd
00000090: 8401 d73c cd25 013e 09be 01be deb8 d3bd
000000a0: a8ee ec3d 4a96 0f3e 160d dbbc 36f7 1ebe
000000b0: 9145 7cbd 35a3 163e d084 babc 6f92 a5bd
000000c0: fe2c 71bc ede6 16bd 68b2 a83d 64de 853d
000000d0: 3731 0dbd addf a1bd e49c f13d 3eb0 783a
000000e0: 12be dabc cf96 89bd 8de4 66bd f58c 0bbe
000000f0: af34 ab3c 410c 79bd bab4 9fbc 5e27 07be
00000100: e4ba 24bd e6e3 dfbd dbb3 cebd e729 173e
00000110: 575f b03c 93e5 1c3e 470a d0bd daaa 1ebd
00000120: 27be a93d 631d 5c3d f7ac 933d 50cb d4bd
00000130: b5cc 2bbc 5f70 54bd 6427 e63c bf3a 73bd
00000140: ef17 1fbe a7e4 acbd 963f fa3d cb8c 28bc
00000150: 3d3a 8b3c a219 ccbc 0aa8 743d d1b5 18bd
00000160: e4e8 6fbd d22d 26be deb7 3dbd 343d 56bd
00000170: a3dc 07be f9c7 113a 9e10 ccbd a424 a7bd
00000180: eb3f a6bd 1f7a 8e3d a339 28bd 196e c93d
00000190: 1f84 9b3d 265b c83d 4e9c 9bbd 865b 0abe
000001a0: 504b 70bd fd46 623d ff3c f73d b3ef fbbd
000001b0: ac73 a4bd 2e06 35bd 7433 cb3d 2084 babd
000001c0: 3fd7 62bd 5460 8cbd 0003 b5bd cbe7 563b
000001d0: e429 45bc 972d bbbd 565d 00bd 91ae be3c
000001e0: 2ac8 d43c 3d91 dfbd 7911 033e 825f 0bbc
000001f0: 64fa dbbd d843 813d b9b6 d73d 7be1 06bd
00000200: d03d 0c3e e2f7 2dbd c233 75bb bab7 57ba
00000210: 000e a5bd ddad d43c 1442 c63c 3c4a a43c
00000220: 16b4 873c 1c28 11be 6e31 8c3d e314 5d3d
00000230: e159 fd3b 4fab 133d 9125 bc3d a6d5 6dbd
00000240: 0059 d63d 1ec4 efbc 368c 47bb 2f4c 1e3d
00000250: 2e3e 0c3e 5a0f af3d a7e0 89bd 2ee3 1fbc
00000260: 86b5 633d 8400 5c3d 3bcd 343e 83ff 2cbe
00000270: 817b 75bb ce43 063d 47f6 9d3d 11e8 553c
00000280: 819e e1bd 142a 683d c627 ccbd 76eb bc3c
00000290: 9b91 ea3c 3e63 b1bd 969b 4e3d a635 e33d
000002a0: eeac dabd b4af c23d f829 8cbc 0c1e 283e
000002b0: d9b0 a9bb 0dc6 96bc 3cb3 b0bd ff3a b43c
000002c0: 78df 8c3d 39c2 ec3d ec52 d2bd 7056 f1bc
000002d0: 0293 12be cd96 1dbe 9228 933d 2280 8c3d
000002e0: 9a6d 273d c1b6 7b3d af64 77bd 67ea 25bd
000002f0: fb87 fe3c 2426 bf3d 4694 183d 04f3 0cbe
00000300: 5879 ddbc f833 243d 9ca9 ffbc 0d90 9b3c
00000310: 2cf0 f9bd 7f7f 38be 9f34 46bb 8d15 bcbb
00000320: 9f3f 16bc dd73 0c3e cdff 263d e166 f8bc
00000330: 0a02 5dbc 8571 31bd 71c5 c93c 6bea 973c
00000340: 09cf c63c ce7a 9fbd 9a34 023e 2927 efbc
00000350: f1cf 423d e6eb 493c a8bf eabc 241d da3c
00000360: 52aa 953d 1295 283c c185 66bc 1fba b8bd
00000370: 76b7 683d fdc1 0dbe 967c 96bd e195 28be
00000380: adf5 89bd d843 e1bd 1a01 9a3d a81a 67bc
00000390: 9429 9038 670d 203e dd74 bb3b 9b99 ad3d
000003a0: 6e46 1a3d ce0d c6bd e5ab b63c 04d6 3e3d
000003b0: 255a 983d 6e39 d13d 6f93 403d bd8d 083e
000003c0: 1caa efbd d7b5 f2bd 0cc1 063e 60ba 543d
000003d0: 9d72 583d 148e f3bd 29da 7d3c e13a 5e3d
000003e0: ffb7 07bd 1c2d 2dbe 48fa 8e3d ae3e f2bd
000003f0: a6db 963d 6adb a5bd 8b67 8ebd 52c1 b43d
-0.01528015 0.07449417 0.07696333 0.0711016 0.034673654 0.022892071 0.037944566 0.042156544
0.11809316 -0.11675296 0.10607993 0.085915744 0.098005354 0.08099351 -0.11660581 -0.050981313
0.05612844 -0.08166729 -0.11488968 0.021698223 -0.11544646 -0.15358843 0.06487016 -0.10458652
-0.14727654 0.039359692 0.08248738 0.12456312 -0.05303258 0.059250925 0.090350375 -0.032482017
0.0823584 0.07987356 0.08851749 -0.0740827 0.02624584 0.12612076 -0.12670149 -0.10337995
0.115689576 0.14022174 -0.026739638 -0.15523991 -0.06158978 0.14710696 -0.022768408 -0.080845706
-0.0147202 -0.03684132 0.08237153 0.06536558 -0.034470763 -0.07903991 0.11797503 0.00094867114
-0.02670196 -0.067182176 -0.056370307 -0.1362799 0.020899145 -0.0608027 -0.019495357 -0.13198611
-0.040217295 -0.1093214 -0.100928985 0.14762078 0.021529837 0.1532195 -0.1015821 -0.038737155
0.08288222 0.053738963 0.07210725 -0.10390341 -0.010485818 -0.051864978 0.028094955 -0.059382197
-0.15536474 -0.084420495 0.12219159 -0.010287474 0.016995544 -0.024914566 0.059730567 -0.03728277
-0.05857171 -0.16228417 -0.046317928 -0.05230446 -0.1326776 0.0005561109 -0.09964107 -0.081612855
-0.0811766 0.069568865 -0.04107059 0.098354526 0.075935595 0.0978301 -0.07598172 -0.13511476
-0.058665574 0.05524348 0.12072181 -0.123015784 -0.08029875 -0.044195347 0.09921923 -0.09107232
-0.055381056 -0.06854311 -0.08838463 0.0032791968 -0.012033913 -0.09139555 -0.031339012 0.0232766
0.025974352 -0.10916374 0.12799634 -0.008506658 -0.107411176 0.06311768 0.105328985 -0.03292988
0.13695455 -0.042472728 -0.0037414883 -0.00082289765 -0.08059311 0.02596181 0.02420143 0.020054929
0.016565364 -0.14175457 0.068453655 0.053974997 0.0077316617 0.036052044 0.09186853 -0.05806508
0.10466194 -0.02926832 -0.0030448562 0.038646873 0.13695595 0.0854785 -0.06732302 -0.009758754
0.055593036 0.05371143 0.17656414 -0.16894345 -0.0037457647 0.032779507 0.07712989 0.013055817
-0.1101656 0.056680754 -0.09968524 0.023061495 0.028633883 -0.08661507 0.050441347 0.11094217
-0.10677515 0.09506169 -0.017109856 0.16417712 -0.0051785526 -0.018404985 -0.08627936 0.022000788
0.06878561 0.115604825 -0.10269722 -0.029460162 -0.14313892 -0.15389557 0.071854725 0.06860377
0.04087601 0.061453585 -0.060398754 -0.040506747 0.0310707 0.093334466 0.03725078 -0.13764578
-0.0270354 0.040088624 -0.031208806 0.018989587 -0.12204012 -0.18017386 -0.0030243767 -0.0057398737
-0.009170442 0.13716073 0.040771294 -0.030322494 -0.013489256 -0.04332115 0.02463028 0.018544396
0.024268644 -0.07787095 0.12715378 -0.029193478 0.04756159 0.012324309 -0.028655842 0.026625223
0.07307877 0.010289447 -0.014069975 -0.09019875 0.056815587 -0.13843532 -0.07347982 -0.16463424
-0.06736312 -0.10999268 0.07519741 -0.014105476 6.8741996e-05 0.15630113 0.0057207183 0.084765635
0.037664823 -0.09670602 0.022298763 0.04659082 0.07439069 0.10216032 0.047015604 0.13335319
-0.11702368 -0.118510894 0.13159579 0.051935554 0.05284368 -0.118923336 0.015493908 0.05425537
-0.033134457 -0.16911739 0.06981331 -0.118283615 0.07366113 -0.080984905 -0.06953343 0.088259354

conv2.bias f4 [24]
00000000: 03be efbc 8a16 503d 19b8 55bd f265 29bd
00000010: 9749 4fbd b66d 87bd ea45 d13c 8608 82bd
00000020: 2854 05bc 28f9 b7bd 6832 b7bc 792c ea3b
00000030: 336b 41bd d88c 9abd 216b 133d 1bb9 c53d
00000040: 89e5 84bd 1eef c03d 89c4 8a3d e969 9cbd
00000050: c240 b2ba 8f94 14bd 11f0 54bd 5392 6f3d
-0.02926541 0.050802745 -0.052177522 -0.04135699 -0.05060729 -0.066127226 0.025546033 -0.06349282
-0.00813774 -0.0898307 -0.022362903 0.007146415 -0.047221374 -0.07546395 0.035990838 0.09654447
-0.06489093 0.09420608 0.06775767 -0.07637388 -0.0013599622 -0.03627449 -0.051986758 0.058489155

fc1.weight f4 [128, 384]
00000000: e7c9 f83c ad69 d23b e41f a13c 9ff0 a6bc
00000010: a7ce b1bc 6af5 013d 6e18 02bd 4b37 c73c
00000020: ed65 153d 2103 ddbc 6695 aebc f9e3 a33c
00000030: f0dd 4a3d 1472 2cbd b519 1fb9 ab82 48bc
00000040: 0ccc c8bc 2852 17bd e7ea 66bd 1b21 2d3c
00000050: 63cc 94bc 9e95 3e3c 4c0a 033d 16ca fabb
00000060: 5893 5bbc fd3a 07bd d43a 9e3c ed1f 09bd
00000070: f2eb 9ebc b2fc 28bb 0b92 aa3c d409 4dbd
00000080: 110a 87bd 83a8 3abd da48 2abd 7ad9 59bc
00000090: 40d0 463d f98e 2dbd 6f2c 1fbd 86a6 17bd
000000a0: 385c c43b 3b41 c9bb ecf1 a5bc b3cb aabc
000000b0: 9809 ff3c 0b27 c8bc b7b8 b93c 06f6 08bc
000000c0: 226a aabc f81e 71bc 6f49 b73c f8e7 ec3b
000000d0: 0a5a 3fbb 7883 aabc ff1e 013d 1a79 813c
000000e0: 57ad 9d3c 8f9e 0a3d 5326 5ebc 1640 15bd
000000f0: 986b 15bd f74b f3bc e86f 06bd 27e4 54bd
00000100: f654 9dbc 4dd8 86bc add8 11bd 6568 fbbc
00000110: 6124 f4bc 7e8f 973b 3e6f b83c 3531 59bb
00000120: 842f 1f3d fb28 08bd 91da 20bd ace5 973c
00000130: c61e ffb9 f684 80bb 88fd 333d 5f5c 333c
00000140: 80e2 a73a acdf c13c c7b9 f9bc 0168 07bd
00000150: a629 63bc 5451 e0bc 6a3c 1ebd 1817 d2bb
00000160: 983b 463c a801 8e3b f3a3 293c d444 fd3c
00000170: 0a4a c93c 9cc4 7dbc 63d7 dc3c 5504 82bc
00000180: 2374 c3bc 8a94 e33c 01d5 01bd 949f 333c
00000190: 10fe 53bc aee8 113d dc74 84bc 5745 c03c
000001a0: 2159 b83c ddc5 23bd 6b26 de3c 1e6d 55bd
000001b0: e1d6 573c d235 e93b 379f 9e3c 4e52 c7bc
000001c0: 2842 7c3c 98f8 35bd 38bf 5ebd 1d81 efba
000001d0: 8943 b13b e833 9e3c 8804 96bc 3268 bbbb
000001e0: efa5 553c 3e74 903c 1a66 4abd d52e 9ebc
000001f0: cc48 02bd 84a3 233d 1225 a33a f541 7dbc
00000200: 82c6 9fbc dcb5 85bc 5270 fbb7 2095 7b3c
00000210: 32c4 a0bc 34b9 343c 9b91 82bc b7dd 2e3c
00000220: a9d3 4f3c df22 62bc 68cf 2abd b260 10bd
00000230: 2133 293c 089c 0abd 0e66 183d 0e92 4c3d
00000240: f892 4b3d e78c 86bc 6ac2 31bd 857f 0fba
00000250: 5378 0839 4cd1 a73c df90 cdbb 7e7f 84bc
00000260: c0d5 d1bc b32d 333d 00ff 44bc d31f 07bd
00000270: 3eaf 6ebc 4ba1 a23c f237 3dbd 628b 1a3d
00000280: d465 52bc 136c d7bc e499 0dbd 4e81 4cbd
00000290: 1bf9 053c 736a 383b 4538 21bd 0d4f afbc
000002a0: d6e7 d53c b300 9b3c 18a4 aabc 727e 1c3d
000002b0: d8c8 ef3b d4fc 50bd b0ab 00bd 529c 3ebb
000002c0: 24f1 32bc 0e09 84bc 3f05 e93c 7ed9 2f3d
000002d0: 0f23 323d 1d83 283b dc2d dbbc 7fee 9b3c
000002e0: 55d3 db3c 1b54 bbbc 35e8 d0bc 0237 b83c
000002f0: 10c7 61bc a17f db3c 86d3 163d f072 af3c
00000300: 6070 f83a bbdb 9cbc 677a 2cbd 55e9 b63c
00000310: f49a e7bc 5da9 a23c 8ae4 acbc 7d01 32bc
00000320: 4dfb af3b d08b 3ebd 5d52 28bd b50c 14bd
00000330: 80c8 3ebd 9232 753c e341 083c c6d1 febb
00000340: 124e 85bc 4179 053d c95a c53a 46e1 b7bc
00000350: 3d1d 983c d737 15bd 782c 253d 5743 65bd
00000360: d9df 07bc 8978 13bd 11bd 6ebd 9aee 7ebd
00000370: 78ce 1bbd 092d 243c 1716 a53c 8604 f73c
00000380: fa34 003d 5bda 9db8 f655 a3bc 0af3 2abc
00000390: 94f1 34bd c3ce 21bd ea09 bc3b 8357 aa3c
000003a0: 27ff c8ba e312 cebc e30f 2cbb 474c fabb
000003b0: 7d15 3dbd a870 f8bc 7beb 3abd d0e5 3b3d
000003c0: 8e11 b6bc 29bb bfbc 4b11 283c 55f4 c33c
000003d0: e894 ba3c 9907 153b 247b 9dbc 5873 efbc
000003e0: 3806 043d 15f4 13bd 669f 25bd 07c6 14bd
000003f0: ce62 cc3c 2828 43bc 9087 2e3c bce3 d1bc
0.030369712 0.006421289 0.019668527 -0.020378409 -0.021704985 0.031728186 -0.03176158 0.024318358
0.036474157 -0.026979031 -0.021311473 0.020006167 0.049528062 -0.04210098 -0.00015172998 -0.012238185
-0.02451136 -0.036943585 -0.056376364 0.010566975 -0.018163865 0.011632351 0.03199224 -0.007653485
-0.013401829 -0.03301524 0.01931516 -0.033477712 -0.019399617 -0.0025785384 0.020821592 -0.0500582
-0.06593717 -0.04557086 -0.041573383 -0.013296479 0.048538446 -0.042372677 -0.038860735 -0.037024044
0.0059924386 -0.0061418093 -0.020256959 -0.020849084 0.031132504 -0.02443268 0.022671087 -0.008359438
-0.020802561 -0.014716856 0.022373883 0.0072298013 -0.0029197955 -0.020814642 0.0315237 0.015804816
0.019247694 0.03384262 -0.013558942 -0.03643807 -0.036479563 -0.029699309 -0.032821566 -0.051975396
-0.019205552 -0.016460562 -0.03560703 -0.030689428 -0.029802503 0.00462526 0.022513982 -0.0033140902
0.038863674 -0.033242207 -0.03927094 0.018542133 -0.00048660318 -0.0039221 0.043942958 0.010947316
0.0012808591 0.023666225 -0.030484093 -0.03305817 -0.01386491 -0.02738253 -0.038631834 -0.0064114444
0.012099169 0.0043336935 0.01035403 0.030916609 0.024571437 -0.01548877 0.026958173 -0.015871206
-0.02385909 0.02778079 -0.031697277 0.010963339 -0.012938991 0.03562229 -0.016169004 0.023470564
0.022503437 -0.03998362 0.027117928 -0.052106015 0.01317379 0.0071170116 0.019363029 -0.024331238
0.015396632 -0.04442653 -0.05438158 -0.0018272732 0.005409662 0.01931186 -0.018312708 -0.005719208
0.01304005 0.017633554 -0.049413778 -0.01930944 -0.031807706 0.039950863 0.0012446961 -0.01545762
-0.019503836 -0.016322069 -2.9973835e-05 0.015355378 -0.019624803 0.011030484 -0.01593857 0.010672978
0.012684741 -0.013802259 -0.041701704 -0.035248466 0.0103271315 -0.03384021 0.037206702 0.049943976
0.049700707 -0.01642461 -0.0433983 -0.0005474019 0.00013014795 0.020485543 -0.0062733735 -0.016174074
-0.02561462 0.043744754 -0.012023687 -0.032989334 -0.014568148 0.019852301 -0.04619593 0.037730582
-0.0128416605 -0.026296651 -0.03457059 -0.049928002 0.008177067 0.002813962 -0.039360303 -0.021399999
0.026111525 0.018921232 -0.0208302 0.038206525 0.0073176436 -0.051022366 -0.031413734 -0.0029084873
-0.01092175 -0.016117599 0.028444884 0.042932026 0.043490466 0.0025712915 -0.026755266 0.019034622
0.02683417 -0.022867253 -0.02550135 0.022487167 -0.01378037 0.026794257 0.03682282 0.021417111
0.0018954389 -0.019147744 -0.04210892 0.022328058 -0.02827213 0.01985615 -0.02110507 -0.010864613
0.0053705336 -0.046520054 -0.041094173 -0.03614493 -0.04657793 0.01496567 0.00831649 -0.007776472
-0.016272578 0.03258634 0.0015056963 -0.022446286 0.01856863 -0.036430206 0.04032561 -0.055972423
-0.0082931155 -0.036003623 -0.058285777 -0.062239267 -0.0380387 0.010020503 0.020152135 0.030153524
0.031300522 -7.527015e-05 -0.01993845 -0.010433922 -0.0441757 -0.039503824 0.0057384865 0.020793682
-0.001533483 -0.02515549 -0.0026254586 -0.0076384875 -0.04616307 -0.030327156 -0.045634728 0.045873463
-0.022225168 -0.023404675 0.010258029 0.023920218 0.022776082 0.0022740124 -0.019223757 -0.029229805
0.032232493 -0.036121447 -0.040435217 -0.036321666 0.024949457 -0.011911429 0.010652438 -0.025621288

fc1.bias f4 [128]
00000000: 6fb6 57bd cf40 1d3d 5e16 4fbc 9bb0 a3bc
00000010: ecd6 763d 0e08 5dbd c0b3 0b3d d248 0dbd
00000020: b30f dfbc 7227 193d baec 1dbd 1292 633c
00000030: c0c5 79b9 5734 6d3d 8111 37bd 69cf fc3c
00000040: da38 db3c c790 2a3d 1f72 fb3c 4115 a33a
00000050: a41e b43d 5338 c0bc 9913 75bb f1e1 903d
00000060: 23c8 8c3d 44e3 b13c 740f 973c ff6f 3ebb
00000070: 6a18 a0bc 743e 3fbd 1932 503c 5da2 49bd
00000080: ee4d 863d 2454 8fb9 4a84 d23b ca18 19bc
00000090: a7fd bcbc 1347 993c ad79 15bd 3e90 b93d
000000a0: 5006 bf3d 74a7 a93c 3a10 713b 007d 42bd
000000b0: 9ed3 b2bc f9b1 60bc de53 703d f6a9 6dbd
000000c0: 5407 ba3d aa11 0d3b 8e99 4e3d 3573 18bd
000000d0: 83d0 6e3c 332c 813d 1958 573d 8740 e3bc
000000e0: 486d 08bc fc47 0abd 94e8 203d 09a0 aabc
000000f0: c257 123d 0b83 d3bc ac41 8dbc 891c 233d
00000100: bb6d 3ebd 97b2 30bd 187b 1cbb a5dd 51bb
00000110: 0616 893c e900 4a3c 45c7 a13d 014d 8b3d
00000120: 3389 8a3d 1c3e 6fbc 9734 5c3d 0fa6 183d
00000130: 9af8 813c 4e99 933d 6b80 c23c d47b 563d
00000140: 6a0f fa3c bb1c 5a3c d1c6 713d d7ea 87bc
00000150: 7add 333b da4e 383d 2142 68bd a1bb debb
00000160: b031 d5bc d3b3 46bd 4723 23bc bff8 d53a
00000170: a4fd 59bd e3bb 8d3d f4a5 8d3d 190c 51bb
00000180: eb99 f93c 66c1 84bc 1f12 43bd 80d8 583d
00000190: 86a6 783d 78eb 1ebd 6e1c 53bc d7a4 0e3d
000001a0: 05de 343d c645 ca3c 0911 203d 3e79 dbbb
000001b0: 1dcf e6bb 4e74 ad3c e98a 12bc c56d 303d
000001c0: ccfa d1bc 3b3f 26bc 8f5b ea3c fbeb ea3c
000001d0: 2e68 e2bc d332 f23c deb0 d9bc 167d 483d
000001e0: cff0 083d d319 153d 37ee 51bd 257c ccbc
000001f0: 63c1 76bd 5669 8ebc bc99 84bb 4fcd 38bd
-0.052664217 0.038391884 -0.01263961 -0.019981673 0.06026356 -0.05396276 0.03410697 -0.034493275
-0.027229166 0.037391134 -0.03855584 0.013889806 -0.00023820158 0.057911243 -0.044694427 0.03086062
0.026760507 0.041641977 0.030694066 0.0012442247 0.08794907 -0.023464357 -0.0037395714 0.07074345
0.068741105 0.021714814 0.018439986 -0.0029058454 -0.019542892 -0.04669042 0.012707257 -0.049227107
0.06557833 -0.00027337775 0.0064244615 -0.009344289 -0.02307017 0.018710649 -0.036492992 0.09060715
0.09327376 0.02070973 0.0036783353 -0.04748249 -0.021829423 -0.013714307 0.058673732 -0.058023416
0.09083429 0.0021525421 0.05043941 -0.037219245 0.01457608 0.063072585 0.05257425 -0.02774073
-0.008326836 -0.033760056 0.039284304 -0.020828264 0.035728224 -0.025819322 -0.017243229 0.039822135
-0.046491366 -0.043139067 -0.002387708 -0.003202298 0.016734134 0.012329319 0.07899336 0.06801797
0.0676445 -0.01460221 0.05376109 0.03726774 0.015865613 0.07206975 0.023742875 0.052364185
0.030524928 0.013312514 0.059027497 -0.016591473 0.0027445243 0.044997074 -0.05670369 -0.0067972695
-0.02602467 -0.048511337 -0.009957141 0.0016324742 -0.053220406 0.06920602 0.06916419 -0.003189808
0.030468902 -0.0162055 -0.047624703 0.052940845 0.060705684 -0.03879878 -0.012885196 0.034825172
0.044157047 0.024691474 0.039078746 -0.006697803 -0.007043733 0.021173622 -0.008944252 0.043073434
-0.025632285 -0.010146911 0.028608112 0.028676977 -0.027637567 0.02956525 -0.026573595 0.048947416
0.033432778 0.03640158 -0.05125257 -0.02496154 -0.06024302 -0.017384212 -0.004046647 -0.045117673

fc2.weight f4 [2, 128]
00000000: 25a9 803d 3480 a7bd ac2c 393c 6da0 a4bd
00000010: 73b2 8abd 6367 2abd 9440 e13c 0c61 5e3c
00000020: b639 833b 61ab 613d 8704 9ebd 5a7f b2bd
00000030: d33f 783d 8284 c5bd ee35 2bba a376 95bd
00000040: c470 27bb 411f b0bb 88ea 793d 72e8 9cbd
00000050: 091d 47bc 6d01 8f3d f5ef ac3d 39f6 91bd
00000060: 67ea bbbd 1746 b13d 1425 853c 239f 19bd
00000070: b623 84bd 84be 163c 6c13 8e3c 5b0e 9d3c
00000080: 7916 3dbd 51a8 6e3d f102 f4bc 14a1 d83c
00000090: 928a 2d3c bf7d 923d a774 2b3d f472 9cbd
000000a0: d1f8 e2bd b0e5 2c3d 1156 86bc 58a8 6e3c
000000b0: 9975 01bd 3bbe 80bd 5dd1 a3bd 750c 44bb
000000c0: ad19 90bd 2b35 093d 85db ca3d 6832 e63b
000000d0: 7bbe 69bc 6340 e5b9 cb95 27bd 11ed 7bbd
000000e0: 753e 60bb de5d 773d 9305 a3bd d686 253d
000000f0: 14f7 8abb 932d 013d 5ab4 1bbd 2d1f 47bd
00000100: 2021 923d b64a 293d acdf 783b c8c1 2c3d
00000110: ca23 e4bd b5c2 8a3d b326 91bd 6b94 da3c
00000120: c06b 9ebd c3bb 36bc 9f88 d4bd e6b1 07bd
00000130: af32 da3d 9e49 9dbd 5646 d2bc b159 84bd
00000140: e4c5 ddbc 8b96 553d 68f3 b8bd 0590 2abd
00000150: 891c 7fbd aee2 a3bd 5069 3f3d 3935 bcbc
00000160: 82ed ff3c 8cb0 093d f2a7 903d fcc2 283d
00000170: 7b11 2cbd b4c1 c1bd 57bf 5ebc e572 693d
00000180: 31a4 943d 7f11 16bd e020 6a3d 1e0e adbd
00000190: 674e a4bd 3cc1 8abd b879 a4bc 9622 8fbd
000001a0: 3bf2 a0bd b7ab 0a3d 6800 8dbd fed9 a7bc
000001b0: fba6 783d 427d 19bd 8bea b43c bd24 483c
000001c0: e3c5 7b3d 86c6 5aba 1fb4 b43d 0346 91bd
000001d0: ff23 423d 6bb0 6f3d 756c 93bd c037 b43d
000001e0: 9533 7ebc 7c98 96bd a81f 083d ccad 68bd
000001f0: c944 8b3d bb5c 8d3c ceec e13b 3cbc 22bd
00000200: 281b 053d 7515 dcbc 1ef9 26bc e66b 85bd
00000210: 3fa8 aabd 2cbf 573d 786e fe3c 2bab 193c
00000220: 0efb 16bd f1c8 813c 8dbc a63d ed95 14bd
00000230: e596 163d e89a 1dbd 57b5 d9bc 49aa 23bd
00000240: 3c40 93bc 2b2e 2fbd d772 993d 9d0a 453d
00000250: 4bd6 02bd 613d 0f3c 75ad 863c 653b 0b3d
00000260: 2157 4e3b 18d2 a73d f4bd b3bc 5aa5 ef3c
00000270: da04 b1bd dec0 8cbc b1b2 603d b235 37bd
00000280: affe 0abb 4c8f ae3d afe6 743d 97e5 113d
00000290: 081e 76bd 430d 9fbd f5b8 29bd d629 dabd
000002a0: 175a cb3c 1724 e4bc d6c0 593d f3de f7bc
000002b0: aac4 873d a06e dbbc 8ac6 453d d6ea 21bd
000002c0: d4f9 cdbd 862a 463d abab 953d 4a1c 413d
000002d0: e1a8 96bd cfe5 8f3d f3f2 d0bc f551 9f3d
000002e0: c50e c93c 41ef 013d 3eac 43bd 5d7a 60bd
000002f0: c8f1 a83d fdf6 333d ee7d 393d bf9f 1bbd
00000300: 28f8 9ebd c6a3 3c3d 8f47 9f3c 8e5e 31bd
00000310: 0548 64bd bb48 a23d 5256 aabb 02d9 73bd
00000320: 5ebd 18bd 3f3c 973d 66f5 513d d10a b33d
00000330: 8115 49bd d79d 783c 7306 563d 6a78 cdbb
00000340: 70f3 58bd dd6a da3c c98d 45bd b49a 773d
00000350: fc68 c93d 3411 0b3d f370 a23a 0977 6b3d
00000360: 1280 7cbc 6ef6 e0bc 8288 013d 8436 293c
00000370: 1744 d5bc e34b 65bd e96d d3bc 050f 81bd
00000380: 15d1 8abd 4d63 333c 8947 313d 6ffe 873c
00000390: d2fb dfbb 7f97 d53c 7175 a83d d1e5 cf3c
000003a0: ef9c fdbc ebec 793c 1419 9ebd f3f5 933d
000003b0: cb94 ae3d 0cab bcbc e449 32bd 701d 63bd
000003c0: c08a 003c 3ab8 f0bc e1fc 28bd 8630 b73b
000003d0: 7816 97bd 3625 dfbc 6da4 92bc 1819 713d
000003e0: 6faa b43d 656c 003d 9ad9 75bd bfcd 3c3d
000003f0: 1bda 913d c344 003c a3d0 523b 97d4 053d
0.06282262 -0.0817875 0.0113021545 -0.08038411 -0.06772318 -0.041602504 0.027496614 0.013572942
0.0040046824 0.05509508 -0.07715707 -0.08715697 0.060607743 -0.096444145 -0.00065311685 -0.07298019
-0.0025549391 -0.0053748195 0.061014682 -0.07661523 -0.012152919 0.06982694 0.08444206 -0.07127041
-0.09175568 0.08655947 0.016253032 -0.03750528 -0.06452124 0.009200696 0.017343245 0.019171884
-0.04616401 0.058265988 -0.029786559 0.026443996 0.01059212 0.071528904 0.041859295 -0.07639113
-0.11082614 0.042211235 -0.016398462 0.014566503 -0.03160629 -0.062862836 -0.07998917 -0.0029914652
-0.07036147 0.03349797 0.09905151 0.007025052 -0.0142666055 -0.00043726256 -0.040914338 -0.06150538
-0.0034216915 0.060392253 -0.079600476 0.040411793 -0.00424088 0.031537604 -0.038013794 -0.048613716
0.07135224 0.041331016 0.0037975116 0.04217699 -0.11139639 0.06775419 -0.070874594 0.0266821
-0.077353954 -0.011153164 -0.10377621 -0.03312864 0.106541984 -0.07680057 -0.025668304 -0.0646242
-0.0270719 0.052145522 -0.09030801 -0.041641254 -0.062283073 -0.0800222 0.046731293 -0.022974597
0.031241182 0.033615634 0.07063283 0.041201577 -0.04200886 -0.09460774 -0.013595424 0.056994338
0.072578795 -0.03663778 0.05716026 -0.08449958 -0.080227666 -0.06775138 -0.020077571 -0.069890186
-0.07858702 0.033855166 -0.06884843 -0.020489689 0.06070612 -0.03747297 0.022084495 0.01221579
0.061468016 -0.00083456223 0.08823418 -0.07093432 0.04739761 0.058517855 -0.07198421 0.08799696
-0.015515228 -0.07353303 0.033233315 -0.05680637 0.06800229 0.017256131 0.0068946844 -0.039730296
0.0324966 -0.0268657 -0.01019123 -0.065147206 -0.08332872 0.05267255 0.031058535 0.0093791885
-0.03686052 0.015842887 0.08141432 -0.036275793 0.036764998 -0.03847781 -0.026575727 -0.03995732
-0.017974965 -0.04276864 0.07492607 0.048105825 -0.031942647 0.008742661 0.016440133 0.03399219
0.0031485038 0.08194369 -0.021941163 0.02925365 -0.086435035 -0.01718181 0.054857913 -0.044728942
-0.0021208932 0.085234255 0.05979031 0.035619345 -0.060087234 -0.07766201 -0.041436154 -0.10652511
0.024823232 -0.02784924 0.05316242 -0.030257678 0.066293076 -0.026786149 0.048285045 -0.039530598
-0.100574166 0.048380397 0.07308134 0.04714612 -0.0735643 0.070262544 -0.025506472 0.07779304
0.024543175 0.03172231 -0.047771685 -0.054804195 0.08249241 0.04393672 0.04528611 -0.037994143
-0.07762176 0.046054624 0.019443301 -0.043303065 -0.055732746 0.079240285 -0.0051982785 -0.059533127
-0.03728997 0.07384538 0.05125942 0.087422974 -0.049092773 0.015174351 0.052252244 -0.006270458
-0.052966535 0.026662285 -0.04823092 0.06045027 0.09834477 0.033951953 0.0012393281 0.057486568
-0.015411394 -0.027461257 0.031624325 0.010327939 -0.026033444 -0.055980574 -0.025809245 -0.06301693
-0.067781605 0.010948968 0.043281112 0.016600816 -0.0068354392 0.026073216 0.08225525 0.02537814
-0.03095862 0.01525424 -0.07719627 0.072246455 0.08524474 -0.02303078 -0.0435275 -0.055447996
0.007845581 -0.029384721 -0.04125679 0.0055905012 -0.073773324 -0.027239423 -0.01790067 0.058861822
0.0882157 0.031353373 -0.060021974 0.046094652 0.071216784 0.007828894 0.0032167814 0.032673445

fc2.bias f4 [2]
00000000: ff63 363c e1a8 70bd
0.011132239 -0.058754805

qnn.weight f4 [4]
00000000: 2124 243f 8119 2d3e 3216 763c a1f8 f33d
0.6411763 0.1690426 0.01501994 0.119126566

qnn._weights f4 [4]
00000000: 2124 243f 8119 2d3e 3216 763c a1f8 f33d
0.6411763 0.1690426 0.01501994 0.119126566
