models/classification/control/mnist/mnist_0v1_2qubits_r2.pt (torch, 207416 bytes, 10 tensors)

conv1.weight f4 [2, 1, 5, 5]
0.13433921 -0.000107046246 0.09940996 -0.053055644 0.17476235 -0.11766767 0.10658648 0.032736905
0.12726727 0.08235927 -0.04264116 0.031248234 0.07286335 0.18591027 0.0977649 0.111045174
0.046987284 -0.038779177 -0.021616613 0.17150249 -0.12544574 -0.12254062 -0.18726638 0.08108561
0.015410933 -0.06832219 0.0037847818 0.06526548 0.008187079 0.100513205 0.10562168 0.18944737
0.053041615 -0.030439552 0.04431953 -0.08274903 0.04630888 -0.13185251 -0.047869954 -0.18350065
0.094716415 -0.19820641 -0.0057383603 -0.19901668 -0.23741859 -0.08240678 -0.18311945 -0.16235372
0.07252599 -0.18496491
00000000: 3890 093e 047e e0b8 7397 cb3d e050 59bd
00000010: e7f4 323e bffb f0bd 034a da3d 2217 063d
00000020: 5a52 023e faab a83d 7fa8 2ebd 4cfc ff3c
00000030: 6139 953d 435f 3e3e f738 c83d a76b e33d
00000040: bd75 403d ead6 1ebd 5315 b1bc 599e 2f3e
00000050: d974 00be 94f6 fabd c2c2 3fbe 3610 a63d
00000060: 237e 7c3c 81ec 8bbd 1a0a 783b e8a9 853d
00000070: 1923 063c ded9 cd3d 2e50 d83d 7efe 413e
00000080: 2a42 593d 5e5c f9bc 6588 353d 5378 a9bd
00000090: 61ae 3d3d 5804 07be 4913 44bd 98e7 3bbe
000000a0: aefa c13d 9ff6 4abe db08 bcbb 07cb 4bbe
000000b0: dc1d 73be e3c4 a8bd aa83 3bbe 0e40 26be
000000c0: 8288 943d 7167 3dbe

conv1.bias f4 [2]
-0.13534454 0.12847506
00000000: c297 0abe f78e 033e

conv2.weight f4 [24, 2, 5, 5]
0.043209646 -0.06102117 0.10245297 0.042986095 0.08126412 -0.014048365 0.025346557 -0.00206278
0.07058084 0.09412338 0.105264835 0.014600689 0.08554101 -0.077917874 0.07479536 0.05791184
-0.13570292 0.09884144 0.060557958 0.123961106 0.015684938 -0.069881424 0.03973672 -0.12341082
0.054365046 -0.084503815 -0.116449386 0.04349986 -0.06210984 -0.1074963 0.051089942 0.10653992
0.07932906 0.12837952 -0.10609287 0.09631506 -0.054085318 0.03583321 -0.024676586 -0.13127522
0.017662477 -0.03862602 -0.04823063 -0.019984504 0.05971224 -0.07009719 -0.12156938 -0.026608704
-0.10458694 -0.01781768 -0.0927249 -0.06429058 -0.073730886 -0.08073281 -0.11174838 -0.058340047
-0.046630666 0.08719523 0.11256361 0.03429522 -0.11952104 -0.12276652 -0.13499904 -0.10042588
0.073217876 -0.11426955 -0.09200127 0.14032987 0.07854419 -0.090182655 0.074367315 -0.098502904
0.09633335 0.14502572 -0.099165075 0.1301947 -0.05668838 0.16129526 0.062476315 0.04456373
0.0006822601 -0.016891709 -0.052724555 0.13058618 -0.013720984 -0.11671741 0.1450649 -0.025765702
0.025775889 -0.11996848 0.07448205 -0.08071272 -0.010428968 0.015971025 -0.009025939 -0.116949685
0.034806605 -0.05235397 0.0653135 0.14424103 0.0028772114 0.08268028 -0.07345696 0.11681643
-0.0075353165 0.08726489 0.015176271 0.07262201 -0.05010236 -0.0051190075 -0.038984552 -0.0063696215
0.050165314 -0.046672 0.085224524 -0.1287782 0.093250476 0.044813737 0.10231703 -0.17185335
0.024921969 0.07236489 -0.12076938 0.10743159 -0.10866836 0.0771857 -0.10778861 0.10669156
-0.09852325 -0.093600795 0.11090668 -0.075461395 0.0039101173 -0.017998153 -0.12178639 -0.03655373
0.029382564 -0.10744883 0.033170093 0.09640034 0.08528786 -0.0030264745 -0.12270625 -0.04946945
0.06386492 0.02194006 -0.14587559 0.037009936 -0.053665332 0.054514434 -0.04437836 -0.04559153
0.045910947 -0.06882452 -0.06457291 -0.20271781 0.031575095 -0.123469785 -0.015177207 0.10152462
0.04487385 -0.04777647 0.003706534 0.08799674 -0.020235006 -0.10038965 0.021423956 -0.099184304
0.0074967816 -0.07771267 0.07968386 -0.025485484 -0.049078364 0.05647994 -0.08644304 0.13673525
0.04811779 0.09350008 -0.07775599 0.10136861 -0.13514245 0.11122407 -0.04242948 -0.07585557
-0.0073548323 0.019705566 -0.03832866 -0.04130565 0.13736644 0.07374142 -0.02628672 -0.12804602
0.12810561 -0.122771576 0.034936722 0.11009836 0.09901131 0.10976099 0.041642066 -0.03325846
0.09024468 -0.1553968 -0.06967564 -0.0058404156 0.010843206 -0.093817584 0.0073369723 -0.005805043
-0.047448568 0.026529383 -0.05978101 0.09084358 -0.021695241 -0.02139804 0.12101332 0.11505895
0.10637004 -0.07029382 -0.0056283167 0.029336598 -0.12599736 -0.14455731 0.116835766 -0.064126804
0.07711811 -0.024834603 -0.09966774 -0.00062610407 -0.11477477 0.041883867 0.12074161 0.03980935
0.048790444 0.037930273 0.041101053 0.032023896 -0.12175366 0.061685394 -0.079490475 0.027139336
-0.09050826 0.120376244 0.0037988792 -0.050316066 0.031054767 -0.030219138 -0.051149122 -0.025375072
0.10573032 0.003627178 0.13822663 0.10742989 -0.14938799 -0.13616088 0.00925746 -0.0588776
00000000: 99fc 303d 56f1 79bd ddd2 d13d 3012 303d
00000010: ce6d a63d 1d2b 66bc 95a3 cf3c b52f 07bb
00000020: b08c 903d c2c3 c03d 1795 d73d ba37 6f3c
00000030: 2030 af3d 6893 9fbd 4f2e 993d f734 6d3d
00000040: b5f5 0abe 626d ca3d 9f0b 783d 52df fd3d
00000050: b37d 803c fe1d 8fbd f9c2 223d d0be fcbd
00000060: e2ad 5e3d 5610 adbd 047d eebd e92c 323d
00000070: e366 7ebd 0527 dcbd b043 513d 9a31 da3d
00000080: 4677 a23d ec75 033e 3847 d9bd d540 c53d
00000090: 9188 5dbd d8c5 123d 8d26 cabc 036d 06be
000000a0: e6b0 903c 5136 1ebd 7b8d 45bd 8bb6 a3bc
000000b0: d294 743d 1e8f 8fbd 5ef9 f8bd 7ffa d9bc
000000c0: ad31 d6bd 62f6 91bc 8de6 bdbd c8aa 83bd
000000d0: 3800 97bd 3e57 a5bd 56dc e4bd f9f5 6ebd
000000e0: ccff 3ebd 6a93 b23d c087 e63d 2579 0c3d
000000f0: 72c7 f4bd 036d fbbd 303d 0abe 15ac cdbd
00000100: 41f3 953d 2706 eabd 296b bcbd a2b2 0f3e
00000110: c7db a03d afb1 b8bd e44d 983d e4bb c9bd
00000120: 6b4a c53d 9f81 143e 0f17 cbbd c251 053e
00000130: 1332 68bd 962a 253e 2ae7 7f3d 7588 363d
00000140: b3d9 323a 7b60 8abc b4f5 57bd 62b8 053e
00000150: facd 60bc 8a09 efbd e58b 143e 9812 d3bc
00000160: f527 d33c 09b2 f5bd 0c8a 983d b64c a5bd
00000170: 43de 2abc abd5 823c 88e1 13bc 5183 efbd
00000180: 5f91 0e3d 1e71 56bd 16c3 853d ecb3 133e
00000190: 998f 3c3b 4754 a93d 9a70 96bd 743d ef3d
000001a0: d1ea f6bb efb7 b23d e5a5 783c d9ba 943d
000001b0: 2238 4dbd 59bd a7bb 44ae 1fbd 42b8 d0bb
000001c0: 257a 4d3d 242b 3fbd 328a ae3d 6fde 03be
000001d0: 1bfa be3d 9c8e 373d 978b d13d 53fa 2fbe
000001e0: 2829 cc3c 0b34 943d f055 f7bd 1805 dc3d
000001f0: 848d debd 8913 9e3d 46c0 dcbd 1b81 da3d
00000200: 8fc6 c9bd c6b1 bfbd 0b23 e33d 818b 9abd
00000210: 7120 803b dd70 93bc 256b f9bd 5db9 15bd
00000220: b4b3 f03c 220e dcbd 5ddd 073d 8b6d c53d
00000230: 67ab ae3d d157 46bb 6a4d fbbd 7aa0 4abd
00000240: 9ccb 823d a4bb b33c 6960 15be bb97 173d
00000250: 2ed0 5bbd 874a 5f3d 15c6 35bd 2fbe 3abd
00000260: 1e0d 3c3d dff3 8cbd cd3e 84bd 4295 4fbe
00000270: e354 013d badd fcbd d2a9 78bc 24ec cf3d
00000280: a4cd 373d 43b1 43bd 52e9 723b a337 b43d
00000290: e2c3 a5bc 1799 cdbd 4b81 af3c 2421 cbbd
000002a0: 90a7 f53b d227 9fbd 4b31 a33d efc6 d0bc
000002b0: 6506 49bd 8257 673d 0c09 b1bd 5304 0c3e
000002c0: 2917 453d f87c bf3d 883e 9fbd 599a cf3d
000002d0: c862 0abe 72c9 e33d 89ca 2dbd 2a5a 9bbd
000002e0: ce00 f1bb 916d a13c 83fe 1cbd 1d30 29bd
000002f0: caa9 0c3e be05 973d 3f57 d7bc 7f1e 03be
00000300: 1e2e 033e aa6f fbbd cf19 0f3d 407b e13d
00000310: 71c6 ca3d 5fca e03d df90 2a3d 063a 08bd
00000320: 34d2 b83d 5720 1fbe 1ab2 8ebd f560 bfbb
00000330: b4a7 313c 6f23 c0bd fc6a f03b 3b38 bebb
00000340: 6e59 42bd 2654 d93c efdc 74bd 330c ba3d
00000350: 38ba b1bc f14a afbc d5d5 f73d 07a4 eb3d
00000360: 89d8 d93d 35f6 8fbd be6d b8bb 4e53 f03c
00000370: 7405 01be d506 14be 9747 ef3d ea54 83bd
00000380: 1af0 9d3d f071 cbbc 9a1e ccbd 2221 24ba
00000390: 090f ebbd 6b8e 2b3d 6147 f73d 210f 233d
000003a0: 7dd8 473d c65c 1b3d 9459 283d 7d2b 033d
000003b0: fc59 f9bd d3a9 7c3d e7cb a2bd 5053 de3c
000003c0: 655c b9bd d287 f63d 9ef6 783b 3818 4ebd
000003d0: 9166 fe3c 208e f7bc be81 51bd 62df cfbc
000003e0: 2389 d83d f3b5 6d3b 488b 0d3e 3404 dc3d
000003f0: 2af9 18be c26d 0bbe 9aac 173c a329 71bd

conv2.bias f4 [24]
-0.13843814 -0.05042556 0.0005583005 0.10219556 -0.023432609 0.014230379 0.027110994 -0.017342431
-0.14725277 -0.040695854 -0.05945324 0.062080998 0.0788388 0.07025096 -0.116756275 -0.088651516
-0.08253255 -0.06884482 -0.12752831 -0.08972539 -0.023256617 -0.027915508 -0.045741983 0.14345711
00000000: bac2 0dbe 088b 4ebd ea5a 123a e84b d13d
00000010: bef5 bfbc 8926 693c e017 de3c b711 8ebc
00000020: 6ec9 16be b2b0 26bd 3e85 73bd a548 7e3d
00000030: 3d76 a13d bcdf 8f3d ea1d efbd ed8e b5bd
00000040: d306 a9bd 83fe 8cbd c896 02be f2c1 b7bd
00000050: a984 bebc 10af e4bc f25b 3bbd 6ce6 123e

fc1.weight f4 [128, 384]
-0.040969066 -0.030829772 -0.016775608 0.03614889 -0.009451132 -0.032489665 -0.038598582 -0.046069857
0.06451704 -0.016191212 0.026807304 -0.022832159 0.017971884 0.009621834 -0.00066410966 -0.02843206
-0.025230717 -0.052015733 0.00397488 -0.031314828 -0.02880866 -0.054780915 -0.03762463 0.023560325
-0.04209768 -0.041030783 -0.016845861 0.04491292 -0.060140133 -0.019014334 -0.011445671 -0.06472741
0.013194065 0.05299997 0.020161787 -0.034464013 -0.03052462 -0.02974757 -0.037351083 -0.04162126
0.016587853 0.022730563 -0.007956931 -0.022494875 0.0027253851 0.01114608 -0.027449146 0.0074624005
0.04099739 -0.03166056 0.02098679 0.016693419 0.020226395 0.02476018 -0.028256636 -0.005457507
0.057618886 -0.03305696 0.018542062 -0.002935154 -0.0058718375 0.04507977 -0.035404216 0.0455226
-0.042800143 -0.002607233 -0.028376535 -0.03543961 0.002922672 -0.03551364 -0.019329185 -0.01102777
-0.071893536 -0.049340785 0.0013899886 0.0036499815 -0.07134861 -0.01598757 -0.018052153 -0.0074502695
0.027552644 0.030003717 -0.033768214 0.0013162148 0.04394081 -0.032198723 0.016788565 0.039606057
0.018716346 -0.05642464 0.03318217 -0.013729908 -0.014464234 0.022645263 0.033893548 0.041151892
0.032339487 0.016456952 0.047079127 -0.011991236 -0.045056652 0.058770835 0.060184944 -0.044134963
0.015558331 -0.057047524 -0.02921926 -0.01397826 -0.007150993 -0.05539287 0.025953531 -1.28014e-05
-0.031071905 0.027348826 -0.019286871 0.016322399 0.0011026165 -0.039382577 -0.052930873 0.035613522
-0.062219195 0.011649898 -0.011261603 0.019397754 -0.06285171 -0.030723412 0.052333336 -0.035972543
-0.028141418 -0.0016429943 0.013067241 -0.03832045 0.02261143 0.00091895944 0.02826604 0.025316112
-0.058982383 0.019964626 -0.014934053 0.026997028 0.006318214 -0.050072327 0.031346757 -0.0440692
-0.0076225926 0.012807135 -0.01021272 -0.034865294 -0.038121644 -0.03844985 0.037404776 0.007715508
0.0049254345 0.0075451816 -0.025077946 0.022613341 -0.030603042 0.0021254658 -0.020594928 -0.012905657
-0.055439807 -0.058573343 0.026028346 0.0068365606 -0.002089757 -0.021182846 -0.025370913 0.022044454
0.022405129 0.015838528 -0.012106948 0.007551035 0.030530326 -0.031554103 -0.018174244 0.00698346
-0.020909939 0.025693433 0.019733487 -0.020613654 0.006306365 0.0014729645 0.030513592 0.00056644273
0.03715202 -0.010177445 0.041290596 0.008801257 -0.04802004 0.015917027 -0.030498452 0.014931884
-0.04239758 0.021906504 -0.0045906357 0.004356482 -0.020320937 0.0064246138 -0.044902347 -0.026548518
0.019151442 -0.019919578 0.019204779 0.015939169 -0.049050964 0.052222516 -0.052531257 -0.022898795
0.00451771 -0.061120167 -0.009593058 -0.052847944 -0.0262278 -0.0070667802 -0.035756644 -0.049816247
-0.04780578 -0.008568281 -0.05264923 -0.017549844 -1.6511389e-05 0.0035284185 -0.07833079 -0.01738805
0.00889208 0.004643355 -0.032221578 -0.020741878 0.00065637176 -0.027616482 -0.018068498 -0.041223995
0.0192564 -0.00287778 -0.05456558 -0.0027187134 -0.0129624 0.0018163999 0.0432833 -0.023317344
0.045822043 0.029050058 -0.020509608 0.025218746 0.022258667 -0.013560237 -0.042587347 0.014918179
0.05849407 -0.053085122 -0.04063546 0.023143947 -0.011828817 0.015968911 -0.0104902005 0.007063942
00000000: 2ecf 27bd b88e fcbc 006d 89bc dc10 143d
00000010: ecd8 1abc e213 05bd 8c19 1ebd bfb3 3cbd
00000020: 8321 843d 6fa3 84bc fe9a db3c 820a bbbc
00000030: c639 933c e6a4 1d3c a517 2eba 5aea e8bc
00000040: a6b0 cebc 730e 55bd b63f 823b fa43 00bd
00000050: 2400 ecbc f461 60bd 491c 1abd 9501 c13c
00000060: 9e6e 2cbd e50f 28bd 5500 8abc 9cf6 373d
00000070: 8055 76bd f3c3 9bbc a086 3bbc ce8f 84bd
00000080: eb2b 583c 7f16 593d 552a a53c 232a 0dbd
00000090: c50e fabc 2db1 f3bc 73fd 18bd 0e7b 2abd
000000a0: 40e3 873c 7235 ba3c ca5d 02bc 2c47 b8bc
000000b0: 609c 323b 0c9e 363c 08dd e0bc 2787 f43b
000000c0: e1ec 273d 81ae 01bd 7dec ab3c a3c0 883c
000000d0: d3b1 a53c dcd5 ca3c 767a e7bc e3d4 b2bb
000000e0: c801 6c3d bc66 07bd 86e5 973c b65b 40bb
000000f0: 8b68 c0bb 91a5 383d 0304 11bd e875 3a3d
00000100: 344f 2fbd 1cde 2abb e875 e8bc 2029 11bd
00000110: 4d8a 3f3b c076 11bd 3d58 9ebc d2ad 34bc
00000120: eb3c 93bd 9019 4abd 4730 b63a 8734 6f3b
00000130: 381f 92bd 5df8 82bc 1ce2 93bc 6421 f4bb
00000140: 15b6 e13c 5bca f53c 8a50 0abd d784 ac3a
00000150: 47fb 333d cfe2 03bd 2c88 893c f639 223d
00000160: 0653 993c 861d 67bd 07ea 073d 68f3 60bc
00000170: 65fb 6cbc 8f82 b93c f6d3 0a3d e38e 283d
00000180: 6976 043d bbd0 863c 0bd6 403d e476 44bc
00000190: 538d 38bd b0b9 703d 7d84 763d ddc6 34bd
000001a0: 5fe8 7e3c aaaa 69bd 3b5d efbc 1205 65bc
000001b0: e152 eabb a2e3 62bd 809c d43c 98c5 56b7
000001c0: 828a febc a50a e03c 80ff 9dbc 8db6 853c
000001d0: ac85 903a a04f 21bd 0bce 58bd 7cdf 113d
000001e0: 8ed9 7ebd 37df 3e3c 9682 38bc 0ae8 9e3c
000001f0: 66b8 80bd aaaf fbbc 7b5b 563d f257 13bd
00000200: d588 e6bc be59 d7ba fb17 563c e7f5 1cbd
00000210: 9b3b b93c 53e6 703a 2f8e e73c bc63 cf3c
00000220: 8397 71bd db8c a33c f5ad 74bc df28 dd3c
00000230: 0509 cf3b a418 4dbd 7565 003d e881 34bd
00000240: f1c6 f9bb 04d5 513c 4153 27bc e9ce 0ebd
00000250: 7125 1cbd 977d 1dbd c035 193d 5fd2 fc3b
00000260: 8a65 a13b 923d f73b 4470 cdbc 9d3f b93c
00000270: 3bb3 fabc 664b 0b3b b2b6 a8bc 4072 53bc
00000280: da14 63bd 9aea 6fbd 6639 d53c 3a05 e03b
00000290: 4ef4 08bb a687 adbc a9d6 cfbc 9296 b43c
000002a0: f68a b73c cdbf 813c 385c 46bc ac6e f73b
000002b0: bc1a fa3c e03e 01bd 27e2 94bc 82d5 e43b
000002c0: 524b abbc 097b d23c 1fa8 a13c f7dd a8bc
000002d0: a0a5 ce3b 7d10 c13a a4f7 f93c 547d 143a
000002e0: b72c 183d 4cbf 26bc 5420 293d 2633 103c
000002f0: a9b0 44bd 6d64 823c e4d7 f9bc dca4 743c
00000300: 16a9 2dbd 4575 b33c 0b6d 96bb d2c0 8e3b
00000310: 1878 a6bc 9185 d23b 86eb 37bd 477c d9bc
00000320: 7ce3 9c3c 622e a3bc 5753 9d3c dc92 823c
00000330: aae9 48bd 47e7 553d 042b 57bd 4196 bbbc
00000340: 4c09 943b 2459 7abd 342c 1dbc 1677 58bd
00000350: afdb d6bc 7390 e7bb 8f75 12bd 1f0c 4cbd
00000360: fecf 43bd fa61 0cbc b8a6 57bd b1c4 8fbc
00000370: f081 8ab7 0a3d 673b e56b a0bd 6271 8ebc
00000380: 16b0 113c 4927 983b c6fa 03bd dfea a9bc
00000390: 5d10 2c3a f63b e2bc 6304 94bc 7eda 28bd
000003a0: 99bf 9d3c 2399 3cbb 2880 5fbd 712c 32bb
000003b0: 3f60 54bc 4414 ee3a d449 313d 0404 bfbc
000003c0: e5af 3b3d 63fa ed3c c403 a8bc 8b97 ce3c
000003d0: cf57 b63c c22b 5ebc 1270 2ebd 616b 743c
000003e0: 7a97 6f3d c96f 59bd 5e71 26bd 6098 bd3c
000003f0: a8cd 41bc 3cd1 823c 17df 2bbc a478 e73b

fc1.bias f4 [128]
0.020814963 0.0021286313 0.04461792 -0.032328133 0.035755023 -0.0076101995 0.0045248354 0.02576217
-0.048537172 -0.027875701 0.08202337 0.011100903 0.09291269 0.15477957 0.07693308 0.07213159
0.051656146 -0.033639606 0.12191258 0.050005652 0.05987165 0.14108497 0.07017203 -0.024324615
0.0074475217 0.098582305 -0.017118394 0.11075659 -0.008350261 0.087354794 0.023356909 -0.05100228
0.011937838 0.118044905 -0.026667492 -0.015547762 0.15245667 0.013314989 0.08162423 0.1402074
-0.014867809 0.06979971 0.0464047 0.11498026 0.05117997 0.04372836 0.14402647 0.0962446
-0.022809152 -0.0037562181 0.0866002 -0.020123187 0.022313645 0.20449358 0.055943247 -0.022303486
0.031090617 0.08909624 0.024286859 -0.01741615 0.028516589 -0.07332309 0.030476108 -0.027323136
-0.03127256 0.010925267 0.12694214 0.08349764 0.035670977 -0.047772657 0.07412367 -0.012945316
0.1571699 0.07595561 0.06633889 0.1055049 -0.0060959086 -0.011433003 0.009016573 0.0058190753
-0.048535135 0.101149715 -0.020503925 -0.009661868 0.15141837 0.06739228 0.13086276 -0.023740012
0.12204564 0.06184911 0.03259535 0.08090711 0.1403992 0.0030904817 -0.027932482 -0.038927175
0.005637522 0.10472273 -0.046075102 -0.00859252 0.04901927 0.025184285 0.049713023 0.026778
-0.037639383 0.11880201 0.10050869 0.06727135 0.17719857 0.1246884 -0.023556683 -0.006846647
0.026829014 -0.022128895 -0.022998212 0.013209576 0.097147375 0.2154926 -0.029184185 0.014325133
-0.029159622 0.039321713 0.11734721 -0.054959077 0.05671826 0.14659251 0.021397801 0.11215201
00000000: 2484 aa3c 8280 0b3b 48c1 363d 816a 04bd
00000010: dc73 123d fb5e f9bb 1245 943b 300b d33c
00000020: eace 46bd 955b e4bc defb a73d 90e0 353c
00000030: 0249 be3d 897e 1e3e 178f 9d3d bab9 933d
00000040: 6595 533d afc9 09bd 4ead f93d bad2 4c3d
00000050: fa3b 753d 9478 103e 5ab6 8f3d 6a44 c7bc
00000060: 570a f43b 85e5 c93d e03b 8cbc 5ad4 e23d
00000070: 88cf 08bc 12e7 b23d fd56 bf3c c4e7 50bd
00000080: ec96 433c 87c1 f13d c975 dabc 0abc 7ebc
00000090: 9a1d 1c3e 1d27 5a3c 9b2a a73d 8792 0f3e
000000a0: 1c98 73bc 26f3 8e3d db12 3e3d c57a eb3d
000000b0: 17a2 513d 821c 333d ad7b 133e e41b c53d
000000c0: 42da babc e22a 76bb 725b b13d 62d9 a4bc
000000d0: 1bcb b63c c466 513e bf24 653d cdb5 b6bc
000000e0: c0b1 fe3c 1778 b63d 3cf5 c63c 50ac 8ebc
000000f0: 9f9b e93c 6b2a 96bd 08a9 f93c c5d4 dfbc
00000100: a817 00bd e4ff 323c 1ffd 013e d000 ab3d
00000110: bb1b 123d 43ad 43bd 27ce 973d 9718 54bc
00000120: 25f1 203e 9d8e 9b3d afdc 873d f412 d83d
00000130: 30c0 c7bb 7d51 3bbc 40ba 133c f1ad be3b
00000140: c7cc 46bd 9527 cf3d d9f7 a7bc d04c 1ebc
00000150: 6b0d 1b3e f704 8a3d e300 063e 6a7a c2bc
00000160: 11f3 f93d 7e55 7d3d b482 053d a0b2 a53d
00000170: cfc4 0f3e ae89 4a3b a9d2 e4bc 1a72 1fbd
00000180: f6ba b83b df78 d63d 3fb9 3cbd a4c7 0cbc
00000190: 6ec8 483d 464f ce3c e29f 4b3d 895d db3c
000001a0: c12b 1abd 784e f33d 80d7 cd3d 90c5 893d
000001b0: 8b73 353e a25c ff3d f2f9 c0bc d659 e0bb
000001c0: 85c8 db3c a847 b5bc bf66 bcbc fa6c 583c
000001d0: 34f5 c63d 18aa 5c3e ac13 efbc f6b3 6a3c
000001e0: 29e0 eebc ce0f 213d bc53 f03d c51c 61bd
000001f0: 6851 683d 591c 163e 714a af3c f4af e53d

fc2.weight f4 [2, 128]
0.042456433 0.071301065 0.010969485 0.05994969 0.06587468 0.01741737 -0.025668168 -0.009670178
-0.012022479 -0.06147039 -0.08107936 -0.066490464 0.06221395 -0.08450646 -0.064729854 -0.038101844
-0.055042084 0.058390383 -0.0393195 -0.07918087 -0.092103586 -0.057412162 -0.038323175 -0.051280726
-0.036203634 0.067793965 0.0717258 -0.09789324 0.04674433 0.017161466 0.07285474 0.033588886
0.032684237 -0.052435435 0.074331656 0.031841516 -0.038188696 -0.04317904 -0.08491922 -0.08499929
-0.011833513 0.003268894 -0.046986118 -0.02530752 -0.05465489 0.056614395 -0.068802625 -0.06037428
-0.07894418 -0.043904297 -0.027841175 -0.008480716 -0.07524089 -0.08823644 -0.03458263 0.017707681
-0.020829601 0.06207029 -0.029915756 -0.018523837 -0.03076623 -0.025367247 0.0065970873 -0.035598576
0.03806228 0.04714972 -0.03854804 0.0045194896 -0.080575034 0.043904603 -0.06947483 0.030117061
-0.06852985 -0.05352727 -0.03063239 -0.05204821 0.058199823 -0.013215864 0.065313086 0.0071392935
0.010385757 -0.044333026 0.038695194 -0.012020556 -0.04466933 -0.09911057 -0.06901209 0.080687135
-0.018569423 -0.057764813 -0.021983242 -0.060114138 -0.05091661 0.0722887 0.04432343 0.060649868
-0.025326436 -0.00583036 -0.02934175 0.021129616 0.024325538 0.062345617 -0.05405526 0.007704468
0.029711677 -0.07022402 -0.044348992 0.03980276 -0.06772138 -0.07386419 0.03594012 0.0027460342
0.06445778 -0.049403004 0.04370203 -0.0434253 -0.005019977 -0.044650953 0.07057445 0.015805934
0.04009837 0.016171832 -0.03967582 0.05480949 0.041909613 -0.08587107 0.06282193 -0.026470272
0.029687263 -0.05704631 -0.043948438 0.065375105 0.030951552 0.04863114 0.057624917 -0.0621518
-0.067155555 -0.066504 0.083283946 -0.018454213 0.028696183 0.07993513 0.001132254 -0.094773084
-0.044880357 -0.06373482 0.07864784 -0.06523935 0.012892277 0.059245106 -0.08173179 -0.055258263
-0.035326526 0.10164202 -0.083761826 0.093314715 -0.026077153 0.067305006 0.01901584 0.04302202
0.05511498 0.075914025 -0.045664687 -0.026854338 0.029601073 0.018869108 0.0482301 0.071095966
-0.019573575 0.064321615 -0.020674165 0.1001399 -0.08723284 0.042756625 0.09733037 0.07103523
-0.02732628 -0.0745262 -0.044117987 0.07469427 -0.049335063 0.06696577 0.024178106 -0.09034716
0.06659115 0.074643314 -0.009055866 0.02110819 0.060564775 -0.049809456 -0.0016461485 0.046356678
-0.056258775 -0.07837432 0.048001047 0.045268405 0.026242692 0.05913346 -0.026714878 -0.022796117
0.045933377 -0.03031244 -0.0639769 0.0548598 0.010291644 -0.027079176 0.061025172 -0.0062825033
0.029244004 0.027850602 0.014879279 -0.089664325 0.030900683 0.0007241182 0.0659943 0.0047234134
0.026933877 0.03720752 -0.019957667 -0.05160119 0.10830045 -0.090762004 -0.037657384 0.013828771
-0.026432924 -0.08798507 0.022573149 -0.017429948 0.04232451 -0.039370093 -0.06865047 0.07207223
-0.0049460903 0.05720562 0.08503787 -0.112647094 0.062417187 0.07047569 0.08000871 0.003445793
-0.05978727 -0.0067730206 -0.06629328 -0.041033514 0.047934577 0.03071093 -0.061696965 0.02970431
-0.07911002 -0.052365918 0.10056198 -0.020580998 0.059530634 0.07847764 -0.061454263 0.05113201
00000000: cce6 2d3d 4b06 923d 5bb9 333c ce8d 753d
00000010: 4ee9 863d dfae 8e3c 0d46 d2bc ab6f 1ebc
00000020: eff9 44bc 60c8 7bbd ef0c a6bd 272c 88bd
00000030: 0ed4 7e3d b911 adbd 1691 84bd ae10 1cbd
00000040: cf73 61bd c12a 6f3d 7c0d 21bd 9429 a2bd
00000050: cea0 bcbd 0429 6bbd c3f8 1cbd bd0b 52bd
00000060: 434a 14bd 90d7 8a3d fae4 923d 407c c8bd
00000070: fc76 3f3d 3496 8c3c de34 953d 8094 093d
00000080: e8df 053d 8ac6 56bd 323b 983d 406c 023d
00000090: c06b 1cbd 81dc 30bd 21ea adbd 1c14 aebd
000000a0: 5ae1 41bc f13a 563b 8474 40bd b751 cfbc
000000b0: cedd 5fbd 7fe4 673d 64e8 8cbd 054b 77bd
000000c0: 7cad a1bd fed4 33bd 2d13 e4bc b3f2 0abc
000000d0: e517 9abd 4fb5 b4bd 84a6 0dbd b30f 913c
000000e0: d7a2 aabc 6b3d 7e3d e311 f5bc 4dbf 97bc
000000f0: 7609 fcbc f9ce cfbc 612c d83b d0cf 11bd
00000100: 31e7 1b3d 1120 413d 8de4 1dbd 3a18 943b
00000110: 8604 a5bd 50d5 333d d248 8ebd 0eb8 f63c
00000120: 6159 8cbd 693f 5bbd c7f0 fabc 8130 55bd
00000130: f062 6e3d 5a87 58bc dec2 853d bcf0 e93b
00000140: 0629 2a3c 8c96 35bd da7e 1e3d def1 44bc
00000150: 30f7 36bd 7cfa cabd 3656 8dbd 4c3f a53d
00000160: e71e 98bc cc9a 6cbd 3316 b4bc 3e3a 76bd
00000170: ef8d 50bd 190c 943d 7c8c 353d ff6b 783d
00000180: 6379 cfbc 9b0c bfbb 1c5e f0bc 0418 ad3c
00000190: 5a46 c73c 1e5e 7f3d 0c69 5dbd c375 fc3b
000001a0: e765 f33c 9cd1 8fbd 4aa7 35bd 3808 233d
000001b0: 82b1 8abd 1c46 97bd f335 133d cff6 333b
000001c0: 7102 843d ce5a 4abd e600 333d bade 31bd
000001d0: 9f7e a4bb ebe3 36bd 5689 903d 727b 813c
000001e0: 303e 243d ca7a 843c 1d83 22bd ea7f 603d
000001f0: 6aa9 2b3d 2cdd afbd c9a8 803d 2fd8 d8bc
00000200: b432 f33c 64a9 69bd 4703 34bd 62e3 853d
00000210: 1c8e fd3c 7231 473d 1b08 6c3d e392 7ebd
00000220: da88 89bd 4033 88bd c690 aa3d 4a2d 97bc
00000230: 4214 eb3c 08b5 a33d 2468 943a 6418 c2bd
00000240: 77d4 37bd 6787 82bd 1e12 a13d 359c 85bd
00000250: 213a 533c ffaa 723d ff62 a7bd 7d56 62bd
00000260: 8cb2 10bd b129 d03d 528b abbd c91b bf3d
00000270: c19f d5bc 35d7 893d 1bc7 9b3c dc37 303d
00000280: 3fc0 613d d078 9b3d e50a 3bbd a1fd dbbc
00000290: f37d f23c 6393 9a3c ed8c 453d c39a 913d
000002a0: c358 a0bc 0dbb 833d de5c a9bc 2616 cd3d
000002b0: 22a7 b2bd 9221 2f3d 2555 c73d eb7a 913d
000002c0: 5ddb dfbc 31a1 98bd 10b5 34bd 4ff9 983d
000002d0: 9013 4abd 5a25 893d 2a11 c63c ef07 b9bd
000002e0: f160 883d 98de 983d 0e5f 14bc 15eb ac3c
000002f0: c512 783d 0005 4cbd 94c3 d7ba 80e0 3d3d
00000300: 9a6f 66bd b782 a0bd bf9c 443d 5d6b 393d
00000310: eafa d63c ed35 723d 29d9 dabc ecbe babc
00000320: a324 3c3d cb51 f8bc 5206 83bd abb4 603d
00000330: 499e 283c 26d5 ddbc 88f5 793d 75dd cdbb
00000340: 1f91 ef3c f226 e43c 38c8 733c eea1 b7bd
00000350: 6e23 fd3c c0d2 3d3a 0528 873d ddc6 9a3b
00000360: 6fa4 dc3c ea66 183d 437e a3bc c55b 53bd
00000370: a0cc dd3d 6ee1 b9bd a13e 1abd 1292 623c
00000380: dc89 d8bc 8431 b4bd 53eb b83c 40c9 8ebc
00000390: 775c 2d3d 8942 21bd 9e98 8cbd 9b9a 933d
000003a0: d012 a2bb 7150 6a3d 5628 ae3d 85b3 e6bd
000003b0: 2aa9 7f3d 8f55 903d 9bdb a33d d0d2 613b
000003c0: 7fe3 74bd 37f0 ddbb c5c4 87bd c212 28bd
000003d0: 0c57 443d 7d95 fb3c f5b5 7cbd 7456 f33c
000003e0: 6f04 a2bd a57d 56bd 70f3 cd3d 7b99 a8bc
000003f0: 65d6 733d e3b8 a03d 77b7 7bbd cc6f 513d

fc2.bias f4 [2]
0.023020487 -0.06484826
00000000: 7695 bc3c 2acf 84bd

qnn.weight f4 [4]
0.47274923 -0.4641023 -0.58256096 -0.5646065
00000000: 300c f23e d19e edbe b722 15bf 0d8a 10bf

qnn._weights f4 [4]
0.47274923 -0.4641023 -0.58256096 -0.5646065
00000000: 300c f23e d19e edbe b722 15bf 0d8a 10bf
