models/classification/control/mnist/mnist_2v3_2qubits_r3.pt (torch, 207416 bytes, 10 tensors)

conv1.weight f4 [2, 1, 5, 5]
000000 7d f8 15 be 46 f1 1c be cf b4 f5 bd f0 48 06 be
       -0.14645572 -0.15326414 -0.11997377 -0.13113761
000010 b2 45 c2 bc 69 af a1 3d da 0a 6e 3d d8 01 d8 b8
       -0.023714874 0.07894785 0.058115818 -0.00010300026
000020 67 97 fe bd 3a 89 9c 3d b7 64 3d be e5 e6 18 3e
       -0.124312215 0.076433614 -0.18495451 0.1493183
000030 1b bc 54 be 76 c0 33 be e1 40 39 3e 22 46 26 3e
       -0.20774882 -0.17553887 0.18091156 0.16237691
000040 d1 1a 03 3e 30 f3 e8 bd e3 a1 bb bc f6 3c 2b 3e
       0.12803198 -0.11374509 -0.022904342 0.16722474
000050 4d 1a 43 be b0 a5 0e 3d b2 04 59 bd 90 5d 0a 3e
       -0.19053002 0.03482598 -0.052982993 0.13512254
000060 a1 25 d4 3d 0c bc 24 3c b9 7b 24 bd e5 a2 fd 3d
       0.1035874 0.0100545995 -0.040157054 0.12384585
000070 7a ec 92 bd ac af a4 bd 05 25 32 be 3d d0 33 be
       -0.071740106 -0.08041319 -0.17396934 -0.17559905
000080 f7 2b 23 3e 74 20 99 3d c0 fe 11 3e 77 af 3c be
       0.1593474 0.07476893 0.14257336 -0.1842631
000090 d9 fe 62 be bc 5a 2a be 6f 4a 7b bd e8 19 03 be
       -0.22167529 -0.16636175 -0.061350282 -0.12802851
0000a0 a0 b1 34 3e c8 13 27 be 35 df 2b be 9b 26 6c bd
       0.17645884 -0.1631614 -0.16784365 -0.057654005
0000b0 e0 07 27 be c6 5c 15 3e b2 68 b2 3d bb 87 65 bd
       -0.16311598 0.14586172 0.08711375 -0.056037646
0000c0 f7 cc 87 bd e7 e2 1b 3e
       -0.06630891 0.15223275

conv1.bias f4 [2]
000000 a7 78 78 bd 0c cf dd 3d
       -0.060661938 0.10830507

conv2.weight f4 [24, 2, 5, 5]
000000 43 fa df bc e1 2e a2 bd 4c 27 9b bc 69 a7 01 bc
       -0.027341014 -0.07919098 -0.018939637 -0.007913449
000010 0c ac 21 3e e2 c2 22 be e1 4d f0 bb 59 bc b9 3d
       0.15788287 -0.15894654 -0.0073335026 0.090691276
000020 d1 ef ad 3c b7 26 d9 bc 17 d8 f4 bd 3a 4d 9a bd
       0.021232517 -0.026507718 -0.11955278 -0.07534261
000030 c5 27 3c 3d ed ec 9f bd ac 03 32 be 61 cd 29 3c
       0.045936365 -0.07808862 -0.17384213 0.010363908
000040 77 e0 30 be 4d 52 01 be dc 61 3c bd 98 f7 58 3c
       -0.17273127 -0.12629052 -0.045991763 0.013242625
000050 7d 56 57 3b 38 7c 7f bc e7 94 84 bd 46 7e 0c 3e
       0.0032857948 -0.015593581 -0.06473713 0.13720044
000060 ba 01 e9 bd b8 4c c9 3b 93 11 a3 3d 21 48 ac bd
       -0.113772824 0.006143179 0.079623364 -0.08412195
000070 5a 92 17 bc d1 5e ee 3d d9 33 02 3d ed ee b2 bd
       -0.0092512015 0.116391785 0.031787727 -0.08736978
000080 68 9b 54 3c 20 a7 35 bd 22 80 b5 3c c7 ed ce bd
       0.012976505 -0.044348836 0.022155825 -0.10103946
000090 f3 f3 63 bd 01 55 03 be 53 a6 bf bb ba ca 2c 3d
       -0.05565257 -0.12825395 -0.005848685 0.042185523
0000a0 f0 5f 23 3e 40 74 59 3c dd 5d d6 3d ef 3f a5 bd
       0.15954566 0.013272345 0.10467122 -0.08068835
0000b0 14 4d 96 bd 06 57 f1 39 9d 7e 3d 3d 52 47 fb 3d
       -0.0733892 0.0004603194 0.046263326 0.12269463
0000c0 d4 9e 30 bc 5d 72 0a 3c 43 e0 7d bc 51 48 7d bd
       -0.010780055 0.008450118 -0.015495363 -0.061836544
0000d0 9e 74 21 3d bc 8e 0e be 33 ef 27 3d ea 17 e8 3d
       0.039417855 -0.13921636 0.040999603 0.11332686
0000e0 10 08 ca 3d bc 1e 79 3d 72 f6 af 3d 44 fd 9c 3d
       0.09864819 0.060820326 0.085919276 0.07665494
0000f0 c7 b3 bd 3d a5 53 b7 3c ab b4 56 3d 3b b5 96 3d
       0.092628054 0.022378752 0.052418392 0.07358786
000100 18 ab a8 bd c8 d7 ed 3c 4c 50 59 3d 7c b9 0c bc
       -0.082357585 0.029033557 0.053055093 -0.008589145
000110 f2 36 22 3e 77 c6 db bd f8 df fa bd 3e 0a 0c be
       0.15841272 -0.107312135 -0.1224975 -0.13675782
000120 30 37 04 be 43 ae 17 be 45 1f c5 bc 8a c4 3d 3d
       -0.12911677 -0.1481257 -0.024062762 0.046330012
000130 15 e0 86 bd 2a 2b a4 bc 1e f7 0f be 27 b3 5e 3d
       -0.06585709 -0.020040113 -0.14059111 0.05437007
000140 ea ad 42 bd a3 8c 3e 3d cc e4 f7 bd 0e 7f 2a bd
       -0.04752914 0.04652084 -0.121041864 -0.041625075
000150 df a2 30 bd 29 df e3 bc 53 d6 07 3d 0f 94 a5 bd
       -0.043124076 -0.027816372 0.03316338 -0.080848806
000160 32 19 30 be b7 70 11 be 28 53 b7 3d bf a0 df bb
       -0.17197111 -0.14203154 0.08951408 -0.0068245823
000170 f6 2a c6 bd 33 5c a6 3c 1d 1d d0 3d 35 b2 fe 3d
       -0.09676163 0.020307636 0.10161803 0.12436334
000180 b4 be aa 3d 5f 27 61 bd f4 f8 85 3d a1 1f ab 3d
       0.08337155 -0.054969188 0.06541625 0.08355642
000190 4a ef 96 3d e4 a2 9f bd aa 29 8b bd 64 7f e7 3d
       0.073698595 -0.07794741 -0.06795056 0.11303595
0001a0 d3 c0 94 bd 98 4f 6b 3c f3 9e bb 3d 4f 39 23 3d
       -0.07263341 0.014362238 0.091611765 0.039849576
0001b0 d5 04 38 3d 54 5e f3 3d 4f f6 17 3b 61 3e a1 3c
       0.044926483 0.11883226 0.0023187583 0.019683065
0001c0 73 f0 00 be 44 49 8f bd de 5c c2 3d 10 6b ea bd
       -0.12591724 -0.06996396 0.09490369 -0.11446202
0001d0 bf ce bd 3d 6f ea 18 3e 40 5a aa 3d 69 c8 15 3e
       0.09267949 0.1493318 0.08317995 0.14627232
0001e0 78 a0 03 bd c3 80 08 3e 38 ac 89 bd 0a 04 32 3b
       -0.032135457 0.13330369 -0.06722301 0.0027163052
0001f0 dc 2a d9 3d 05 51 a5 bd a3 9d a5 3d b0 3a b7 3d
       0.10603878 -0.08072094 0.080867074 0.089467406
000200 e8 d5 37 bd 43 1c 79 3c b8 7a 5a bd ec 29 c1 bd
       -0.04488173 0.015204492 -0.05333969 -0.09431824
000210 54 89 71 bd c1 2e ef 3d ad cc dc bc 2e 35 25 bc
       -0.058968857 0.116788395 -0.026953066 -0.01008348
000220 a0 90 f4 3d f0 72 07 be 8e 0d 1b bd 60 fd eb bd
       0.119416475 -0.13227439 -0.037854724 -0.11522937
000230 5f fb d6 3d 1e 4d ed 3c 85 23 ee 3b 94 3b 1d be
       0.10497164 0.028967436 0.007267418 -0.15354759
000240 a2 aa 35 be 55 2d 30 3d 0d aa 33 3d 2f 9a cb bd
       -0.17740873 0.043011982 0.043863345 -0.099415176
000250 8e e2 29 3d 3f 24 02 bd 05 51 8e bd fb 4e b2 3d
       0.041475825 -0.03177285 -0.06949047 0.087064706
000260 2d bf 4d 3d 1a 11 74 bd da 2c f8 3d 85 21 1c 3d
       0.050231148 -0.05958662 0.1211793 0.038117904
000270 58 1f 91 3d 04 6f 59 bd 2c 6c c8 bd 9d 2b 20 bd
       0.070860565 -0.05308439 -0.09786257 -0.039104093
000280 86 60 b4 3d a4 eb 2d 3e fe 42 b3 bd c9 7a 8e bd
       0.08807473 0.16984421 -0.08753012 -0.06957013
000290 43 3e f3 bd 03 f7 0c 3d 1b b1 e1 bd a0 90 17 3c
       -0.1187711 0.034415256 -0.11020108 0.00925079
0002a0 34 a5 b5 bd cd eb c8 bd 3d 18 aa bd 48 29 ea bd
       -0.088694006 -0.098106004 -0.08305404 -0.11433655
0002b0 ff d7 1b ba 76 a4 c2 bd ef f2 01 bd fd 25 b8 3d
       -0.00059449667 -0.09504025 -0.03172582 0.08991621
0002c0 45 b4 8e 3a 27 ca ed bd fa bb 15 3d 7e 41 68 bd
       0.0010887465 -0.11610823 0.03655622 -0.056703083
0002d0 53 30 76 3d 05 58 fb 3d 99 ff 28 be b5 4a 5e 3b
       0.06010468 0.12272648 -0.16503753 0.003391904
0002e0 0d b3 8f bd b7 92 9e 3d 9f f4 2d be 07 b3 8b bd
       -0.07016573 0.077428274 -0.16987847 -0.06821256
0002f0 0d 25 df 3c 96 67 01 3e 7e 08 da bd cf a3 d4 3c
       0.027239347 0.12637171 -0.10646151 0.025957016
000300 70 22 6c bd de d5 d1 3d ec 71 83 bd a0 78 b6 bd
       -0.05765003 0.1024587 -0.06418213 -0.08909726
000310 eb b9 93 3d 45 ab 20 3e fc ea b4 3c fc a6 b2 bc
       0.072131954 0.15690334 0.022084706 -0.02180814
000320 8b f0 f6 3d 74 fc 00 be 91 a2 8e 3b 70 9b be 3c
       0.12057599 -0.12596303 0.0043528755 0.023267478
000330 80 36 f3 bd 48 87 8f 3d 46 68 8d bd 4a 90 f6 3c
       -0.118756294 0.07008225 -0.06904654 0.0300981
000340 a7 a7 4f 3c 22 63 8d 3d 84 c1 75 bd 26 6c d5 bc
       0.012674249 0.06903674 -0.059999004 -0.026052546
000350 66 cf d1 bc 93 77 95 bc 0a 5b c8 bd a7 68 e8 bd
       -0.02561159 -0.018245494 -0.09782989 -0.11348086
000360 1a 73 b5 bd 15 75 2b 3c 4b 78 af bd 86 86 07 3d
       -0.088598445 0.010464926 -0.08567866 0.033087276
000370 a3 10 7c 3d 3b b6 b2 3d 3e 54 d5 bd 10 5b 3b be
       0.061539304 0.08726164 -0.104164585 -0.18296456
000380 48 eb b2 3d fc df 8b bd 7e fe 4a bd ff 3b 1e be
       0.087362826 -0.06829831 -0.04955911 -0.15452574
000390 18 c1 16 be 6f f5 0e bd 02 a6 f9 bd 07 05 90 bd
       -0.14722097 -0.034902032 -0.121898666 -0.07032209
0003a0 c0 b9 77 3d 56 62 b7 bd 51 ce e8 3b 9f d2 e3 bc
       0.06047988 -0.08954303 0.007104673 -0.027810393
0003b0 18 56 6c bd 22 72 03 bc 57 5a 95 3d a7 39 aa 3d
       -0.057699293 -0.008022817 0.072926216 0.083117776
0003c0 7d b1 2c 3e 4f 6e 96 bd b4 8a 8d bd 8a eb ec 3d
       0.16864581 -0.073452584 -0.06911221 0.11568363
0003d0 8d b4 b2 3d 81 ea 07 ba 0d 5b a9 bd 3c 68 35 bc
       0.087258436 -0.0005184785 -0.0826932 -0.011072215
0003e0 6a 9b be 3d 88 84 be 3c ce 43 4d 3d 31 1f 80 bd
       0.09306987 0.023256555 0.05011349 -0.06255949
0003f0 84 e1 e8 bd 54 3f 47 be c4 97 c0 bd 06 31 d3 3d
       -0.11371139 -0.19457752 -0.09403947 0.10312085

conv2.bias f4 [24]
000000 3a 9e 85 3c 18 5b 82 3b 60 cf 1a bd 38 09 94 bd
       0.0163108 0.0039781444 -0.037795424 -0.07228321
000010 1a ab 17 3d 9c 78 25 bd 68 25 4f bc 20 e8 04 bd
       0.03702841 -0.040398225 -0.012643196 -0.032447934
000020 a7 27 25 bd 7e ec a9 bd 1d e8 24 bd f0 65 8d 3d
       -0.04032102 -0.082970604 -0.040260423 0.06904209
000030 98 a4 82 3d 13 92 1a bd 5e 4a 52 3d 3a dc 7c bd
       0.0637905 -0.037736963 0.051340453 -0.061733462
000040 26 94 2f bd f5 4d 3e bd d3 e4 ca bd a8 03 77 bd
       -0.042865895 -0.046461064 -0.09906926 -0.06030622
000050 e8 f8 65 bd ef ce d8 bc 1e 1f 2f 3b 78 f1 1a bd
       -0.05614558 -0.026465861 0.0026721428 -0.03782794

fc1.weight f4 [128, 384]
000000 38 35 b0 bc fc fc 2b bd dd 08 2f bd 92 6e cf bc
       -0.021509752 -0.04198931 -0.042733062 -0.025321279
000010 fb aa 03 bd 00 04 07 bd ab 96 1c 3d 48 99 07 bc
       -0.03214548 -0.0329628 0.038229626 -0.008276291
000020 06 a4 b4 bc ec 71 2f bd 10 83 8d 3c af bf f3 bc
       -0.022050869 -0.042833254 0.01727441 -0.029754488
000030 56 be b7 bc d6 b9 38 3d e7 21 05 bd a7 52 b9 bb
       -0.022429626 0.045099102 -0.032503035 -0.005655605
000040 c1 7f 0c 3d fd 0f 9c 3c e0 90 c2 3c 55 fb 18 3d
       0.034301523 0.019050593 0.023750722 0.037349064
000050 9b 71 8b bc f1 9d 60 bb dc db f8 bc 00 cb 89 b5
       -0.017021945 -0.0034273828 -0.030378275 -1.0266376e-06
000060 d0 1e 75 3d 66 19 e0 bb 9a 88 75 3c 22 c9 80 3d
       0.05984384 -0.006838965 0.014986182 0.06288363
000070 b3 9d f6 3b 0c 7b be bc 01 36 2e bb a2 09 21 bc
       0.0075261234 -0.023252033 -0.0026582482 -0.009828957
000080 49 0c 6c bd ee 27 7d 3c 18 63 21 3d 24 95 6e bd
       -0.057628904 0.0154514145 0.039401144 -0.0582477
000090 14 99 47 3d de 2f b5 3c 6c ca da 3b b8 d8 b2 bc
       0.04872997 0.022117551 0.0066769626 -0.021831855
0000a0 b3 f3 24 3a 31 e2 1d bd 9f fd e1 3c a6 83 c0 bc
       0.00062924175 -0.03854579 0.027586756 -0.023500275
0000b0 9c 56 cc 3c a0 07 8e 3a d0 54 1c bb f9 1a 1a 3c
       0.024943642 0.0010836013 -0.0023854263 0.009405845
0000c0 d7 cc 01 bd 56 af 19 3d c2 6a 9e 3c 21 bc cc 3c
       -0.03168949 0.03752073 0.019338015 0.02499205
0000d0 44 7d 83 bb 2b 9a 58 3b 30 ec 6f bd 2e c2 11 bd
       -0.0040127356 0.0033050876 -0.058574855 -0.035585575
0000e0 b0 22 dd 3c df f3 df bb 85 d0 85 bd 7b 3f af bc
       0.02699408 -0.0068344916 -0.065339126 -0.021392575
0000f0 54 28 31 bd c2 72 89 bb e6 55 36 3d 6c fe a2 3c
       -0.04325135 -0.0041945884 0.044515513 0.019896708
000100 d7 77 2e 3d dc 7b 42 bc 30 c4 bd bc 84 3c e0 3c
       0.042594757 -0.011870351 -0.023164839 0.027372606
000110 c6 c3 d2 bb a8 2d 41 3b 0e 60 2e bd 65 56 80 3c
       -0.0064320294 0.0029476676 -0.042572074 0.015666196
000120 1d af a6 bc ba c8 e1 bc 4e d0 4f 3d e7 0b 41 3b
       -0.020347172 -0.027561534 0.050735764 0.0029456557
000130 5b a0 16 3d 41 9c 0a 3d 60 ed ff bb 53 b6 1a bd
       0.03677402 0.03384042 -0.0078102797 -0.037771534
000140 62 f5 f5 3c 98 75 1b 3c 22 b2 e4 3c ef 29 1e 3d
       0.030024234 0.009488486 0.027916972 0.03861421
000150 8d d7 cb bc c0 7a c6 bb 71 67 5c 3d 2a c0 13 3d
       -0.024883056 -0.0060571134 0.053809587 0.036071934
000160 82 87 3a 3d 64 07 f2 bc 7e b8 de 3c 56 37 fd 3c
       0.045539387 -0.02954454 0.027187582 0.030910175
000170 ac c1 29 bd 83 0c 27 bd c0 79 1f bd a7 08 d1 bc
       -0.041444466 -0.040783416 -0.03893447 -0.025516821
000180 58 a3 39 3d 13 54 9a 3c 2a 4c 31 bd 43 35 91 bc
       0.045321792 0.018838918 -0.043285526 -0.017725592
000190 55 4c b2 3b c3 ab 94 bc ee d7 08 3c 4a cb 50 3c
       0.0054412284 -0.018148309 0.008352263 0.01274378
0001a0 35 92 62 bd 1c 15 9c 3c fa 33 70 bd e5 12 18 bd
       -0.055315215 0.019053034 -0.05864332 -0.037127394
0001b0 fe 33 23 3d 16 36 35 bd 49 f8 80 3c dd 88 51 3c
       0.039844505 -0.044241033 0.015743392 0.012788978
0001c0 02 81 53 3d 14 20 97 bc f5 b6 9e bc f3 95 5d 3c
       0.051636703 -0.018447913 -0.01937435 0.01352452
0001d0 62 00 a1 bc 0a 34 df 3c bb 53 56 bd cb 0d bd 3a
       -0.019653503 0.027246494 -0.052325945 0.0014423666
0001e0 66 d8 9d 3c dc 25 88 3c 9b 9e 0c bd 10 21 5d 3d
       0.019268226 0.016619615 -0.034330945 0.05398661
0001f0 7b cb 46 3d d7 6b 8b bc 52 ae 22 bd 8e bf 6b 3c
       0.048533898 -0.017019195 -0.039717026 0.014388932
000200 ed 4c 2e 3c f6 46 22 ba eb 76 db 3c 77 4e f2 3c
       0.010638458 -0.00061903836 0.026790103 0.02957843
000210 1f 58 52 bd 5c f3 b5 bc ba e9 2d bd 3f 58 7e bc
       -0.05135357 -0.02221077 -0.042459227 -0.015523969
000220 b2 d8 ed bc a7 42 30 3c a1 4b 84 3d 77 2f 85 b9
       -0.029033992 0.010758079 0.064597376 -0.000254031
000230 24 4e 48 3d 21 81 b8 bc 67 c2 af 3c a3 62 c1 bc
       0.048902646 -0.022522511 0.021455003 -0.023606604
000240 81 0e 87 3c a1 19 fc bc 10 58 9b 3c 94 16 b6 3d
       0.016486408 -0.03077394 0.01896289 0.08891025
000250 e1 da 9b 3c 9a fe a1 3c d5 ad 3e 3d 55 cf 5c bd
       0.019025268 0.019774724 0.046552498 -0.053908665
000260 f6 04 17 3d ea 93 04 3d 7c e2 86 3a bd 3c 34 ba
       0.036869965 0.032367624 0.0010290886 -0.0006875506
000270 05 5a 96 3d 6a f0 61 3c 91 c2 46 3c 53 60 bc 3c
       0.073413886 0.013790229 0.012131349 0.02299515
000280 85 65 ef 3c 9c 3d 2e 3d 52 1e 23 3d da 8a ea 3b
       0.029223213 0.042539224 0.039823838 0.0071576657
000290 15 57 20 3d b6 2c 20 bd 38 95 82 bd bd 6e 96 bc
       0.039145548 -0.03910514 -0.063761175 -0.018363351
0002a0 1b d0 9f bc 2e fa 15 bc 42 85 b6 ba af ec 51 3c
       -0.019508412 -0.009153886 -0.0013925212 0.012812777
0002b0 95 aa ba 3c f5 ef 62 bd 10 19 64 bd 30 e7 0d bd
       0.022786418 -0.055404622 -0.055687964 -0.034644306
0002c0 85 ca 99 3b 24 5c 8d bc d4 f8 13 3c 58 a1 85 3c
       0.0046933317 -0.01725585 0.009031493 0.016312286
0002d0 5e d7 80 bb a4 16 4e 3d a0 3b 3f 3b a9 33 53 bc
       -0.003931924 0.05031456 0.0029179826 -0.012890735
0002e0 a8 0c 0b bc cd 2a 14 3c 21 e3 3e 3d c4 00 0b bd
       -0.008486904 0.009043408 0.046603326 -0.033936277
0002f0 4f ba 9b bc ba a6 d5 bb 7f 05 38 3c 56 b1 af bc
       -0.019009737 -0.0065201195 0.011231779 -0.021446865
000300 9a e0 3b 3d 98 c6 29 bc 47 b4 c3 3b bc d7 02 3d
       0.045868494 -0.01036229 0.0059724185 0.03194402
000310 c3 8c d2 3c 9a 96 c1 bb 5a 4f 69 3d 01 2b bd bc
       0.025701886 -0.0059078457 0.05696044 -0.023091795
000320 d1 a1 5d 3d ca 7e 33 3c 1b c8 57 bc 16 44 8e 3b
       0.0541094 0.010955522 -0.013170267 0.0043416126
000330 4c 0f 9c 3d 44 16 6c 3d 2a b2 0d bd a1 88 08 bd
       0.07620105 0.05763842 -0.03459374 -0.033333424
000340 0f c3 c0 3b af 7f 31 bb 5a 8e b9 bb cf 3c 00 bc
       0.005882628 -0.0027084162 -0.0056627216 -0.007826998
000350 4a da 91 3d 20 d4 7d 3d db de 99 3d 17 86 f8 3c
       0.071217135 0.061969876 0.075132094 0.030337377
000360 83 d5 1a 3d ed c1 e0 bc ed 46 ab bc 5f 37 45 3d
       0.037801277 -0.027436221 -0.020907843 0.04814851
000370 2f 3f 42 3d 1d 9f af 3c 7a 12 94 3c a7 99 f4 3c
       0.047423538 0.021438176 0.018075217 0.029858423
000380 5b 66 51 3d 9e 0b 29 bc c0 f4 32 bd b3 b9 01 bd
       0.051123004 -0.010317711 -0.043690443 -0.031671237
000390 9d 8f 1b 3d f8 4c 00 3d 31 1b dd 3c f9 02 4a 3d
       0.037978757 0.031323403 0.026990505 0.04931924
0003a0 dc bd d8 bc ad 41 20 bd 31 bb 83 bb 87 53 9d 3c
       -0.02645772 -0.039125133 -0.0040201177 0.019204868
0003b0 bf 5f 19 3d e0 7d b9 3b 47 1e 17 3c de dc 5f 3c
       0.037444826 0.0056607574 0.009223527 0.013663499
0003c0 20 a8 0c 3d bd ad 90 3d f4 f2 95 bc 9f 2c 3d bd
       0.034340024 0.07064388 -0.018304326 -0.046185132
0003d0 c6 60 e2 3c 28 63 2f 3d 84 80 80 bd 9e 33 d7 bb
       0.027634036 0.042819172 -0.062745124 -0.0065674325
0003e0 f0 cf d8 3b 87 80 bc 3c 50 f0 05 bd 7b 16 58 3c
       0.006616585 0.023010505 -0.032699883 0.0131889535
0003f0 67 7f 08 3d 09 1c fa 3c b8 15 42 bd e2 1f 6b bd
       0.033324625 0.030530946 -0.047383994 -0.057403453

fc1.bias f4 [128]
000000 bd 50 2d bd 11 aa 97 3d ad f9 86 b9 2e 57 35 bc
       -0.042313326 0.074054845 -0.00025744495 -0.011068149
000010 f6 1c 16 bd 0b 0a 10 3d 6f fc 6f 3d 17 7f 88 bc
       -0.036648713 0.035165828 0.05859035 -0.016662164
000020 9f b0 53 bd 9e 93 89 3c ef b0 19 3d 07 8b 42 bd
       -0.05168211 0.016794022 0.037522253 -0.047495868
000030 11 04 b0 3d c2 93 a6 bc a8 e7 3d 3d f1 5b 53 3d
       0.085945256 -0.020334128 0.046363503 0.051601354
000040 c8 81 81 bc 3d ca 80 bd f3 32 bd 3c f9 02 89 3d
       -0.015808955 -0.06288574 0.023095584 0.0669002
000050 99 82 3b 3d e0 e2 33 3d be f4 3d 3d 28 a5 4a bd
       0.045778845 0.043917537 0.046375982 -0.04947391
000060 5d ed e0 3a 78 89 4e bd bc fd 91 3c f0 36 b9 bc
       0.0017160584 -0.05042407 0.017821185 -0.022609204
000070 16 b1 3f 3d c8 03 1e bd de 6e 8a 3d 6b 6e f3 b9
       0.04679974 -0.038577825 0.067594275 -0.0004643084
000080 95 59 3e 3d 55 f2 75 3c fc a0 4a bd 54 69 94 3d
       0.04647215 0.01501139 -0.049469933 0.07246652
000090 7f 10 80 3d 43 dc 52 3d 28 0f 8a 3d f8 dc 69 3d
       0.062531464 0.05147959 0.06741172 0.057095498
0000a0 77 ba 60 3c 9f 8e 3a bd fe 85 56 bd 25 64 94 3c
       0.013716332 -0.04554617 -0.05237388 0.018114159
0000b0 56 db 1b bd e4 f3 43 3c 22 3c b4 3d fc 08 86 3b
       -0.038050972 0.0119600035 0.08800532 0.0040904265
0000c0 2e 37 f9 bc c1 59 ba 3c c2 12 46 bc 3f 2f 1d 3d
       -0.03042182 0.022747876 -0.012089433 0.038375136
0000d0 10 ef 21 3c 78 2a 98 bb d8 87 ef ba 46 88 e8 3b
       0.009883657 -0.0046437345 -0.0018274738 0.007096323
0000e0 33 76 83 3d 5e 19 69 bd cd b2 3f bd 99 4f 5b 3d
       0.06419029 -0.056908958 -0.046801377 0.053542707
0000f0 71 52 39 bd 45 31 74 bc 79 79 4a bc 94 6b a1 3c
       -0.045244638 -0.014904325 -0.012358063 0.019704618
000100 95 db 31 3c 7b 5c 91 3d 55 e0 36 3d 9f f1 d5 b9
       0.010855575 0.070977174 0.044647533 -0.00040806548
000110 c2 2a b2 3c 99 ae f7 3b 1e 62 09 3d c5 da 89 3c
       0.021748904 0.0075586555 0.033540837 0.01682795
000120 20 83 bf bc 58 60 86 bd e4 73 17 bd 83 89 8a 3d
       -0.023377955 -0.06561345 -0.036975756 0.067645095
000130 bd 47 fe 3c 0a 3d 80 bd e8 a8 59 bc aa f0 56 bd
       0.031040067 -0.06261642 -0.013284899 -0.05247561
000140 57 21 00 3c 2c 6a 2b 3c 1f 2e 40 3d 76 33 00 3d
       0.007820449 0.010462325 0.046918985 0.031299077
000150 68 77 27 3d b8 05 0e bc 28 23 80 3d e6 24 86 3d
       0.04088536 -0.008668356 0.062567055 0.065500066
000160 78 04 68 bd ed 23 88 3d 29 39 77 3c cb 3d 26 bd
       -0.056644887 0.06647477 0.015089312 -0.040586274
000170 e1 e0 20 3d a6 e2 fb 3c bb d8 33 bd 29 1a 89 3c
       0.03927696 0.030747723 -0.043907862 0.016736107
000180 8c 0c 46 bd 68 c4 64 bd d6 f9 54 3d 54 b9 e0 bc
       -0.04835181 -0.05585137 0.051996075 -0.027432121
000190 00 06 fc bc 06 d9 ff bc ea 39 7b bd 73 6b 07 3d
       -0.03076458 -0.031231415 -0.061334528 0.033061456
0001a0 83 96 22 bd c1 8e 20 3d 5e a5 54 bd 81 00 33 bd
       -0.03969432 0.03919864 -0.05191552 -0.043701652
0001b0 6d b3 8f 3d d2 ad 94 3c 7b 31 3f 3d 20 4b ee bc
       0.070166446 0.01814929 0.046678048 -0.029088557
0001c0 e3 70 44 3d 21 83 12 3c 01 27 64 bd 9d 8d 92 bc
       0.04795922 0.008942396 -0.05570126 -0.017889792
0001d0 1c 9d 5b 3d 1e 2d 52 3d 5e 62 47 bd 7e d7 fc bc
       0.053616628 0.05131256 -0.048677795 -0.030864473
0001e0 17 53 55 bd e2 52 c0 3c d4 e1 77 3d c1 3f aa 3d
       -0.052081194 0.023477022 0.0605181 0.08312941
0001f0 eb 2b 4d 3c 59 79 58 3c 31 2c 81 3d ec df 9e 3d
       0.012522678 0.013212525 0.06307257 0.077575535

fc2.weight f4 [2, 128]
000000 51 b5 eb 3c 6b 05 9e bd bd 12 ee 3c ef 6c 66 3d
       0.028772982 -0.07715877 0.02906167 0.05625623
000010 b4 0e 8c 3d f8 5a 27 bd c4 35 d1 3d 88 a1 2f 3d
       0.06838742 -0.04085824 0.10215333 0.042878658
000020 a8 0d 75 3d 1d 27 44 3d 6c d9 78 bd e3 71 be ba
       0.059827477 0.047888864 -0.060754225 -0.001452979
000030 67 11 f7 bc 13 af bc bc 0d f6 ec 3c 65 a6 e5 3d
       -0.030159665 -0.0230327 0.02892592 0.11213378
000040 a7 cc fe 3c ea 21 2b bd ac a0 9c 3d 7a 4d 9a bd
       0.031103445 -0.04178039 0.07647833 -0.07534309
000050 b0 30 3e 3d 0d fb b0 bd a3 d0 be bc 03 2a 2e bd
       0.04643315 -0.08641634 -0.023292845 -0.042520534
000060 4c 8b 33 3d a8 6f 7b bc a0 0c a0 3d 40 3f 07 3d
       0.043834016 -0.015346445 0.07814908 0.033019304
000070 12 69 a7 3d fb 69 1b 3c 83 51 b0 bd 72 89 8a 3b
       0.081743374 0.009485717 -0.08609297 0.0042278105
000080 e9 46 03 3d e4 96 b1 3d 0f bc 84 3d ea 1e 95 bd
       0.032050047 0.08671358 0.06481182 -0.07281287
000090 75 86 87 bd a7 10 47 bd a5 57 0d bc d0 9e c4 bd
       -0.066174425 -0.048599865 -0.008626853 -0.096006036
0000a0 d5 f9 bc bd b8 51 8c bc 06 0c e9 bc 6c 50 f7 3c
       -0.09227339 -0.01712881 -0.028448116 0.030189715
0000b0 c1 05 18 bd 67 8f 06 bd f4 9f ab bd 20 0b 39 bc
       -0.037114862 -0.032851603 -0.08380118 -0.011294156
0000c0 c5 c1 96 bc ec 47 17 bc 28 1c 23 bd 35 ab 81 3d
       -0.018402943 -0.009233456 -0.039821774 0.06331483
0000d0 23 a1 35 3c ec 58 c2 3c 36 50 87 3d c8 c8 0f bd
       0.011085781 0.023724042 0.06607096 -0.03510359
0000e0 ae 37 a3 3d 1f 9b 4c bd d5 e4 0b bd b0 90 10 3d
       0.079696044 -0.049952623 -0.034153778 0.035294235
0000f0 99 51 b7 bc 0c 82 3b 3d 1d 78 22 3d d9 93 99 bd
       -0.022377776 0.04577832 0.03966533 -0.07498903
000100 7e 21 49 bc 04 13 8a 3d dd af 9f 3d 3c 06 b1 3c
       -0.012276052 0.06741908 0.07797215 0.021609418
000110 4d 9c da 3c 83 b2 bb 3c 88 41 a7 bc 9b 3a c6 bd
       0.026685858 0.02291227 -0.02041699 -0.09679147
000120 25 d1 31 bd 8f 53 8f 3c ea 84 81 bd 9d 1e 9c bd
       -0.043412346 0.017495899 -0.063241795 -0.076230265
000130 59 12 8a 3d 7c 53 90 bd 7a 2f 0d bd 9e cf 95 3d
       0.06741781 -0.070471734 -0.034469105 0.073149905
000140 6d e5 1d bb 6d 21 d4 3d 80 ad 12 bd 30 66 94 3d
       -0.0024093047 0.10357938 -0.035809994 0.07246053
000150 4e 72 cf 3d 30 0d 79 3d f3 e0 7c 3d c3 5f 5d bd
       0.10129224 0.060803592 0.061737966 -0.054046404
000160 ee 32 fc 3c 7c e0 3a bd 2c a4 17 bd 16 4e 89 bd
       0.030786004 -0.04562424 -0.0370218 -0.06704347
000170 fb 93 3b 3d 5a c5 89 bd ce d2 94 bc 73 c7 d9 3c
       0.045795422 -0.06727095 -0.018166926 0.026584363
000180 a9 f5 68 bd 54 2a 81 3d 82 d1 bf bd 8c f9 42 3d
       -0.056874905 0.063069016 -0.09366132 0.047601268
000190 dd b5 db bb 3f ff 26 bb a0 d0 51 3d 5a ad 86 3d
       -0.0067050294 -0.0025481728 0.05122435 0.06576033
0001a0 71 28 81 3d 25 5b c6 3d c4 44 86 3a 69 e1 40 bd
       0.06306542 0.09685353 0.0010243882 -0.047089968
0001b0 42 2a a3 bd 52 7f 94 bc d5 2e 69 3d f9 1a 59 3c
       -0.079670444 -0.018127117 0.056929428 0.01325106
0001c0 e0 6e 23 bb 33 55 af 3d a2 54 5a 3d ef be 90 3d
       -0.0024937913 0.08561172 0.05330337 0.07067668
0001d0 f9 a8 9d 3b a1 18 84 3d ed 40 3f 3d 2e 22 6b 3d
       0.004811403 0.0645001 0.046692777 0.057405643
0001e0 ae c9 06 3d ce 97 af bc 61 a7 09 bb 53 49 43 bd
       0.03290718 -0.02143469 -0.0021004307 -0.04767735
0001f0 5a ba 96 bd 27 33 de 3c f4 fe b7 bd e1 f4 4c bd
       -0.073597625 0.027124 -0.08984175 -0.050038222
000200 a1 d3 07 3d 3c f3 1c 3d fd 20 33 bd 07 47 74 bd
       0.03316081 0.038317904 -0.043732632 -0.05963805
000210 d1 ac 70 bd 2e 6e 0f bd 84 53 99 3d 56 ae 2e 3c
       -0.05875856 -0.035017185 0.074866325 0.010661682
000220 19 ed 53 3c a3 15 9e 3d 81 6f a0 bc 26 a8 2c 38
       0.012934946 0.077189706 -0.01958442 4.1164596e-05
000230 7a 74 a2 bd b7 2b 71 3d 3e 75 34 bd 10 49 c6 3d
       -0.079323724 0.05887958 -0.044057123 0.09681904
000240 e8 39 24 bc 82 3f 45 3d a7 b6 b9 bd b7 83 89 bd
       -0.010023572 0.04815627 -0.09068041 -0.06714576
000250 41 80 73 3d f0 77 ed 3c cf 37 88 3d 6a 89 8c 3d
       0.059448484 0.028987855 0.0665127 0.06862147
000260 00 e6 9d 3c ff 04 d9 ba c1 d3 de 3a aa ed 93 bd
       0.019274712 -0.0016557275 0.0017000363 -0.07223065
000270 b1 26 b5 3d 3d 53 e6 3a 6e d5 7e bd 2d 6b 52 3d
       0.088452704 0.0017572414 -0.06221526 0.051371742
000280 a8 0c 50 3c 10 59 95 bb 5f 21 46 3d 30 2e 91 bd
       0.01269833 -0.004557736 0.04837167 -0.07088888
000290 11 db 04 bd 5a 4f 03 3d e0 08 84 bd 13 15 7d bd
       -0.03243548 0.032058097 -0.06447005 -0.061787676
0002a0 b5 68 18 3d 91 05 a3 bc e3 c8 9d bb b1 e2 85 bd
       0.03720923 -0.019900115 -0.0048152073 -0.065373786
0002b0 a5 ae 89 3d ab 73 5f ba ae 7c a6 bc 72 d7 23 bd
       0.06722764 -0.0008524011 -0.020323124 -0.040000387
0002c0 2c 51 60 bd 75 ad a9 3d 4e 72 1e 3d 3b 36 b3 bb
       -0.05476491 0.082850374 0.03868323 -0.0054691113
0002d0 bd 5b a5 3d 50 d4 91 3c 92 32 6c 3d 46 d4 63 3c
       0.08074138 0.017801434 0.057665415 0.01390559
0002e0 97 0b aa bc 29 ca 5d 3d eb ac 9e bd 84 5d cb 3d
       -0.02075748 0.054147873 -0.07747825 0.09929946
0002f0 b5 25 ad 3c f3 e4 65 3d 46 7c 84 bd 2a 1e b4 3a
       0.021136144 0.056126546 -0.06469016 0.00137419
000300 9e b0 32 bc 10 ca 2e bd 2c f7 48 bd 4f 25 35 bd
       -0.010906367 -0.04267317 -0.049063846 -0.044225033
000310 cf d6 9f bd 06 4e d8 bc 8a 72 99 bd 96 b8 c3 3c
       -0.07804643 -0.026404392 -0.0749255 0.023891728
000320 da cc 44 bd c1 64 6b 3d 7c a4 a1 3d a9 a6 39 3d
       -0.048046924 0.057469133 0.07892701 0.045324955
000330 e9 49 a6 3b b1 5e 96 3d ce 10 96 bd 42 e5 91 3d
       0.0050747287 0.0734228 -0.07327424 0.071238056
000340 e4 4e 9b bd 58 f1 42 bc 05 e7 c0 3c 23 b9 9c 3b
       -0.075834066 -0.011898361 0.023547659 0.004782812
000350 1c 00 65 bd 2f ed a5 bd f9 78 c5 3c 7b d8 37 bd
       -0.055908307 -0.0810188 0.024105536 -0.044884186
000360 ec d9 25 3d d5 93 02 bd 8f e6 80 3c fe ff 95 3d
       0.04049103 -0.031879265 0.015734939 0.07324217
000370 ad 22 b0 3d 27 51 81 3d f6 d6 0d bd ac b4 8a 3d
       0.08600364 0.06314307 -0.03462883 0.06772742
000380 dd 9e 7c 3d 28 a2 1c 3d df 66 d5 3c 48 c2 b4 bd
       0.06167494 0.03824058 0.02605003 -0.08826119
000390 e0 e4 f5 bb dd f7 7d 3b af ca 3d 3d c3 50 26 3c
       -0.0075040907 0.0038752474 0.046335872 0.010151091
0003a0 2a b9 cf bc 55 1f 2b bd a7 1a 29 3d 80 25 1a bc
       -0.025356848 -0.041777927 0.041285183 -0.009408355
0003b0 7a b2 a2 bd 95 3a 7f bd 0c 5e be 3c 9f 8e c3 3c
       -0.07944198 -0.062311728 0.023238204 0.023871718
0003c0 56 a9 4c bd 7d 66 2d bd 4b 4d 82 3b 19 80 a7 bc
       -0.04996618 -0.04233407 0.003976499 -0.020446824
0003d0 2a 34 0a bd d8 48 54 3c d6 06 ea bb fb dd ad bd
       -0.033741154 0.01295682 -0.007141928 -0.08489605
0003e0 f0 45 aa 3d 73 96 b1 bc 51 55 a5 bd e3 f6 cb 3c
       0.08314121 -0.021678185 -0.080729134 0.024897998
0003f0 05 1a b4 bb c4 f4 f0 3c a2 3f a0 3c d2 2d 3c bd
       -0.005496266 0.029413588 0.019561592 -0.045942135

fc2.bias f4 [2]
000000 52 0d 89 bd 34 c7 b3 bc
       -0.06691994 -0.021945573

qnn.weight f4 [4]
000000 cb 84 55 3f 32 8a 26 bd 24 58 c8 bc 34 a7 07 bb
       0.8340575 -0.040659137 -0.024456091 -0.0020699026

qnn._weights f4 [4]
000000 cb 84 55 3f 32 8a 26 bd 24 58 c8 bc 34 a7 07 bb
       0.8340575 -0.040659137 -0.024456091 -0.0020699026
