models/classification/control/mnist/mnist_2v3_2qubits_r5.pt (torch, 207416 bytes, 10 tensors)

conv1.weight f4 [2, 1, 5, 5]
00000000: e1d6 a4bd 2a43 5cba fcdc 383d 1420 1c3e
00000010: 763b 4a3e ce8a aa3d 39a6 c0bb 735d 2c3e
00000020: 9b38 00be ddf1 62bd aa7c ecbd 7a00 ff3d
00000030: a54d a33d d8a7 e3bd 88b0 c7bd 7be4 6b3c
00000040: 0a1d 4bbe d017 0f3e 2090 b3bd 5f34 f8bd
00000050: 1d24 5abe 778f 04be 3146 833d 0fa9 8b3d
00000060: 06ea a23d d4b0 1b3d 6ac7 8f3d 2c9d 08be
00000070: f70c 913d 48bb 523d c59b 12be 9e7e c7bc
00000080: 4ff8 4cbd c323 a2bc 2d2a 9b3d a897 023b
00000090: 1648 5f3c a3e9 d03d 8438 f83c d312 9f3c
000000a0: 0552 1b3e 2170 b43d 4c42 d7bd 958c cc3d
000000b0: 78c8 5ebd d0fe 9c3d 1dce 4c3e 7f9b 4b3d
000000c0: 5c8f 473e d436 42be
-0.080487974 -0.0008402342 0.045132622 0.15246612 0.19749245 0.08327256 -0.0058791903 0.16832523
-0.12521593 -0.05540644 -0.11547215 0.12451263 0.07973794 -0.11115998 -0.097504675 0.014397736
-0.19835296 0.13973927 -0.08767724 -0.12119364 -0.21302839 -0.12945352 0.06409872 0.06819355
0.07954793 0.038010433 0.07020457 -0.13341206 0.07082551 0.051448137 -0.14317234 -0.024352368
-0.050041493 -0.019792443 0.07576404 0.001992682 0.0136280265 0.10200813 0.030300386 0.019418156
0.15168007 0.088104494 -0.10510692 0.099877514 -0.0543904 0.07665789 0.20000501 0.04970884
0.19488281 -0.18966228

conv1.bias f4 [2]
00000000: f8e7 263d 6b49 8dbd
0.040748566 -0.06898769

conv2.weight f4 [24, 2, 5, 5]
00000000: 2d41 e3bd e9ba d4bd 6da4 d7bd 5521 143e
00000010: e4c3 9bbd c50b e1bd f7d0 033d 97ae fc3d
00000020: 2e1c aebd 2ad8 793d 6013 6dbd a540 35bb
00000030: 16fc d03d 40b8 0c3c 70f3 62bd b451 663d
00000040: 67f1 11be 6922 8fbd 4262 dcbd 08dd f23b
00000050: 7702 06be 2a34 003e 60f1 763d 4498 103e
00000060: 1186 8abd 4dbb c43d 2e53 0f3e 4880 973d
00000070: 4795 b5bc 0e32 0ebe 2a7d 053e 7c5b 733d
00000080: f8f9 c6bd 0985 703c 0e44 963d 8543 d93d
00000090: 227e c13b e612 60bd def4 b3bc 89cc a7bd
000000a0: 38bb 04be a7f8 c9bd 90b3 d43d f551 15bd
000000b0: 43f9 bfbd 0c5f a93d 3674 13be d31e 85bd
000000c0: 5c84 5dbd ad7f 12be f0b9 60bc 99b4 4bbd
000000d0: 6033 41bd b1d8 d0ba b63f 8a3d d85e 0bbd
000000e0: e664 b63d 2a8f 993d 75f1 99bd a056 bbbd
000000f0: cd14 a63d 1663 a63d 4277 07bd 6c30 3bbd
00000100: 7bcc c13d 3e59 1fbd c1af 833d 9f61 8c3d
00000110: d367 bcbd 92ec e3bd 088e e73c 69c3 9e3d
00000120: b5cf 6ebc 39a6 03be 246a a9bd 706f ba3d
00000130: 2eec 2d3d 879a 963d f77a a2bc 7d4c ebbd
00000140: de2b 0a3e 09f7 b7bd 19cb c3bd d7e6 0a3e
00000150: 8908 84bd 7f5c bb3d acc9 ac3d b581 97bc
00000160: 2d39 3cbd 7395 29bc 68ce 353d 80ab b23d
00000170: 2475 a1bd e2fe c23d 8053 fd3d 8b1c 5c3c
00000180: dff0 9bbc a470 debd 2062 bc3d f110 74bd
00000190: 8dc5 8fbc 9182 213d 8f6a a8bd 9dad 2cbd
000001a0: 67bd acbd 6f80 26bd 57e6 57bd 632b a6bd
000001b0: d267 77bd f308 f13b 3741 16be 4894 93bd
000001c0: 2f0d 513b 20f9 ed3d c6d8 393d 0130 f7bb
000001d0: fed8 fd3d b7ac 5f3d 7d96 d13d a133 04be
000001e0: f0e0 abbd 01ad 923d 9f69 d7bd 1c35 d8bc
000001f0: e7fa ed3c 60f3 27be 8be5 efbd 0c13 00be
00000200: e2bd b4bd 426e 07bd de87 283d c3fb 0fbc
00000210: 0688 f7bd 63b1 8e3d 2853 ae3d c64f 01be
00000220: dc79 ca3d 54fb abbd cda6 0ebe ea90 f0bd
00000230: ad3f b3bd b5f2 9b3d 6d05 393d 0927 c5bd
00000240: c315 e8bd 31be 8ebd 9f8e b93d 6a85 f03d
00000250: c53e 72bd bc80 9dba 93f2 e2bb 41c0 3b3c
00000260: d3eb 863d 38fc 5a3d 5bf3 ef3d 7081 ff3d
00000270: 6d24 0a3d 90a8 85bd c948 95bd 37c5 983c
00000280: d788 773d 4ade b7bc bb99 82bd 77e7 123d
00000290: 4fe6 edbc e141 603c d720 9abd 6ea2 cabd
000002a0: 4162 32bd 31fb 8cbd cac3 a4bd aa90 c93d
000002b0: 5d93 6c3d ab2c 5ebc 98d6 f6bd b38d 37bc
000002c0: c76e 11bd cf6c b53d a234 93bd 65d1 b2bd
000002d0: f8e7 98bd 091a acbb fba5 fe3d 06ae 13be
000002e0: 9151 06bd 40f7 c1bd ce8a 27bc b4f2 e73d
000002f0: 2fba 20be 64c4 74bd 1256 1e3e 78e8 303c
00000300: 9118 83bd 7e60 35be a72f 96bc b6d8 df3d
00000310: 4334 57bd 97d1 a1bd 9c96 39bd 42fa 0b3d
00000320: bc12 9f3d 5baf d7bc d415 0dbe fe29 253c
00000330: 6132 733d ee56 5fbd c368 fabd d354 cebd
00000340: 5238 913d aad1 9dbd b01c 7ebd c666 b63d
00000350: b4a1 f43d 241b 89bc aeed e33d 012e ee3c
00000360: 3283 0f3d d576 d7bd 98af 8b3d b54b faba
00000370: f859 bebd 3a35 d0bd ec40 053d 8e76 243d
00000380: e8d0 d9bd 4481 8a3c 480b e13d 8e72 923d
00000390: 5560 103d 0ab6 d5bd a75c a03d 530c eabd
000003a0: 38a2 043e ca2d 14be 0688 b4bd c46f 9e3c
000003b0: 918f d0bd a0fb d0bd c32b 93bd 6a78 62bd
000003c0: 6b88 9bbd 64ad d6bd 5772 d03d ec12 083d
000003d0: 6143 ecbd 536c f53b 08aa 3e3d 2f50 86bd
000003e0: ce7b a8bd 7ce6 d93d 7031 03bd d32a e03d
000003f0: 1228 9b3d 747f 08be 29f3 7d3d 1c6f 9e3d
-0.11096416 -0.10387213 -0.105294086 0.1446584 -0.076057225 -0.10988573 0.032181706 0.12337988
-0.085014686 0.060997166 -0.057879806 -0.002765694 0.102043316 0.0085888505 -0.05540794 0.056230262
-0.14252244 -0.06988985 -0.10760929 0.007411603 -0.13086878 0.12519899 0.060288787 0.14120585
-0.067638524 0.09606037 0.13996574 0.073975146 -0.022165908 -0.13886282 0.13036028 0.05941342
-0.097156465 0.014680156 0.07337199 0.106085815 0.005904929 -0.054705523 -0.021967348 -0.08193309
-0.12962043 -0.0986188 0.10385811 -0.036455113 -0.09373715 0.08270082 -0.143998 -0.0650002
-0.054081306 -0.14306517 -0.013716206 -0.04973278 -0.047168136 -0.001593372 0.06750433 -0.034025997
0.089059636 0.074980095 -0.075167574 -0.09147382 0.08109436 0.08124368 -0.033072717 -0.045700476
0.0946283 -0.038903467 0.06430007 0.06854557 -0.091994904 -0.111291066 0.028265968 0.07752115
-0.014575888 -0.12856378 -0.08272198 0.09103286 0.042461567 0.073536925 -0.019834025 -0.11489198
0.13493297 -0.08982665 -0.09560222 0.13564621 -0.064469405 0.091485016 0.08436903 -0.018494466
-0.045952965 -0.010350573 0.044386297 0.08724117 -0.07883671 0.09521271 0.12369442 0.01343454
-0.019035755 -0.10861328 0.09198403 -0.05958647 -0.017550254 0.03943116 -0.082234494 -0.042157758
-0.08434563 -0.040649828 -0.052709904 -0.08113744 -0.060401745 0.007355803 -0.14673315 -0.07206017
0.0031898727 0.116197824 0.045372747 -0.0075435643 0.123949036 0.054608073 0.102337815 -0.1291032
-0.08392513 0.07161904 -0.105181925 -0.026392512 0.029050304 -0.16401434 -0.11713704 -0.12507266
-0.0882528 -0.033064134 0.041145198 -0.008788052 -0.12086491 0.069674276 0.085119545 -0.12628087
0.09886524 -0.083975464 -0.13930817 -0.1174639 -0.087523796 0.07614652 0.04517119 -0.09626586
-0.11332276 -0.0696987 0.09060406 0.11744197 -0.059141893 -0.0012016515 -0.0069258898 0.011459411
0.06587949 0.05346319 0.11716338 0.1247586 0.033726145 -0.06526291 -0.07289273 0.018648727
0.060433235 -0.022444863 -0.06376978 0.035865273 -0.029040484 0.013687582 -0.07525795 -0.09894262
-0.043550733 -0.068838485 -0.08045156 0.098420456 0.057757724 -0.013560454 -0.12052649 -0.011203217
-0.035506036 0.08858644 -0.07187773 -0.08731345 -0.074661195 -0.005252127 0.12434002 -0.14421853
-0.03279263 -0.09470987 -0.010225965 0.11325589 -0.15696023 -0.059757605 0.1546252 0.010797612
-0.0640117 -0.1771259 -0.01833327 0.10930006 -0.052540075 -0.07901304 -0.045309648 0.03417421
0.07767245 -0.026328733 -0.13777858 0.0100808125 0.059374217 -0.054526262 -0.12227013 -0.10074773
0.0709082 -0.07706006 -0.062039077 0.08906321 0.11944905 -0.016736574 0.11129318 0.02907467
0.035037227 -0.10520712 0.06820601 -0.0019096049 -0.09294504 -0.10166402 0.032532617 0.040152125
-0.10635549 0.016907342 0.1098848 0.07150756 0.03524812 -0.10435112 0.07830172 -0.11428132
0.12952507 -0.14470592 -0.08815007 0.019340403 -0.10183633 -0.10204244 -0.07186081 -0.055290617
-0.07594379 -0.104822904 0.101780586 0.03322117 -0.11536289 0.00748972 0.046548873 -0.065582626
-0.08226739 0.106396645 -0.03202957 0.10945668 0.07576002 -0.1332987 0.061999474 0.07736036

conv2.bias f4 [24]
00000000: cf72 83bd cab6 e0bd 3700 db3d 910f 3e3d
00000010: 625b 543d c529 d23d 5ed6 03bc faf4 1cbd
00000020: bd86 8c3d a4dc 75bb 84e8 17be 6a4e efbb
00000030: 6ab3 863d dad8 1d3c dde0 f8bc 54e5 adbc
00000040: cd40 94bc b2ba 63bd b3ee 8bbd 35f6 ce3c
00000050: c598 8abd 107e 233d d611 943d e9f8 34bd
-0.064183824 -0.10972364 0.106934 0.046401564 0.051844962 0.10261873 -0.008046715 -0.038319565
0.06861637 -0.0037515545 -0.14834791 -0.007303049 0.06577189 0.009634221 -0.03038066 -0.021227516
-0.018097306 -0.05559797 -0.06832638 0.025263885 -0.0676742 0.039915144 0.072299644 -0.04418269

fc1.weight f4 [128, 384]
00000000: 240c c93c eebc 9c3b 19c1 413c e5ad 5d3d
00000010: 42cf 993c 809a 7bbb b0d8 6638 d914 593d
00000020: ca61 063d c92c 8b3c 5ad7 d13c c5c3 913b
00000030: af5a 293d b23a aabd a093 95bd 2454 063d
00000040: d17a a0bb 43b8 913d 9427 3dbd 0953 5fbc
00000050: 86d4 853c 7f07 dcbc 1cb4 51bc b1e3 803c
00000060: ce16 7abc 4667 a13c 4d02 3c3c 16df e5bc
00000070: 73b0 e1bc d491 d0bd 3518 fa3c 99e0 0abd
00000080: c220 d03c 5cfe 033d f2c8 503d 4593 45bc
00000090: 0b5b e5bc 9d99 b13c 17dd 20bc 40ad 2a3c
000000a0: a14a 80b9 260b 193b 1eaf 043d 3d74 bb3c
000000b0: 2186 6ebc 1f35 adbc 853e 95bb 6df2 d1bc
000000c0: 86b2 043c 60ad c93c 71af 633d 560a f83c
000000d0: 5985 1e3d 9564 4f3b a6da 3dbd 4234 25bd
000000e0: 2e70 c9bc 1c92 a03c 36bb 0a3d 5fac 493d
000000f0: 13cb 513d c101 dcbc aadd 0bbc 8889 e93c
00000100: 0af9 06bd 42cd 8eba 802f 12bd c6e4 a73c
00000110: e6ab 9bbc 6e52 33bd 198c a83b cdb9 f43c
00000120: 9911 3fbc c15f 7abc 7329 2d3d e10e 36bd
00000130: 1507 003d 8c47 9c3c ab16 f9bc 8599 87bb
00000140: 1079 8a3c 7709 683b 1921 14bd 6ac4 ca3b
00000150: c3ca 98ba a13f ac3c d4f5 a53b 9e8b 10bd
00000160: fa40 c6bc 2489 3dbc 96af 41bb 4d31 253c
00000170: b390 03bc fc62 563d 60ec 153d 8451 7c3c
00000180: 4d56 a03b 83be 4cbc c762 50bc aab7 b3bc
00000190: 3a16 afbb 83ea 3f3d 751b 843d ab70 00bd
000001a0: 5599 e53c c2a9 bfbb 5453 02bb 6420 1d3d
000001b0: e844 2c3d 4264 1bbd c7fb 1f3d 1ffd a7bb
000001c0: 426a 09bd 1af7 cf3c 1d0a b63c ac53 85bc
000001d0: 3843 9eb9 70dd 0bbd 3509 0bbd c592 e9bc
000001e0: fd35 b3bc a0ee 353d 042f 9bbc 3a96 56bd
000001f0: 5c4c 243d 484f 143d cbf8 aebc d8de 5c3c
00000200: b06b de3c 772e adbc 4814 3abb 5efe c33c
00000210: 4479 4abd 0a44 ebbb dd45 883d 0e70 0e3d
00000220: 82d3 133c 6245 103d 81fe b93c ce26 d83c
00000230: 2fd4 d73c e9c7 29bd 4005 553d a40a fcbc
00000240: 1543 3a3d 81c8 38bc 4856 dcbc a075 12bd
00000250: 540f babc f80f 38bd bbfa 0d3d a633 ca3c
00000260: 5e44 adbc 1a40 a3bc 7f64 0dbc 7ee2 35bd
00000270: b12c 103d cc57 723c 4221 12bc f34c 74bb
00000280: a00d 073d c9ab 133d 79a6 2c3d 683f 0fbd
00000290: 89fe 683c adbe 133c adb9 543d ee2f 9c3c
000002a0: d563 7c3c ee2e 533c 7059 92bc ddc7 24bd
000002b0: bb4f d83b 322f 673d 4e4e bc3c 2960 2b3d
000002c0: 197e c5ba 0b08 313d 84fc f0ba 6aae 95bb
000002d0: ca2b 4dbd a6d7 f5bc 3be9 173d e413 593c
000002e0: 0deb 10bd 1242 443d 98ca 283d 554d 163d
000002f0: de8a be3c d360 873d d93c 23bd 0819 18bd
00000300: 62c0 15bd 688e d93c a47b e8bb af13 80bb
00000310: 81f1 d53c f00a 523c b1c5 8c3b e382 a53b
00000320: e598 f4bc a58a a43c 2981 453d 0509 0fbd
00000330: cd6f 433d 5d96 fbbb c9c5 5bbd e3d4 783c
00000340: 1207 2b3d ebf4 55bb c45c bcbc dbf5 1a3d
00000350: e9a3 b7bc d1ed 703d c309 263d 4ceb 0fbd
00000360: 86f6 4bbd 266c 993c 6ab8 43bc 9b6e 883d
00000370: e26c 443d 452e 1d3d bf38 39bb b5a2 1a3d
00000380: 4ae5 0a3d e051 053d a499 1b3b f0d5 183d
00000390: 35db 2a3d f01e d0bb 82f5 c73c de7b a13c
000003a0: f369 3e3d 3cba b7bb 35ec c13c 1871 dbbb
000003b0: 89f1 8d3c 85f5 7c3c cdfa 493c 5150 dc3c
000003c0: c53f 87bc 4657 b0bc 1eda 8ebc f18e dbbc
000003d0: ff7a 52bd cc36 3abb 9892 48bd f61f 79bd
000003e0: a358 ca3c 89ec 04bd 5040 803c 8120 9cbc
000003f0: 31fa 90bc e85b b83a 2fd4 0fbd 9f85 723d
0.024541922 0.0047832644 0.011825823 0.054120917 0.018775586 -0.003839165 5.503808e-05 0.052998397
0.032808103 0.016989129 0.025615383 0.0044483864 0.04134625 -0.083119765 -0.07303548 0.032795087
-0.0048974534 0.07115223 -0.046180323 -0.013630637 0.01633669 -0.026859043 -0.012799289 0.015733572
-0.015264226 0.019702565 0.011475158 -0.028060477 -0.027549958 -0.101840645 0.030529121 -0.0339056
0.025406245 0.032224998 0.050972886 -0.012059038 -0.027997514 0.021679694 -0.009818337 0.010417283
-0.00024469665 0.0023352592 0.032393567 0.022882575 -0.014558346 -0.021143494 -0.004554572 -0.025628293
0.008099204 0.024618804 0.055587236 0.030278366 0.03870139 0.0031645645 -0.046351098 -0.04033304
-0.024589624 0.01960092 0.033869945 0.04923665 0.051219057 -0.026856305 -0.008536736 0.028507963
-0.032952346 -0.0010894912 -0.03568983 0.02049483 -0.019002866 -0.043779783 0.005143654 0.029873753
-0.01166191 -0.015281619 0.042275857 -0.044447783 0.031256754 0.019077085 -0.030406317 -0.004138174
0.01690343 0.0035406032 -0.036164377 0.006187965 -0.0011657107 0.021026434 0.0050647054 -0.0352894
-0.024200905 -0.011568341 -0.002955412 0.010082555 -0.008030104 0.052340493 0.036602378 0.015400294
0.0048931004 -0.012496593 -0.012718863 -0.021938164 -0.005343226 0.046854507 0.064505495 -0.03135745
0.028027216 -0.005849094 -0.0019886093 0.03836097 0.0420579 -0.03793741 0.039058473 -0.00512661
-0.0335486 0.025386382 0.02222162 -0.01627525 -0.0003018619 -0.034146726 -0.033944327 -0.028512368
-0.02187633 0.044417024 -0.018943317 -0.05238936 0.040111884 0.03620842 -0.021358868 0.013480864
0.027150959 -0.02114032 -0.0028393436 0.023925003 -0.049432054 -0.0071797417 0.0665395 0.034774832
0.009022595 0.03522242 0.022704365 0.026385691 0.026346294 -0.041450415 0.05200696 -0.030766793
0.04547413 -0.011278273 -0.02689661 -0.035756707 -0.022712387 -0.044937104 0.034662943 0.024682831
-0.021150764 -0.019928027 -0.008629917 -0.044405453 0.03519887 0.01479144 -0.008919062 -0.003727731
0.03297198 0.0360525 0.04215095 -0.03497258 0.014220842 0.009017629 0.051934887 0.019065823
0.015404661 0.012889607 -0.017864913 -0.040229667 0.0066013015 0.056441493 0.022986557 0.041839752
-0.0015067487 0.04322056 -0.0018385802 -0.004567911 -0.05009059 -0.030010056 0.03708766 0.013249371
-0.035380412 0.047914572 0.041208833 0.036694843 0.023259576 0.06610265 -0.03985295 -0.037133247
-0.036560424 0.026557162 -0.0070948172 -0.0039085965 0.026116135 0.0128199905 0.0042960276 0.0050510033
-0.029858062 0.020085642 0.04821888 -0.03492071 0.047714043 -0.007677837 -0.05365542 0.015187475
0.04175479 -0.0032647203 -0.022993453 0.037832122 -0.022417026 0.05882055 0.040536653 -0.035136506
-0.04979565 0.018728327 -0.011945823 0.06661721 0.0479554 0.038374204 -0.0028262583 0.037752826
0.033910073 0.032548785 0.00237427 0.0373134 0.04171296 -0.0063513443 0.02440906 0.019712385
0.04648776 -0.0056069177 0.023672203 -0.0066968314 0.017327087 0.015439396 0.012327862 0.026893767
-0.0165099 -0.02152599 -0.01743799 -0.026801558 -0.05138683 -0.002841401 -0.048967928 -0.060821496
0.024700468 -0.03245214 0.015655667 -0.019058468 -0.017697426 0.0014065476 -0.035114463 0.059209462

fc1.bias f4 [128]
00000000: 7a7c d33d 2091 933d 671b a43d 5ed5 f6bc
00000010: 2b1e dc3c 630a 9d3d c777 e43d 6381 4f3c
00000020: afc1 ac3d 8796 ac3b 6d2b a43d fa2a 3e3c
00000030: 29b4 663d b52d 8c3c 7bb5 173d ef98 963d
00000040: d59a 4a3d 4bbc 973d bd73 57bc 3b42 863d
00000050: bc35 f7bc 805e 2d3d a114 69bc a2f4 be3c
00000060: b632 983b a17c b33d e583 24bd 1ea0 d0bc
00000070: 9077 c13d d44d 213e 17da 3abc 5f58 9b3c
00000080: 1ac1 883d acdb d0bc 55ff 7f3c 94a1 0c3d
00000090: 7a2b 0f3d efa1 2ebc 6091 933d ea42 95bc
000000a0: 7b29 b63c a672 abba 2aeb e4bc ba6a 3cbd
000000b0: f0cb 1cbd 844d 343d 2381 0d3e 63aa 6e3b
000000c0: 0203 a43c 9e43 6bbd 1ad8 e9bc 99bb 443d
000000d0: 9217 c53d 32ed 023d 1e6a cbbc 0310 153d
000000e0: 4b9a 83bd 3cda 683d 25e2 b13d c30c 6abc
000000f0: ad6e c03d 7a94 2f3d cbaf 04bd 08bd 81bb
00000100: 67d8 b13c 7001 fb3d 671c 0ebd f432 dc3b
00000110: 606f 3dbc 23c2 43bd 5f69 153d 1f0e 283b
00000120: b5e0 973d 8a4c 3c3d 889a 40bc 4f73 0abd
00000130: 8e3b e7bc 135f 84bc c5aa c93d 7773 18bb
00000140: 65c1 03bc fcc2 823d 1510 2f3c 577e 083e
00000150: 2dd3 0b3d fe1a c73c 4523 f63c f18d 4ebd
00000160: 7b34 5fbd 3a50 17bd f37e a93b 1582 393c
00000170: 6f38 60bb 3c2c 223d 6976 a33d 03d4 603c
00000180: 840f b53d f28a 693d ed83 c53d f1ea b53d
00000190: 5175 ccbc a195 d6bc 6004 5e3c 8245 be3d
000001a0: bbac 313e 6226 7d3d c03a 86bd f802 ac3d
000001b0: 8174 813d a6f0 253d 6f11 7c3c 3d79 333d
000001c0: f357 cc3d ad30 4a3d b882 0ebd f0b7 813d
000001d0: e2b9 293d 2cb3 2a3d abe2 1b3d 14b9 e83c
000001e0: 8aa4 8ebc 3f92 ebbc 3fde c83c 5873 8fbc
000001f0: 9490 2c3d 337c 7b3c 5fde 6bbd 0335 383d
0.103264764 0.07205415 0.08013039 -0.030131038 0.026869854 0.07667997 0.11155658 0.012665126
0.0843538 0.0052669677 0.08016095 0.011606926 0.056324158 0.017111639 0.037038308 0.073533885
0.049464066 0.07408961 -0.013150153 0.06555601 -0.03017699 0.04232645 -0.01422611 0.02331001
0.004644717 0.087640055 -0.040164847 -0.025466975 0.09446633 0.15752345 -0.011404536 0.018963037
0.06677456 -0.025495373 0.015624841 0.03433378 0.03495357 -0.010658725 0.072054625 -0.018220384
0.022236576 -0.0013080433 -0.027944166 -0.04600022 -0.038280427 0.044019237 0.13818793 0.0036417476
0.020020965 -0.05743753 -0.028545428 0.04803047 0.09623636 0.03196449 -0.024830874 0.036392223
-0.064259134 0.05684875 0.08685712 -0.014285269 0.0939611 0.042866208 -0.03239421 -0.003959302
0.021709634 0.122561336 -0.034695055 0.0067199413 -0.011562198 -0.047792565 0.036477443 0.0025643182
0.07415906 0.04597143 -0.011755593 -0.033801373 -0.02822664 -0.016158616 0.09847025 -0.0023262182
-0.008041714 0.063848466 0.010684987 0.13329445 0.03413694 0.024304863 0.030046115 -0.050428335
-0.05449341 -0.036941744 0.005172604 0.011322518 -0.0034213325 0.039592966 0.07981569 0.0137224225
0.0884085 0.057017274 0.096443035 0.08882702 -0.024958285 -0.026194395 0.013550848 0.09290601
0.17351048 0.061804183 -0.065541744 0.08399004 0.063210495 0.040512703 0.015385016 0.043816794
0.099777125 0.049362827 -0.034792632 0.063339114 0.041437037 0.041674778 0.038057964 0.028408565
-0.017412443 -0.028756259 0.024520038 -0.017511055 0.042130068 0.015349436 -0.057585116 0.04497243

fc2.weight f4 [2, 128]
00000000: 8798 943d eff8 d4bc 0bec 853d ea72 9c3d
00000010: 9431 d03c 8f4d 6cbd cf4a 703c 58f5 493d
00000020: 4b6a 3ebd e9f1 f13c ea66 8c3c 8764 d63c
00000030: 7e33 84bc c313 ad3d f1d2 3dbd 9cd8 42bd
00000040: 9b22 1e3d 0518 7f3c dfc3 4e3d 571b 19bd
00000050: 56ad 843d ae88 e3bc 9407 2dbd f54b 81bc
00000060: a135 8b3d 6cb4 2dbd d10e 7dbd fe62 863c
00000070: 0776 38bd 76d3 6b3d 3e40 363d 2884 e5bc
00000080: af22 9dba 22d4 5abc b572 53bd 6118 e03c
00000090: 83f2 033d 0a12 82bc da1f 8fbd 5b81 3bbd
000000a0: b87e 37bd dc6f e43c 6c1e 82bd c67f 2abd
000000b0: 812b 763d e157 5b3d c874 143d 8288 9ebd
000000c0: 85f2 a73a 73c8 06bd 2628 52bd e618 93bd
000000d0: 544a a0bd ebf3 61bd 154d f43c 5622 aabd
000000e0: 708b 4fbd fa25 9e3d 9c70 653d bcde 63bd
000000f0: a42f 47bd f6cf 763d 5310 403d b648 57bd
00000100: 2f6a 4fbd 51df fe3c 46bb 41bd 257e 93bd
00000110: 9e2a 493d 4768 99bd 1244 843d 3d62 d83c
00000120: 8907 9bbd 9725 093d 5be1 393d 7201 303c
00000130: 92be 3b3c 7348 d03c 6aaf ddbc 7e37 293d
00000140: ac0e a1bd 6122 00bd 6b45 c4bc 4aba 643d
00000150: 70f0 553d 0d33 503d 8b60 23bd 3e7b 033d
00000160: cc23 0f3d 62e3 8d3d be7e 2ebd 4541 9a3b
00000170: 9af4 29bd f238 b33c 67ad 02bd d07b 193d
00000180: e643 cfbd a083 293c 22eb 973a a1b1 2ebd
00000190: e373 5ebd ea1a bcbc 6eb5 bb3b 63e4 02bd
000001a0: 9aae 853d 24d0 653b 7939 d7bb 3a73 a63c
000001b0: 2b02 43bc 30d9 9cbc 58df 63bd 047e 3cbd
000001c0: 355b 22bc c4e6 4fbd 1979 fbbc 7c4c d1b9
000001d0: 85ba 97bd 1e1d 4e3d 41a0 993d 4231 193d
000001e0: eea0 843c 3990 8ebd 44ff 1abd bcdf 8e3d
000001f0: dc96 b83c 2f20 ae3b 36aa ec3c eb34 743c
00000200: 941d a3bd f330 5fbd 3e6c 93bd 1891 b2bc
00000210: b247 ed3c eeb0 97bd 9458 83bd 305d 653d
00000220: b724 55bd f53b 9e3c ec82 27bd 9084 263c
00000230: 3c37 96bd 40c7 a23d 6665 a9bc f3fe 9dbd
00000240: 9ade b7bd 2348 2abd 7048 a03d bbcf 06bd
00000250: d5f3 813d 7db0 81bc e223 dd3c 34ea c73d
00000260: c56b b5bd 139c 4cbd c3f0 903d 476f 07bd
00000270: 613b 90bd 99bf 85bd 21fc 77bd 7c82 8f3d
00000280: 8ab5 19bd 10fe 8e3c fb85 98bd 20b3 eb3d
00000290: bb67 4dbd ef68 9cbd 0fe7 94bd bf61 a13c
000002a0: 052f b73c 89f7 5c3d 69e5 2b3d 0897 8a3d
000002b0: cbc8 05bc e57d 84bd 9bcd bdbd 565e 683c
000002c0: caa6 b1bd 6730 5b3d e9ae 893c 9b04 56bd
000002d0: fb35 afbd 54cd 5c3d cf6a 7d3d 0c98 763c
000002e0: 8c8b 443d 9def 063d 70a3 75bd 7b52 333d
000002f0: 78bc c6bd e8c6 853d e1bd 04bd 6429 9b3d
00000300: e69e 4d3d 99ca 90bd 5ed0 873d c553 a6b9
00000310: 4921 8d3d 3f3f 753d b184 7dbd d496 d5bc
00000320: 7d7b 52bd 1250 923d 2b58 13bb 1591 2f3c
00000330: 0f0e 153d 7834 da3c cdf8 99bd 68a3 c4bc
00000340: 42ad 2f3a a80d 82bd 7abe 3ebc 69f0 84bd
00000350: 8476 8fbd c1fc 3a3d 2fda 99bd f24a 3ebb
00000360: 837f 303d 8a74 bdbc 98b4 7f3d 3dee 343c
00000370: 71bd cfbc 0890 29bd 38f8 a0bd 615d 373d
00000380: b063 36bd c527 9c3d bd4b 80bd d357 81bd
00000390: 6521 283d 8009 51bd 115c 653d e849 b2bd
000003a0: d1a0 96bd 66b7 8a3d 6e91 df3b 3c43 aebc
000003b0: 08ec 6fbd 49b0 f03d 36eb c8bc b3f0 44bd
000003c0: 7ca7 ddbd b91a 883c 85aa ca3a 8c9c 693d
000003d0: 7404 e23c a42e f5bb 112d c63c 504f c43d
000003e0: 90d2 efbb bb73 db3c 965b a4bd 1e51 b2bb
000003f0: c4ce 933d 03f6 8abd afa5 6a3d 1227 debc
0.07255655 -0.025997607 0.06539162 0.076391056 0.025414266 -0.057691153 0.014666273 0.049306244
-0.046488088 0.029534297 0.017138917 0.026170982 -0.016137835 0.08451035 -0.046343748 -0.047569856
0.03860722 0.015569692 0.050479766 -0.03737959 0.06478374 -0.027775135 -0.042243555 -0.01578329
0.06797338 -0.04240839 -0.06178171 0.016404625 -0.045034435 0.05757471 0.04449486 -0.028017119
-0.0011988486 -0.0133562405 -0.051623065 0.027355375 0.0322137 -0.015877742 -0.06988497 -0.04577766
-0.044798583 0.02788537 -0.06353459 -0.04162576 0.060100082 0.053550605 0.036244184 -0.077408805
0.0012813365 -0.032906007 -0.05130782 -0.071824834 -0.07826677 -0.05516426 0.029821912 -0.0830733
-0.050670087 0.07722087 0.056015596 -0.055632338 -0.048629418 0.06025692 0.046890568 -0.052559577
-0.050638374 0.031112345 -0.04729774 -0.072017945 0.04911291 -0.074905924 0.06458296 0.026414031
-0.075697966 0.033483114 0.04538093 0.010742532 0.01145901 0.025425171 -0.027061183 0.041312687
-0.078641266 -0.031282786 -0.023958882 0.05584172 0.052231252 0.050829936 -0.039886992 0.032099955
0.034946248 0.069281355 -0.04260134 0.0047074878 -0.041493036 0.02187774 -0.03190365 0.037471592
-0.101203725 0.010346323 0.0011590461 -0.04264987 -0.054309737 -0.022962052 0.005728415 -0.031956088
0.06527443 0.0035066688 -0.0065681306 0.020318616 -0.011902372 -0.019146532 -0.05563292 -0.046018615
-0.009909441 -0.050757185 -0.030697392 -0.00039920572 -0.07408623 0.050320737 0.07501269 0.03740049
0.016190019 -0.06961102 -0.037841097 0.06976268 0.022532873 0.005313895 0.028889757 0.014905195
-0.07964626 -0.05449004 -0.0719838 -0.021797702 0.028964851 -0.074067935 -0.06413379 0.055997074
-0.052036967 0.0193157 -0.04089634 0.010163441 -0.07334754 0.0794816 -0.020678233 -0.07714643
-0.08978005 -0.0415727 0.07826316 -0.03291295 0.063453354 -0.015831226 0.02699465 0.097614676
-0.08858446 -0.04995353 0.07077172 -0.033065107 -0.07042576 -0.06530685 -0.060543183 0.0700731
-0.037526645 0.01745513 -0.0744743 0.11508775 -0.050147753 -0.07637202 -0.072706334 0.01969993
0.022361288 0.053947005 0.04196683 0.06767088 -0.008165549 -0.06469325 -0.09267732 0.014182648
-0.086743906 0.053512957 0.016807036 -0.052250486 -0.08555218 0.053906754 0.06186944 0.015050899
0.047984645 0.032943357 -0.05997032 0.04377983 -0.09703916 0.06532079 -0.032407645 0.07576254
0.050200365 -0.070698924 0.0663154 -0.000317244 0.06891114 0.05987477 -0.061894123 -0.026072897
-0.0513873 0.071441785 -0.0022482972 0.010715743 0.03639036 0.026636347 -0.07518158 -0.0240037
0.00067015376 -0.06350261 -0.011642093 -0.06491167 -0.07005027 0.0456512 -0.07512318 -0.002903637
0.043090355 -0.02312686 0.062428087 0.011043129 -0.025358887 -0.041397125 -0.07859844 0.044766787
-0.044528663 0.07624773 -0.06264446 -0.06315579 0.041047473 -0.05103445 0.055996004 -0.08705503
-0.07354892 0.06773262 0.0068227565 -0.021272294 -0.058574706 0.11752374 -0.02452622 -0.04808111
-0.10822961 0.016614305 0.0015462196 0.05703406 0.027590014 -0.0074823666 0.024191411 0.0958544
-0.007318802 0.026788583 -0.08025281 -0.005441799 0.07217172 -0.06785204 0.057286914 -0.02711824

fc2.bias f4 [2]
00000000: 7903 61bd 085d cfbc
-0.054934952 -0.025312915

qnn.weight f4 [4]
00000000: 9119 0dbf 3900 1e3f 331e 003f f94e b3be
-0.55117136 0.6171909 0.5004608 -0.3502119

qnn._weights f4 [4]
00000000: 9119 0dbf 3900 1e3f 331e 003f f94e b3be
-0.55117136 0.6171909 0.5004608 -0.3502119
