models/classification/control/mnist/mnist_0v1_2qubits_r1.pt (torch, 207416 bytes, 10 tensors)

conv1.weight f4 [2, 1, 5, 5]
-0.04464672 -0.15485461 0.027951298 0.116013415 -0.16323896 0.020151686 -0.16710587 -0.09684291
0.07585088 0.1075764 -0.14897996 0.047692116 -0.045854155 0.17104504 -0.08811321 -0.046105973
-0.1262163 -0.11454924 0.08657324 -0.09815466 0.032900948 0.032883573 -0.10501215 0.2163983
0.0905454 -0.0048033735 -0.05590207 -0.032593258 -0.17485759 0.06204559 0.16355199 -0.1784502
0.04926232 0.1521838 -0.078215435 -0.14259896 -0.10345958 -0.023971427 0.06284936 -0.12610342
0.14447397 -0.14698422 0.1030648 -0.10074328 -0.05633755 -0.031822104 -0.07084343 -0.15410425
0.0525156 0.19408059
00000000: 7bdf 36bd 3592 1ebe 1ffa e43c 7198 ed3d
00000010: 1d28 27be 2615 a53c cd1d 2bbe 9355 c6bd
00000020: b557 9b3d 0451 dc3d 348e 18be cf58 433d
00000030: 91d1 3bbd 6e26 2f3e b374 b4bd 9ed9 3cbd
00000040: d93e 01be cb98 eabd 504d b13d 4f05 c9bd
00000050: 25c3 063d edb0 063d 9c10 d7bd 8497 5d3e
00000060: de6f b93d 9e65 9dbb 92f9 64bd 8280 05bd
00000070: de0d 33be 8423 7e3d 2c7a 273e a6bb 36be
00000080: 49c7 493d 12d6 1b3e 6a2f a0bd 7605 12be
00000090: 9ee2 d3bd ba5f c4bc 2ab7 803d 4121 01be
000000a0: fcf0 133e 0883 16be a313 d33d 7e52 cebd
000000b0: 34c2 66bd e557 02bd 5c16 91bd 81cd 1dbe
000000c0: 991a 573d 10bd 463e

conv1.bias f4 [2]
0.09885283 -0.13178575
00000000: 5a73 ca3d d8f2 06be

conv2.weight f4 [24, 2, 5, 5]
-0.096054636 0.091349475 -0.0009462626 0.11606821 -0.09252771 -0.1462498 -0.09621036 0.0891875
-0.05837574 -0.040423337 0.094684854 -0.055894885 0.01640836 -0.109581135 0.012689594 -0.002859081
-0.10156866 0.10790594 -0.024989717 0.07358137 0.080259554 0.06709454 -0.1332683 0.08359248
-0.035553485 0.091174334 0.09138072 -0.12030671 -0.009264246 -0.08729358 0.08117287 0.011232689
0.079447694 -0.08730486 -0.02142352 -0.066142365 -0.07982701 0.05698466 0.10430691 -0.09762237
-0.14003055 0.11066423 0.042847008 -0.076992124 -0.0038215707 0.024270179 0.0668979 -0.06576213
0.03964353 0.07962819 0.110962756 0.1400476 -0.0004628013 -0.18735158 0.026124584 -0.018072162
-0.02722521 -0.008679627 -0.080774136 -0.12477533 -0.10746502 0.051425558 0.048281223 -0.15798806
-0.044308122 -0.011463002 -0.053544942 -0.08497931 -0.010451345 -0.03017392 0.09152779 0.07215148
0.0021678773 -0.026397124 0.02036427 0.030331023 -0.03819335 -0.12745062 -0.12563737 0.11112769
0.10964834 0.11868171 -0.018948646 0.06339431 0.11401889 0.13273153 -0.0033325865 -0.011245075
-0.0895777 -0.041051935 0.0242101 -0.107414626 -0.017181108 -0.16838595 0.044943083 -0.10591664
0.10669558 0.008113811 0.035320163 -0.021760285 0.1097647 -0.003273293 0.09930159 0.1013005
-0.17056656 -0.088800766 -0.029568467 0.12245212 -0.15670004 -0.15497786 0.054373644 -0.024614265
0.08527282 -0.09184456 -0.065209605 0.07746559 -0.07637126 -0.022291973 -0.049499806 0.02693972
-0.024606572 -0.012221486 0.09429927 -0.06941316 0.016949546 -0.11758337 0.0061414526 -0.12970404
0.08459885 -0.09324271 0.1393906 -0.05882869 -0.07360616 -0.016580949 0.13573074 -0.025312817
0.006197286 0.009060016 0.08614446 -0.016987192 0.115275234 -0.10807194 0.06593734 0.027181791
-0.03163744 -0.08806462 -0.13975962 0.123380765 -0.09234501 0.09319286 0.054763846 -0.12922932
0.048576888 0.013259179 -0.019360863 0.054537393 0.04353763 -0.121787116 -0.070201255 -0.0022904056
0.083118245 0.08428481 -0.050125454 0.053529594 0.048316635 -0.01894316 -0.02357207 -0.06748304
-0.090190224 -0.006919461 0.0700669 -0.10823787 -0.056399807 -0.017644336 -0.10072825 0.061193537
-0.06775986 0.0123672 -0.022778036 0.13401586 -0.060223468 -0.0006098567 -0.037830696 -0.09846854
0.11308759 -0.0918274 0.052046575 0.14815234 0.08326794 -0.10797592 0.08545683 -0.052146275
0.060621127 -0.13585609 -0.10491633 -0.025382644 -0.018263364 -0.033437613 -0.094734125 0.066457234
0.07748607 -0.12350953 -0.024430657 -0.007811074 -0.15157491 -0.059161868 -0.018761808 0.021235311
0.110749476 -0.15330878 0.012742959 0.05551404 -0.054629724 -0.11722104 0.09786584 -0.05052686
-0.13347432 -0.1063892 0.04357929 0.024830386 -0.014799557 0.08441666 0.030517383 -0.010932418
0.1425491 0.13959676 0.13435449 0.06148876 -0.07548794 0.057888027 0.068677515 -0.012468612
-0.11264389 0.078071944 0.11485317 -0.07388964 0.110253096 -0.07436882 0.060603455 -0.019856626
0.053712327 -0.07362179 0.11860024 0.008843673 0.1837567 -0.06288762 0.02447086 -0.0791566
-0.038824618 -0.0120916935 -0.014688507 0.09167596 0.028133888 0.020996291 -0.0006411886 0.007833007
00000000: 4bb8 c4bd 6f15 bb3d 9c0e 78ba 2bb5 ed3d
00000010: 2b7f bdbd 82c2 15be f009 c5bd f0a7 b63d
00000020: 661b 6fbd f192 25bd 22ea c13d 09f2 64bd
00000030: d36a 863c 136c e0bd 04e8 4f3c 6b5f 3bbb
00000040: 3b03 d0bd cafd dc3d 3cb7 ccbc d4b1 963d
00000050: 1f5f a43d dd68 893d 7c77 08be 8932 ab3d
00000060: 88a0 11bd 9cb9 ba3d d125 bb3d 5d63 f6bd
00000070: 10c9 17bc fac6 b2bd f63d a63d 5009 383c
00000080: 79b5 a23d e4cc b2bd 6180 afbc a675 87bd
00000090: 587c a3bd bf68 693d dc9e d53d 3dee c7bd
000000a0: 2b64 0fbe eea3 e23d 5880 2f3d 0cae 9dbd
000000b0: 5173 7abb 41d2 c63c c401 893d 4cae 86bd
000000c0: 4161 223d 1b14 a33d 7140 e33d a368 0f3e
000000d0: 24a4 f2b9 18d9 3fbe 3903 d63c 120c 94bc
000000e0: 6707 dfbc ff34 0ebc e96c a5bd 358a ffbd
000000f0: 9f16 dcbd 9ba3 523d 88c2 453d 9fc7 21be
00000100: 6f7c 35bd 51cf 3bbc f151 5bbd a209 aebd
00000110: 1e3c 2bbc 4c2f f7bc ec72 bb3d 28c4 933d
00000120: f212 0e3b c83e d8bc f8d2 a63c c478 f83c
00000130: a170 1cbd 6a82 02be 15a7 00be ea96 e33d
00000140: 4f8f e03d 650f f33d 313a 9bbc e0d4 813d
00000150: bc82 e93d c6ea 073e 8667 5abb 433d 38bc
00000160: 8374 b7bd 1326 28bd 4254 c63c 33fc dbbd
00000170: 65bf 8cbc 5e6d 2cbe 3d16 383d d3ea d8bd
00000180: 3683 da3d caef 043c e0ab 103d a042 b2bc
00000190: 51cc e03d be84 56bb a25e cb3d a376 cf3d
000001a0: 00a9 2ebe 2ddd b5bd 9239 f2bc 2dc8 fa3d
000001b0: fa75 20be 84b2 1ebe e6b6 5e3d dba3 c9bc
000001c0: 84a3 ae3d 0019 bcbd 9d8c 85bd 47a6 9e3d
000001d0: 8968 9cbd a89d b6bc 4fc0 4abd b0b0 dc3c
000001e0: b993 c9bc a13c 48bc fa1f c13d 7d28 8ebd
000001f0: c6d9 8a3c 8dcf f0bd 3d3e c93b 23d1 04be
00000200: 2942 ad3d 09f6 bebd 69bc 0e3e 5af6 70bd
00000210: d4be 96bd c5d4 87bc 00fd 0a3e d35c cfbc
00000220: 9a12 cb3b 7670 143c 826c b03d b928 8bbc
00000230: 6c15 ec3d d254 ddbd 280a 873d 59ac de3c
00000240: 4396 01bd 395b b4bd 251d 0fbe 0eaf fc3d
00000250: 611f bdbd e6db be3d 0e50 603d b154 04be
00000260: 8ff8 463d 073d 593c ac9a 9ebc 9a62 5f3d
00000270: 8454 323d 866b f9bd adc5 8fbd a11a 16bb
00000280: e639 aa3d 849d ac3d 5950 4dbd d941 5b3d
00000290: aae7 453d b02e 9bbc 371a c1bc 8c34 8abd
000002a0: a7b5 b8bd a5bc e2bb 3c7f 8f3d d1ab ddbd
000002b0: 7c03 67bd db8a 90bc 9d4a cebd 13a6 7a3d
000002c0: aec5 8abd cc9f 4a3c 0199 babc 743b 093e
000002d0: e2ac 76bd cade 1fba 5cf4 1abd e0a9 c9bd
000002e0: 779a e73d 0110 bcbd ca2e 553d 3fb5 173e
000002f0: 6288 aa3d 7b22 ddbd fe03 af3d 5597 55bd
00000300: dc4d 783d dc1d 0bbe 5fde d6bd 43ef cfbc
00000310: 0d9d 95bc e1f5 08bd f703 c2bd bb1a 883d
00000320: 04b1 9e3d 91f2 fcbd cd22 c8bc 0af4 ffbb
00000330: 7436 1bbe b753 72bd 5db2 99bc adf5 ad3c
00000340: 9fd0 e23d fafc 1cbe d8c7 503c b162 633d
00000350: 6bc3 5fbd 9611 f0bd e36d c83d 41f5 4ebd
00000360: 7ead 08be 95e2 d9bd 3380 323d 1869 cb3c
00000370: d779 72bc a4e2 ac3d 97ff f93c e21d 33bc
00000380: 64f8 113e 74f2 0e3e 3994 093e a3db 7b3d
00000390: 6c99 9abd ff1b 6d3d cca6 8c3d 2649 4cbc
000003a0: d7b1 e6bd 2fe4 9f3d 2438 eb3d 7453 97bd
000003b0: 60cc e13d ae4e 98bd 543b 783d 5daa a2bc
000003c0: 7501 5c3d 05c7 96bd afe4 f23d 0ee5 103c
000003d0: b72a 3c3e 39cb 80bd 1d77 c83c db1c a2bd
000003e0: 9006 1fbd 3d1c 46bc 10a8 70bc 9bc0 bb3d
000003f0: 0a79 e63c 6a00 ac3c 7015 28ba 0356 003c

conv2.bias f4 [24]
-0.14056481 0.072147846 0.011135051 0.0067063635 0.0073238807 -0.012486871 0.043888845 0.054469556
-0.09433827 0.00652824 0.013474812 0.080894634 0.08453306 -0.026426414 -0.06342208 -0.10615857
0.033121835 0.033940975 0.086441055 -0.072403885 0.06544564 0.020545764 -0.014967403 -0.08630521
00000000: 39f0 0fbe 40c2 933d ca6f 363c 0ec1 db3b
00000010: 2afd ef3b bc95 4cbc cac4 333d 781b 5f3d
00000020: 6c34 c1bd d9ea d53b 75c5 5c3c 16ac a53d
00000030: ab1f ad3d 357c d8bc 6fe3 81bd aa69 d9bd
00000040: c3aa 073d b105 0b3d 0208 b13d 7d48 94bd
00000050: 5d08 863d 974f a83c d739 75bc c9c0 b0bd

fc1.weight f4 [128, 384]
0.0023975186 -0.020601017 -0.006762679 0.011601396 0.018529266 0.0072407313 -0.022448052 0.006372977
0.0266819 -0.015752457 -0.02193482 -0.03336472 -0.025439434 -0.025052946 0.017895944 0.016608395
-0.0446024 -0.009261057 0.038033903 -0.021104285 0.025983678 -0.03227283 -0.028682511 0.024631914
-0.023732187 0.0163078 -0.031574737 0.0069106114 0.01404502 -0.05214694 0.017488545 0.034031596
-0.04037599 -0.04122983 -0.059956066 -0.03136783 -0.0008424926 0.024788683 -0.02952594 0.0023991496
0.021009732 -0.013992048 -0.022045704 -0.02885317 -0.00039899294 0.034404274 -0.08118336 -0.0265622
-0.046772517 -0.023181304 -0.016406586 -0.038173728 -0.020442294 -0.02967608 -0.02720386 -0.040350273
-0.043462157 -0.03174115 -0.04313305 -0.014768114 -0.039470803 -0.02847204 -0.0025272162 -0.041343134
-0.051901545 -0.00082651066 0.018707054 0.025331788 -0.061584115 0.02730757 -0.043391425 0.023450287
-0.051563576 0.023424644 0.02714959 -0.00062763283 0.04259883 0.0014019917 -0.00029926913 0.038006835
-0.029781532 -0.06179953 0.007036381 0.003216473 -0.021915182 0.009234876 -0.050956775 -0.019669537
0.020905107 -0.044568297 0.020759465 0.006903701 -0.050450444 -0.022342607 -0.073497035 0.035610735
-0.045173183 -0.03749155 -0.062396538 -0.043568715 -0.027597005 0.011541225 -0.03602028 0.013002683
-0.013008895 -0.00937477 -0.04342102 -0.057383116 -0.014517946 -0.057432726 0.014319116 0.023716515
-0.037959278 0.017690282 0.0035744945 0.03928209 0.041232646 -0.018031288 -0.040025756 -0.049357787
0.032008883 0.036249418 -0.06163379 0.025407055 -0.01520233 -0.0022237215 0.008544049 -0.033787988
0.0134175075 -0.023263287 -0.04544449 -0.0099617895 -0.0030477727 0.044144157 0.032663286 0.020009719
0.039738853 -0.07356933 -0.0655459 -0.05068708 0.07414127 -0.05502121 -0.024044959 0.044942833
0.005534318 -0.040117275 -0.07199068 -0.026086925 -0.061311405 -0.06881999 0.00785228 -0.044034436
-0.02473139 -0.08651805 0.011217615 -0.031519677 -0.02841203 -0.05842608 0.006292104 -0.027397983
0.032666303 0.035212804 0.041625243 -0.028771915 -0.016311318 0.004578729 -0.030728804 -0.005065676
0.0028562096 -0.024495823 0.01416389 0.038406253 0.035471965 -0.042871922 -0.013280921 -0.028443756
0.031785786 -0.0262609 -0.046622697 -0.033938393 -0.017980514 -0.01364213 -0.05502668 -0.054481898
0.00061702175 0.02857806 -0.041585203 -0.016036425 -0.053249333 -0.043672808 0.02956997 -0.022379873
-0.062833324 -0.019644486 0.024534427 0.017347906 -0.0126591455 -0.040971678 -0.055786148 0.024121726
0.030852871 -0.020683534 -0.018099831 0.006337207 -0.04520643 0.02264785 -0.06368502 -0.009873287
-0.019913845 0.026830945 -0.008358941 -0.019717852 -0.028281135 0.036858596 -0.015004059 -0.01980285
-0.030113332 -0.002030945 -0.033587836 0.01613641 -0.030591622 0.0020897775 -0.010256401 -0.00674066
-0.05554616 0.014720213 0.01108885 -0.062184636 -0.01653641 0.048310157 0.051628493 -0.068417974
-0.04272582 0.03391736 0.05212463 -0.0064784023 0.0009853098 0.03912329 0.028493384 -0.064848006
-0.016527921 -0.006826765 0.010943715 -0.0064949966 -0.035114188 0.059296124 0.0050723488 -0.04076068
-0.02325994 0.03879769 -0.0018780491 0.023626197 -0.043752763 0.024967324 -0.043297224 0.004346188
00000000: b01f 1d3b 77c3 a8bc 7799 ddbb c813 3e3c
00000010: b0ca 973c a843 ed3b fae4 b7bc 68d4 d03b
00000020: 0094 da3c 4c0b 81bc a7b0 b3bc 72a9 08bd
00000030: 5c66 d0bc d63b cdbc 849a 923c 540e 883c
00000040: 02b1 36bd b0bb 17bc 70c9 1b3d e5e2 acbc
00000050: b9db d43c 8430 04bd 96f7 eabc dec8 c93c
00000060: 016a c2bc ef97 853c 8354 01bd 6972 e23b
00000070: 151d 663c 0898 55bd 2344 8f3c b764 0b3d
00000080: 4b61 25bd 9ce0 28bd 7e94 75bd 8e7b 00bd
00000090: b9da 5cba a311 cb3c 62e0 f1bc 0d3b 1d3b
000000a0: 9a1c ac3c e73e 65bc 3199 b4bc 7c5d ecbc
000000b0: ed2f d1b9 7feb 0c3d 7643 a6bd f998 d9bc
000000c0: 8a94 3fbd b8e6 bdbc 1b67 86bc 0e5c 1cbd
000000d0: 9976 a7bc 401b f3bc a1da debc 5446 25bd
000000e0: 6005 32bd 0203 02bd 48ac 30bd f6f5 71bc
000000f0: 23ac 21bd 323e e9bc a79f 25bb 6b57 29bd
00000100: b796 54bd 31aa 58ba 893f 993c 9c84 cf3c
00000110: a03f 7cbd 20b4 df3c 35bb 31bd d11a c03c
00000120: 5434 53bd 0ae5 bf3c d168 de3c ba87 24ba
00000130: 1c7c 2e3d 09c3 b73a 39e7 9cb9 0ead 1b3d
00000140: 66f8 f3bc 8121 7dbd 7191 e63b 76cb 523b
00000150: 7887 b3bc e14d 173c 0db8 50bd 0222 a1bc
00000160: 3041 ab3c 3f8d 36bd c10f aa3c 7138 e23b
00000170: 20a5 4ebd d807 b7bc 9d85 96bd 90dc 113d
00000180: 8407 39bd bd90 19bd 8393 7fbd 1c75 32bd
00000190: 1d13 e2bc 6817 3d3c 008a 13bd 3509 553c
000001a0: 4323 55bc a398 19bc 3dda 31bd 8f0a 6bbd
000001b0: aedc 6dbc 943e 6bbd ba9a 6a3c 2349 c23c
000001c0: 307b 1bbd 36eb 903c 1142 6a3b 42e6 203d
000001d0: 90e3 283d 5ab6 93bc 0cf2 23bd 642b 4abd
000001e0: bf1b 033d 457a 143d b773 7cbd 7522 d03c
000001f0: 3213 79bc dbbb 11bb 57fc 0b3c 4665 0abd
00000200: 1bd5 5b3c a692 bebc 0024 3abd c636 23bc
00000210: 24bd 47bb 81d0 343d f0c9 053d 6ceb a33c
00000220: 35c5 223d 84ab 96bd ee3c 86bd 419d 4fbd
00000230: 61d7 973d ec5d 61bd eff9 c4bc fa15 383d
00000240: 3959 b53b 0352 24bd da6f 93bd 3fb4 d5bc
00000250: ab21 7bbd 7ff1 8cbd d9a6 003c 745d 34bd
00000260: 7c99 cabc 6030 b1bd 16ca 373c c71a 01bd
00000270: 58c0 e8bc 2f50 6fbd fe2d ce3b bc71 e0bc
00000280: 1acd 053d 4d3b 103d 3b7f 2a3d 14b3 ebbc
00000290: 509f 85bc 2a09 963b f9ba fbbc f8fd a5bb
000002a0: 3f2f 3b3b 77ab c8bc a90f 683c e04f 1d3d
000002b0: 0d4b 113d 789a 2fbd 3898 59bc e102 e9bc
000002c0: d031 023d 1921 d7bc 71f7 3ebd fc02 0bbd
000002d0: df4b 93bc 3e83 5fbc a863 61bd 6928 5fbd
000002e0: a1bf 213a 891c ea3c 3f55 2abd d25e 83bc
000002f0: f91b 5abd 42e2 32bd b93c f23c ff55 b7bc
00000300: c2ae 80bd 79ed a0bc 6cfc c83c 321d 8e3c
00000310: 4e68 4fbc ebd1 27bd 0480 64bd ed9a c53c
00000320: 29bf fc3c 8470 a9bc 1946 94bc 58a8 cf3b
00000330: 612a 39bd fc87 b93c 4b6d 82bd 91c3 21bc
00000340: 5c22 a3bc 92cc db3c f1f3 08bc 5587 a1bc
00000350: d7ad e7bc 0af9 163d 96d3 75bc 9639 a2bc
00000360: 3cb0 f6bc 9a19 05bb 6693 09bd 8130 843c
00000370: 489b fabc a6f4 083b 770a 28bc c1e0 dcbb
00000380: 5f84 63bd 0c2d 713c 02ae 353c 51b5 7ebd
00000390: 5e77 87bc dfe0 453d 6678 533d b91e 8cbd
000003a0: 4501 2fbd eeec 0a3d a380 553d c748 d4bb
000003b0: 8325 813a be3f 203d f56a e93c 08cf 84bd
000003c0: 9065 87bc 0eb3 dfbb 454d 333c fbd3 d4bb
000003d0: e5d3 0fbd 7ee0 723d f235 a63b acf4 26bd
000003e0: a18b bebc 54ea 1e3d df28 f6ba ba8b c13c
000003f0: 1936 33bd 4688 cc3c 6e58 31bd 786a 8e3b

fc1.bias f4 [128]
0.057966225 -0.050787337 -0.048238624 -0.060573544 0.041208234 0.08275124 -0.025550598 0.101496406
-0.0035345112 0.013810817 -0.06182355 0.03917685 -0.04537119 0.04027649 0.07004862 0.057300113
-0.039536417 -0.041541167 0.050016064 0.022188408 -0.028834196 0.07247371 -0.04231251 -0.02534801
0.06749152 -0.009405714 -0.042769082 0.031080138 0.033546865 0.016394125 -0.039851747 0.076984584
0.092082374 -0.013778834 0.043529782 0.09654646 -0.00021723268 -0.036854807 0.020638332 -0.0014820127
0.018497285 0.07963737 -0.016710404 0.014160094 -0.0050136126 0.08790538 0.07949708 0.055576988
-0.00808526 0.088386595 0.10384523 0.011847458 0.082228385 0.039048973 0.09415274 0.09739553
0.0531531 0.05109376 -0.036280878 0.098471165 -0.023877446 -0.028012443 -0.053087376 0.10485046
-0.01882935 0.0094560655 0.065553315 -0.024865247 0.060984787 0.01761901 0.06479506 0.05670022
0.09587659 0.050786335 0.06693857 0.034733895 0.086521 0.07143196 0.056708768 0.10142615
-0.055961896 -0.054539498 0.025892556 0.054612715 0.045502856 -0.0009902114 0.10303617 -0.08006259
-0.04676565 0.11236128 0.05710675 0.11367844 -0.03499057 0.053178187 0.07056719 -0.00018157359
0.064707614 0.06623565 0.052160766 0.07173826 0.0065885247 0.06725163 0.10281867 0.027771762
-0.04399659 0.07222007 0.038598817 -0.01663598 0.036722053 -0.04460813 0.06519398 -0.019834131
0.054521583 0.09486276 -0.00758601 0.04950134 0.07323913 0.08684025 -0.026165778 0.040062588
0.058876887 -0.040392015 -0.0022232118 0.031317193 -0.0017754583 -0.034440823 0.02455744 0.09483561
00000000: fe6d 6d3d 6206 50bd dd95 45bd f71b 78bd
00000010: f7c9 283d 7b79 a93d 7d4f d1bc 59dd cf3d
00000020: 42a3 67bb c446 623c b13a 7dbd e877 203d
00000030: 24d7 39bd f6f8 243d a775 8f3d 86b3 6a3d
00000040: f0f0 21bd 1227 2abd a5dd 4c3d 77c4 b53c
00000050: b135 ecbc 196d 943d e24f 2dbd a1a6 cfbc
00000060: fe38 8a3d 6d1a 1abc a22e 2fbd c69b fe3c
00000070: 7068 093d f94c 863c 963b 23bd 18aa 9d3d
00000080: af95 bc3d 9ec0 61bc 494c 323d 27ba c53d
00000090: f4c8 63b9 11f5 16bd b811 a93c 1840 c2ba
000000a0: 9e87 973c eb18 a33d 42e4 88bc bdff 673c
000000b0: 3b49 a4bb bc07 b43d 5dcf a23d b2a4 633d
000000c0: 0a78 04bc 0804 b53d cfac d43d d71b 423c
000000d0: 5b67 a83d d1f1 1f3d 27d3 c03d 4f77 c73d
000000e0: 11b7 593d b147 513d 429b 14bd 40ab c93d
000000f0: a29a c3bc 5a7a e5bc 2672 59bd d7bb d63d
00000100: 0240 9abc 9ded 1a3c d140 863d 34b2 cbbc
00000110: 2fcb 793d be55 903c 46b3 843d 7d3e 683d
00000120: f25a c43d 5505 503d 1717 893d 2145 0e3d
00000130: ec31 b13d eb4a 923d 7447 683d 83b8 cf3d
00000140: 4d38 65bd cf64 5fbd a01c d43c 95b1 5f3d
00000150: 3461 3a3d fbc9 81ba a104 d33d dbf7 a3bd
00000160: 578d 3fbd ac1d e63d c4e8 693d 3ed0 e83d
00000170: 4652 0fbd 5fd1 593d 8885 903d ca64 3eb9
00000180: 6d85 843d 8ea6 873d 87a6 553d 82eb 923d
00000190: 8de4 d73b 39bb 893d 9892 d23d 9b81 e33c
000001a0: c535 34bd 1ee8 933d cb19 1e3d 2e48 88bc
000001b0: dd69 163d 04b7 36bd 6c84 853d 307b a2bc
000001c0: 0652 5f3d 6847 c23d 1094 f8bb ebc1 4a3d
000001d0: 66fe 953d 4dd9 b13d 9d59 d6bc ab18 243d
000001e0: e428 713d 1972 25bd 4eb3 11bb 7546 003d
000001f0: 7fb6 e8ba d211 0dbd af2c c93c 2c39 c23d

fc2.weight f4 [2, 128]
0.043597 -0.03475583 -0.013563183 0.049073767 0.09077531 0.0060104136 0.022095878 -0.08725991
-0.052245297 -0.03295434 -0.055983666 -0.02978578 -0.019131811 -0.06804026 0.03970631 -0.08225734
0.023627844 0.0329371 -0.058479726 0.04229451 -0.010299843 0.11191599 -0.02203555 -0.029112652
0.03511022 0.013156127 -0.01615919 0.016928993 -0.06345774 -0.05946785 0.013669425 -0.1222095
-0.026609592 0.02553558 0.023832785 -0.064623825 0.08982098 0.010428402 -0.072761364 0.002197051
0.01631087 -0.078282446 -0.013928884 0.08618228 -0.03145913 0.10686798 -0.027053503 -0.07481111
0.045381058 -0.09794524 -0.076196454 0.044821978 0.15183288 -0.0168585 -0.0315237 -0.09386022
-0.0195686 -0.11167385 0.07660006 0.117050365 0.018744795 -0.010542207 0.009241894 0.110321306
0.020313475 0.0029484779 0.03587371 -0.023237042 -0.07965092 0.06476354 0.056810718 -0.045409407
-0.08077586 -0.08995273 -0.057904236 -0.048213456 -0.034807917 0.022622967 -0.09454025 -0.10023323
-0.08157899 -0.033291288 0.066896476 0.09146315 -0.046013027 -0.048765022 -0.0056415945 0.048752684
-0.013801477 -0.043699317 0.086378805 -0.060910992 0.021821283 -0.07703047 0.07960105 -0.027804859
0.08200187 0.027222985 -0.10683245 -0.08892951 0.03955834 0.15765482 -0.00388304 -0.07701599
0.029504664 0.09293833 -0.019528763 -0.036957696 0.0646366 -0.075540125 -0.09550016 0.027890567
-0.054716792 -0.033585463 -0.049099028 -0.088755816 -0.09205562 -0.04695144 0.037286177 -0.033741046
-0.084414184 -0.02031693 -0.06422074 -0.0012463963 -0.089623526 -0.021482034 -0.050902113 -0.07109446
-0.015276869 0.04511087 0.015783092 0.009333004 0.020147396 -0.0595281 -0.07410235 -0.049087904
0.07062409 0.027644962 -0.03307069 -0.026644992 0.023638573 -0.067663744 0.067017525 -0.04413593
-0.0959339 -0.03497568 -0.034839816 0.051226325 -0.039762095 0.08868651 -0.04159249 -0.030508531
0.10169624 0.0073664486 0.0661675 -0.077673025 0.060163617 -0.0060870326 -0.0021671744 -0.04111948
-0.05169176 0.037459843 -0.0927398 -0.092446946 -0.022201024 -0.036800984 0.061727155 0.038704187
0.07428315 0.06576169 -0.017664826 0.060438447 -0.040105 0.000107214466 0.0013500293 0.060271952
-0.06377183 -0.06092158 -0.06450094 -0.0069204224 0.060412753 0.0464818 -0.0725492 -0.047992494
-0.03622397 0.018823465 0.030968593 0.03419991 -0.06007393 0.025891278 -0.03260232 0.050284937
-0.0145892985 -0.05768496 -0.077468306 -0.014269501 0.067141734 -0.012502483 0.03127991 0.03517968
-0.026548972 -0.05244164 -0.022112343 0.043378476 -0.005150039 0.11802429 -0.059587426 -0.009312019
0.05110301 0.05045841 0.06651301 0.015751109 -0.084420785 -0.064768225 -0.069989495 0.08708861
0.04990278 -0.04633605 0.11421449 -0.012766818 0.039971087 -0.084406815 0.056761563 0.084442966
0.11321875 0.063950896 -0.08464152 0.024647545 -0.052811798 0.10651648 -0.08715895 -0.005518029
-0.015544853 0.0003471724 0.05294358 -0.084873356 0.04972394 -0.036043156 -0.06352023 -0.0654914
-0.03389408 -0.049956176 0.05252204 0.044876818 -0.069402516 -0.0013469144 -0.075178735 -0.07880997
0.07389019 -0.04173574 0.019595861 -0.080543905 -0.038693544 0.02457216 0.03401039 -0.08683617
00000000: c592 323d 215c 0ebd 1d38 5ebc 9301 493d
00000010: 68e8 b93d 01f3 c43b 6a02 b53c 53b5 b2bd
00000020: 2aff 55bd 21fb 06bd 214f 65bd 4f01 f4bc
00000030: 51ba 9cbc b158 8bbd 15a3 223d 8976 a8bd
00000040: 2e8f c13c 0de9 063d 7088 6fbd 023d 2d3d
00000050: acc0 28bc 3634 e53d e683 b4bc a87d eebc
00000060: bccf 0f3d cc8c 573c 4760 84bc acae 8a3c
00000070: 22f6 81bd 8f94 73bd b9f5 5f3c f948 fabd
00000080: 5cfc d9bc fe2f d13c f93c c33c 7f59 84bd
00000090: 10f4 b73d e3db 2a3c e903 95bd 66fc 0f3b
000000a0: 609e 853c 8c52 a0bd f935 64bc 5680 b03d
000000b0: 4adb 00bd 99dd da3d 4f9f ddbc 9136 99bd
000000c0: 7de1 393d 8497 c8bd e30c 9cbd 4097 373d
000000d0: 147a 1b3e d61a 8abc ff1e 01bd c939 c0bd
000000e0: 544e a0bc 42b5 e4bd 7ee0 9c3d 1ab8 ef3d
000000f0: af8e 993c 39b9 2cbc 506b 173c 23f0 e13d
00000100: 7268 a63c 403b 413b 50f0 123d 9c5b bebc
00000110: 0620 a3bd bfa2 843d 5bb2 683d 37ff 39bd
00000120: d06d a5bd 2339 b8bd fe2c 6dbd 797b 45bd
00000130: bf92 0ebd cd53 b93c 529e c1bd 1447 cdbd
00000140: e312 a7bd 725c 08bd 0501 893d 0851 bb3d
00000150: 2878 3cbd d5bd 47bd 20dd b8bb e5b0 473d
00000160: 971f 62bc 0efe 32bd 5fe7 b03d ce7d 79bd
00000170: 8cc2 b23c 27c2 9dbd e005 a33d 04c7 e3bc
00000180: 99f0 a73d bd02 df3c f9ca dabd ad20 b6bd
00000190: ed07 223d 4470 213e 9a7a 7ebb 8fba 9dbd
000001a0: c4b3 f13c 7356 be3d c9fa 9fbc f460 17bd
000001b0: 3260 843d c8b4 9abd 9695 c3bd c27a e43c
000001c0: b71e 60bd e990 09bd 101c 49bd 9cc5 b5bd
000001d0: a887 bcbd 2750 40bd 64b9 183d 0d34 0abd
000001e0: 58e1 acbd b16f a6bc 2a86 83bd 1f5e a3ba
000001f0: 8a8c b7bd 17fb afbc bc7e 50bd f999 91bd
00000200: d54b 7abc 2dc6 383d 8b4b 813c 75e9 183c
00000210: 270c a53c bdd3 73bd f9c2 97bd 6610 49bd
00000220: 5da3 903d b077 e23c 2275 07bd 9946 dabc
00000230: aea5 c13c 4a93 8abd 7c40 893d e0c7 34bd
00000240: fe78 c4bd a942 0fbd 32b4 0ebd b2d2 513d
00000250: 94dd 22bd 46a1 b53d e35c 2abd 07ed f9bc
00000260: 1e46 d03d 4062 f13b d482 873d 0913 9fbd
00000270: 206e 763d bb75 c7bb 2707 0ebb e66c 28bd
00000280: bdba 53bd 7e6f 193d 5dee bdbd d354 bdbd
00000290: ecde b5bc a1bc 16bd 9dd5 7c3d 4888 1e3d
000002a0: c421 983d 11ae 863d d3b5 90bc 4e8e 773d
000002b0: 2445 24bd 54d8 e038 77f3 b03a b9df 763d
000002c0: ce9a 82bd e888 79bd 1219 84bd b6c4 e2bb
000002d0: 5d73 773d b363 3e3d ad94 94bd c793 44bd
000002e0: 965f 14bd ab33 9a3c d9b1 fd3c 3415 0c3d
000002f0: 1510 76bd f219 d43c 038a 05bd 94f7 4d3d
00000300: f407 6fbc 1147 6cbd b4a7 9ebd a0ca 69bc
00000310: 9b81 893d 37d7 4cbc 5d1f 003d 9118 103d
00000320: 3b7d d9bc 0ccd 56bd f224 b5bc a1ad 313d
00000330: a9c1 a8bb b8b6 f13d f211 74bd 7091 18bc
00000340: 6451 513d 7aad 4e3d f937 883d 7808 813c
00000350: cee4 acbd 34a5 84bd a756 8fbd 835b b23d
00000360: dc66 4c3d dfca 3dbd 49e9 e93d ea2b 51bc
00000370: b9b8 233d 7bdd acbd d07e 683d 6ff0 ac3d
00000380: 3bdf e73d b0f8 823d 8958 adbd a6e9 c93c
00000390: 2f51 58bd 5025 da3d 6480 b2bd 95d0 b4bb
000003a0: d7af 7ebc b104 b639 5edb 583d 15d2 adbd
000003b0: 55ab 4b3d fda1 13bd e516 82bd 5b20 86bd
000003c0: 85d4 0abd d99e 4cbd 5a21 573d c1d0 373d
000003d0: e822 8ebd f38a b0ba 4ff7 99bd 1f67 a1bd
000003e0: bd53 973d 18f3 2abd 8087 a03c 34f4 a4bd
000003f0: 1f7d 1ebd 8e4b c93c 7b4e 0b3d 29d7 b1bd

fc2.bias f4 [2]
-0.02945026 0.021421783
00000000: ac41 f1bc bc7c af3c

qnn.weight f4 [4]
-0.9080283 -0.30166274 -0.6496474 0.86644465
00000000: 8b74 68bf 8a73 9abe 4b4f 26bf 51cf 5d3f

qnn._weights f4 [4]
-0.9080283 -0.30166274 -0.6496474 0.86644465
00000000: 8b74 68bf 8a73 9abe 4b4f 26bf 51cf 5d3f
