models/classification/3qubits/oasis-2_3-plane-ss_3qubits.pt (torch, 113874 bytes, 10 tensors)

conv1.weight f4 [2, 1, 5, 5]
00000000: 94e2 0d3e f954 75be 64cc 903c b449 033d
00000010: 72c1 1b3e 93e5 7fbd 3b60 86bd 24f0 20be
00000020: 96d4 23be 16eb 1b3d 2a63 1bbe fb62 323d
00000030: c1da 20be 04b9 f5ba 1c36 bebd 552b c9bd
00000040: aa28 99bd 061b 443e ae11 be3c 64f6 1c3c
00000050: 235e 543b 9727 b4bd bb10 233e 6836 513e
00000060: b870 96bd a21c 55bd fd17 063e 9be1 30be
00000070: 9822 223e e8bc be3d fd20 26be 1fe5 1abc
00000080: 98cf f33b 9197 933d f6dc c03d b7a8 4d3d
00000090: 57c3 1f3c 8f19 dc3d 7b4b 91bd c6d8 1e3d
000000a0: 1171 41be c5c3 163e 0f09 653e 9453 ca3d
000000b0: 34e3 603e 3f66 bf3d d7f0 333d ce2a fd3d
000000c0: 50c7 843d 21a5 0f3e
0.13855964 -0.23958196 0.017675586 0.03205271 0.15210512 -0.0624748 -0.06561323 -0.15716606
-0.15999064 0.038065992 -0.15174547 0.043551426 -0.15708448 -0.0018747156 -0.09287664 -0.09822718
-0.07478459 0.19150934 0.02320179 0.0095802285 0.0032404743 -0.08796614 0.15924351 0.2043091
-0.07345718 -0.05202926 0.13095088 -0.17273562 0.15833509 0.09313375 -0.16223522 -0.009454041
0.0074405186 0.072066434 0.09417145 0.050209727 0.0097511625 0.107470624 -0.07094475 0.03878095
-0.18890788 0.14723118 0.22366737 0.098792225 0.21961671 0.09345674 0.043930855 0.1236168
0.06483328 0.14027835

conv1.bias f4 [2]
00000000: f86b 4bbe 66e2 f5bd
-0.19865406 -0.12006073

conv2.weight f4 [8, 2, 5, 5]
00000000: 4a57 09bb 2a41 793d 44a3 453d 51e0 8fbd
00000010: 6ed9 213d 31c1 f33d f4b4 343d 59de 933d
00000020: 1ea1 fa3d e4eb eb3d 2f6b debc dcfa 03bd
00000030: f259 f53d ec05 13bd 6e7b d83c 6e15 b03d
00000040: f622 68bd da60 963d bf51 35be f745 213e
00000050: a643 2bbc aecf 31be 0361 a33c be83 32be
00000060: c89b 283d ce59 843d 3b17 1d3e 1a4f 783d
00000070: 870c 43bd 02ba c7bc ae1b b6bd d536 bb3d
00000080: 3f86 24be 061b b7bd d36c c43c 06d6 f23c
00000090: 7f9b b7bb e993 60be 91f8 66bd a5fc 9b3d
000000a0: 801a 9c3d dcae 23be d879 c9bd b5b4 bf3d
000000b0: 9a06 a83d 4975 013d fa76 ec3d c714 f03c
000000c0: 19f0 86bc be29 3ebd 88fa 9bbb d118 2cbe
000000d0: 0b05 a73c 81da 7c3d e0de 48be 1e1d 8a3d
000000e0: b838 e5bd bcf0 023e ff45 2a3e 6e6c bc3d
000000f0: 3034 80bd 1e91 133e bd90 b43c c9df e5bd
00000100: 8325 7bbd 567f d0bb 9b84 59bd 80cb 90bc
00000110: cd40 cfbd 8c2b 70bd eaec 6d3d 95dc e33d
00000120: 52bf 0f3c 24ee 2abd e88e 93bd b364 023e
00000130: bed4 68be 7e32 80be b091 7cbb 11ec 433e
00000140: c418 833e 9e06 a3bd 79cb 24be 9c82 9bbd
00000150: af7b 793e f03b bebc 76f4 81be eb4d 83be
00000160: 0883 84be 7231 663d 400a 723d 08d3 793d
00000170: b073 7cbe de0c 72be 55df 11bd 7085 b2bc
00000180: 31e1 01be 5bcd 8b3d 3882 c73b d8b5 1e3e
00000190: 87a3 da3a 84a2 71bd 0be2 ee3d 02e9 9dbc
000001a0: 26f3 babd 86c2 563c fdc2 a7bc 64d3 d4bd
000001b0: ffef 253d 45e5 b43d 63e5 0bbd 5ea8 b4bd
000001c0: 9619 febd 4008 92bd de7d 873a 4f81 3b3c
000001d0: ef85 fc3c e551 c0bd 9a78 203d 6aa7 c53d
000001e0: 29f3 073d 8227 0cbd 0e03 e33c 783b a9bd
000001f0: 24b4 0fbe 00e3 cabd f6be 0abe 8288 0abe
00000200: f48a 603c 1c82 14be 17b6 dd3d 522d 903c
00000210: 729b feba d838 643d 5f84 d7bd d752 d9bd
00000220: bc83 7a3d a7eb d53c 9957 bbbd f650 c53d
00000230: ac93 51bd 6d28 92bd 6935 ab3d 0908 3abd
00000240: 8a39 3fbc 1813 10be a83e c9bd 37e6 b4bc
00000250: 861a 03bc eb4c c43d b415 ad3b f405 f8bc
00000260: f581 0abe 236f a93d a4fd 253d a433 063e
00000270: 22e8 9dbd c933 09be 769e 753d 76a3 e33d
00000280: 5abd debd beca 25be 03bc 09be 343b 31bb
00000290: 4c06 84bd 20f3 0fbe ee30 92bc 3a74 2a3d
000002a0: 5b01 e33d dada 303d 01e0 c0bd 93b6 6ebc
000002b0: 0450 f63d 1f95 afbd 6155 babd 5afa ebbd
000002c0: 6ac4 bfbb c7a8 013b 1ba5 983c af02 9c3d
000002d0: 6110 62be a6eb e1bc 866d d63d 700d 8fbd
000002e0: 2d5a 3e3b ad49 0ebb 5336 43be a78f 13be
000002f0: fa33 d8bd 9a7a 43be 785c 3cbe fa8c 113e
00000300: 48ea 273e e7ac d53d 4e86 edbd a328 08be
00000310: 62f9 98bb 786c 063e 932e e33d 822a b93c
00000320: ea01 963d fd36 a8bd 5b7a 4cbd 47c9 0ebd
00000330: 324d 64bd ef65 dbbd be8f 23be 8760 853b
00000340: 12ce 4a3d 0c4e 07be dc1e f4bc a9e3 33be
00000350: b4c3 b9bd a724 203a e284 f6bc 2fd2 23be
00000360: 4c5e b2bd cf37 aa3d 6c5e 4c3d 1fa5 fabc
00000370: 4e63 5abe c5a1 3ebe 700e c0bd 94ae b1bc
00000380: 2652 91bd bf0e 09be 0bb7 08be d650 87bc
00000390: 9dbb 09bc 43dd 033d 99f6 8b3d a021 b53c
000003a0: 7d7e 923d 1928 c63d d1e8 a43d 28b4 a2bc
000003b0: 2c5b 603c fa22 4fbd d10c 973d 8015 343d
000003c0: 491a fd3d d893 763d ad9d 413b 401c ac3d
000003d0: 5f53 39be cc42 e23d f5ef d63d 7f89 643d
000003e0: 1385 193c 5b41 e63b f954 613d cdce 1d3d
000003f0: cf29 acbd 42ac 1cbc 6911 acbd 9364 1abe
-0.002095657 0.06085316 0.048251405 -0.07025207 0.039513998 0.11902083 0.044117883 0.07220144
0.12237762 0.11519602 -0.027150718 -0.03222166 0.11980046 -0.03589432 0.026426043 0.085978374
-0.056673966 0.07342692 -0.17706965 0.15749346 -0.01045314 -0.1736438 0.01994372 -0.17433068
0.04116419 0.064624414 0.15340893 0.060622312 -0.04761937 -0.024380688 -0.08891998 0.09141318
-0.16066836 -0.08940701 0.023977673 0.02964307 -0.0056032534 -0.21931423 -0.056389395 0.076165475
0.07622242 -0.15984672 -0.09837693 0.09360639 0.08204384 0.031605992 0.115461305 0.029306782
-0.01647191 -0.046426527 -0.0047600903 -0.16806342 0.020388147 0.06173182 -0.1961627 0.06743835
-0.11192459 0.12787145 0.16628264 0.09200369 -0.06259954 0.14410827 0.022041673 -0.11224324
-0.06131507 -0.006362836 -0.053104978 -0.017675161 -0.10119782 -0.05863528 0.058087267 0.11126057
0.008773642 -0.041731015 -0.072049916 0.12733726 -0.22737405 -0.25038522 -0.0038538985 0.19133021
0.25604832 -0.079602465 -0.16093244 -0.07593271 0.24363588 -0.02322194 -0.2538182 -0.25645384
-0.2588122 0.0561995 0.059091806 0.06099227 -0.24653506 -0.23637721 -0.035613377 -0.021792144
-0.1268356 0.06826278 0.0060885213 0.15499055 0.0016680815 -0.058992878 0.11664208 -0.019276146
-0.09128408 0.013107901 -0.02047872 -0.10391882 0.04051208 0.08832792 -0.034154307 -0.08821176
-0.12407224 -0.0713048 0.0010337194 0.011444404 0.030825583 -0.0939062 0.039177515 0.09651072
0.03319088 -0.034217365 0.027711418 -0.08263296 -0.14033562 -0.09906578 -0.13549408 -0.13528636
0.013705004 -0.14502758 0.108257465 0.017599735 -0.0019424988 0.055718273 -0.10523295 -0.106115036
0.061160788 0.026113344 -0.09147567 0.09634583 -0.05116622 -0.07136617 0.083597966 -0.04541782
-0.011671433 -0.14069784 -0.09826404 -0.022082431 -0.008001929 0.095849834 0.005282128 -0.030276276
-0.13526137 0.08273151 0.040525094 0.13105637 -0.077102914 -0.1339866 0.059965573 0.11115162
-0.1087596 -0.16190621 -0.13450627 -0.0027043344 -0.064465135 -0.14057589 -0.017845597 0.04161475
0.11084243 0.043177463 -0.09417725 -0.014569896 0.120269805 -0.085733645 -0.09098316 -0.1152236
-0.005852272 0.0019784437 0.018633416 0.07617699 -0.2207656 -0.027578186 0.10470109 -0.06984985
0.0029045448 -0.0021711395 -0.19063692 -0.14410268 -0.10556789 -0.19089738 -0.18394649 0.14213935
0.16397965 0.10433369 -0.11597882 -0.13296752 -0.0046684006 0.13127315 0.11092868 0.022603277
0.07324584 -0.08213613 -0.049921375 -0.03485992 -0.05573768 -0.10712802 -0.15972802 0.004070345
0.04951293 -0.13213366 -0.029799871 -0.17567314 -0.090705305 0.0006108977 -0.03009266 -0.15998147
-0.08709392 0.08311426 0.049894735 -0.030596314 -0.21326944 -0.18616398 -0.09377754 -0.02168969
-0.07095747 -0.13384531 -0.13351075 -0.016518038 -0.008406547 0.032193433 0.06834144 0.02211076
0.07153032 0.09675617 0.08052219 -0.019861296 0.013693612 -0.050570466 0.073754914 0.043965816
0.12358529 0.06019959 0.0029543445 0.08403826 -0.1809821 0.11047897 0.10494987 0.05579519
0.009370106 0.007026834 0.055012677 0.0385273 -0.08406412 -0.009562554 -0.08401758 -0.15077429

conv2.bias f4 [8]
00000000: 7cc8 17bc 34a6 34bb 2608 36be ac5b c0bc
00000010: eecf 23be 71b4 b3bd 2c95 1cbc b7a7 cbbd
-0.009264108 -0.0027564885 -0.17776546 -0.023481213 -0.15997288 -0.08774651 -0.00955705 -0.099440984

fc1.weight f4 [4, 6728]
00000000: 3562 ae3b c222 e93b b6f3 81bb 5717 ccbb
00000010: bffb c8bb f387 23bc 2e6a 5db9 b056 7e3b
00000020: 31e5 243c 511a e33b 62b6 a63b 614a 0dbc
00000030: 7a39 3bbb 5430 ca3b 99fb bb3b 899c a7bb
00000040: 3275 9cbc babe 73bb f8e5 ebbb 8e6f 103c
00000050: 46e9 dc3b 2ea7 ec3b 9948 beba 5a70 bd3a
00000060: 39b1 a3bb af77 1ebc c9e4 23bc 43e8 a33b
00000070: a31b a23b a890 17bc 8271 eb3b 46f1 20bc
00000080: 4129 943b c9e0 a3bb 45c8 8abb 6f2c 2cbb
00000090: 245b e53b f112 99bc 3b86 a2bd 7412 bebd
000000a0: 344b 9fbd ac73 31bd 3010 42bd f206 5fbd
000000b0: 533e d0bd d528 3abd 2d4d 87bd 5350 62bc
000000c0: affb 57bc b011 2d3c af68 31bc 7cce de3a
000000d0: ed3b dfbb bba5 8e3b edcd f0bb 8374 3fbc
000000e0: cc92 4fbc 1db1 913b 4063 9cbb 3978 debb
000000f0: 6ae0 a537 3a17 163b 83d1 73bb c7ed cdbc
00000100: 409d 66bd d1c3 c7bd 571e 81bd 01d7 193d
00000110: 8cff 1c3d e10b e33d 1326 9e3d 5f50 6b3d
00000120: a9f1 003d ddf5 6a39 ed9c 22bd 87d4 033d
00000130: 0d72 e7bc 3016 c43c 45aa 48bc f08d 6a3c
00000140: efa7 11bd 86ac 0f3c b16a 1abc b9da 4b3b
00000150: 118e e83b 9b51 633b 0daf a53b 154f b43b
00000160: 5011 f8ba 3e2a 33ba cbdf 8ebc 50d1 7cbd
00000170: f9a3 27bd 8dff 6b3c 7ff7 773d 5963 023c
00000180: 7ae4 483d 64ba a93b c2df 9abd 3b1a 853c
00000190: 284a 293e 3fa1 cd3d 26a2 7e3c a990 6fbd
000001a0: ddec 673c a0a3 b3bc a9ca 4dbd f193 35bd
000001b0: 6eef 823b 4487 a13c b09d e8bc 3bf6 28bd
000001c0: 0dff 4dbc d213 53bc de87 2ebc 62fd c53b
000001d0: a390 0bbc d014 5dbc c66c 6dbd 8e5f 6dbd
000001e0: 2e0c 663d ba33 863d 797d 813d 3008 84bc
000001f0: 42ad 71bd c62a d9bd c082 bbbc fea6 2b3d
00000200: 4496 5dbd 9dd6 bebd 5d33 4c3b 69d8 173d
00000210: 1d6b d9bc f97d 86bc ffea 923c f9e5 293d
00000220: 1d20 00bd d3d4 88bd 0b0d 56bd 4e56 f23c
00000230: 32b9 943b 348c 023c e968 b6bc 1612 853b
00000240: f4f0 82bc 8854 3fbb d4ff 68bd 9c9e 113d
00000250: ae71 1fbb 8db3 853b a484 a23b a298 dabc
00000260: c4b1 6fbd ce00 a2bc fcdf 0f3d 6a75 ee3c
00000270: f06f ebbc 7531 653d b0eb bebd f16c 783d
00000280: e6d4 293e 151c 78bc 4db5 a83d b7ef a5bc
00000290: b4b4 1ebd 8a92 3d3c 904f 003d 8094 1ebd
000002a0: 1afa 2bbb fbe1 ebbc 7cf1 e33c 7548 c73b
000002b0: e3b5 05bc e877 1abc 7a10 9fbc cb96 7b3b
000002c0: b7b6 54bd b922 dabc e319 143e aec6 6cbd
000002d0: 047c 9d3d d86b 393d 8045 ffbc 385a 67bd
000002e0: 92f8 5abc bb22 35bc 585c 2f3c 5234 d7bc
000002f0: 68f4 fe3b 5e23 283c 99f6 b8bb 802a 8dbd
00000300: 9f6d 01bc 5dc8 ba3c 950e c03d 169f 9f3d
00000310: 1c04 da3b 446a 993d 199c 6e3d 55eb 16bc
00000320: 1c79 d53c caa7 f9bb d5c9 263a 4e95 fb3b
00000330: 3f40 e7bd 43ea 83bd 6cec d03d c878 3e3c
00000340: d654 11bd cb46 793d 8727 87bd 6772 0abd
00000350: 805a 5ebb ff23 033d 1ae6 223d 9543 583d
00000360: 045a 4a3c 3d33 b9bb a5be ad3d aeaa 093c
00000370: 0393 c63c 39b8 f63c 1b29 c93c 8642 b73d
00000380: f199 af3c 2475 e93c 1a3d 08bd 70ef b73c
00000390: e803 693d 6f6b 00bd 7ced e43c 5e7c a5bc
000003a0: efaf 813c 0cbd 33bd b8af 013e 3387 cbbc
000003b0: 7750 37bd 6b61 483d a5f0 a53b 1e06 633c
000003c0: 21c6 3d3d 69cc d73d 72e7 323b f586 5c3c
000003d0: 1930 823d 3c8d 743c fce7 fcba ea89 653d
000003e0: 7da1 633d bae9 8e3d fc8d 41bb 41bb 143d
000003f0: 90f4 bfbc b190 81bc 4d20 0e3d 71bc 643d
0.005321766 0.007114739 -0.00396582 -0.0062283683 -0.006133526 -0.009981143 -0.00021115757 0.0038808994
0.010064409 0.0069306274 0.0050876597 -0.00862369 -0.0028568194 0.006170312 0.00573678 -0.005115096
-0.019098852 -0.003719254 -0.0071990453 0.008815659 0.0067416755 0.007222078 -0.0014517485 0.0014453039
-0.004995492 -0.0096720895 -0.010003277 0.005002053 0.004947142 -0.009250797 0.007185162 -0.009823149
0.0045215194 -0.0050011617 -0.0042353 -0.0026271602 0.00699939 -0.01868579 -0.07935759 -0.092808634
-0.07778016 -0.043323204 -0.04737872 -0.054449983 -0.101681374 -0.045449097 -0.06606517 -0.013813096
-0.013182565 0.010563299 -0.010828181 0.0016998793 -0.0068125636 0.0043532527 -0.007348767 -0.011685493
-0.012669276 0.0044461624 -0.0047725737 -0.006789234 1.9774034e-05 0.0022902028 -0.0037203736 -0.025137795
-0.05630231 -0.09754146 -0.06304615 0.03755856 0.038329646 0.1108625 0.07722106 0.057449695
0.031480465 0.0002240757 -0.039700437 0.032185104 -0.028252626 0.023936361 -0.012247627 0.014316067
-0.035560545 0.00876916 -0.009424851 0.003110571 0.0070970138 0.0034686092 0.005056268 0.0055025914
-0.0018926058 -0.00068346027 -0.017440697 -0.061723053 -0.04092786 0.01440419 0.060538765 0.007958257
0.049046017 0.00517969 -0.0756221 0.01624786 0.16532195 0.10040521 0.015541589 -0.058487568
0.014155594 -0.021928608 -0.0502421 -0.04433054 0.0039958274 0.01971782 -0.028395504 -0.04125045
-0.012573016 -0.0128831435 -0.01065251 0.0060421685 -0.008518371 -0.013493732 -0.057965063 -0.057952456
0.05616396 0.06552835 0.0632276 -0.016117185 -0.059003122 -0.106038615 -0.022889495 0.041907303
-0.054098383 -0.09318278 0.0031158545 0.03707162 -0.026540333 -0.01641749 0.01793432 0.041479085
-0.031280626 -0.06681218 -0.052258532 0.029582169 0.0045386786 0.007967997 -0.022266822 0.004060994
-0.015984036 -0.0029194672 -0.0568846 0.035551652 -0.0024329233 0.004080242 0.0049596597 -0.02668411
-0.05851914 -0.019775774 0.035125718 0.029108722 -0.0287399 0.05595537 -0.093222976 0.06065077
0.1658512 -0.015143414 0.082377054 -0.020255907 -0.03874655 0.011570582 0.031325877 -0.03871584
-0.0026241601 -0.02879428 0.02782511 0.0060816356 -0.008161041 -0.009428002 -0.019417036 0.003838944
-0.051932063 -0.026627885 0.14463 -0.057806663 0.0768967 0.045268863 -0.03116107 -0.056482524
-0.013364928 -0.011055644 0.010703169 -0.026270065 0.0077806003 0.010262338 -0.005644631 -0.06892872
-0.007899671 0.022800619 0.09377781 0.07794015 0.006653322 0.07490972 0.058254335 -0.009211381
0.026058726 -0.007618879 0.0006362473 0.0076777106 -0.11291551 -0.06441166 0.10201344 0.011625476
-0.035481296 0.06085853 -0.06599336 -0.03380051 -0.0033928454 0.03201675 0.039770223 0.052798826
0.012350563 -0.00565186 0.08483628 0.00840251 0.024240023 0.030117141 0.024555733 0.08948235
0.02143571 0.02849824 -0.033261396 0.02245304 0.05688849 -0.031352457 0.027945273 -0.020200904
0.015830962 -0.04388146 0.12664688 -0.024844741 -0.04475447 0.04892103 0.0050640875 0.013856439
0.04633153 0.10537035 0.0027298597 0.013459911 0.0635683 0.014926251 -0.0019295211 0.05603973
0.05557393 0.069781736 -0.0029534092 0.03631139 -0.023432046 -0.015816065 0.034698773 0.055843774

fc1.bias f4 [4]
00000000: 018a e33d 89a1 eabc 1f5d 813e 1b95 a4bc
0.111103065 -0.02864148 0.25266358 -0.02009063

fc2.weight f4 [3, 4]
00000000: 0e15 783e 8f18 99be af89 0a3f 0d9f a93e
00000010: b288 253f bf6d b2be 4898 3c3d 6c9f d2be
00000020: 247f 873e 2d3f a1be 15f6 08bd a301 94be
0.24226782 -0.2990155 0.5411634 0.3312916 0.64661705 -0.34849355 0.046043664 -0.41137254
0.26464188 -0.31493512 -0.033437807 -0.289075

fc2.bias f4 [3]
00000000: 3517 843e c3c9 24be d8a3 103f
0.25798956 -0.16092591 0.56500006

qnn.weight f4 [6]
00000000: 3bc1 283f 6e1b 4dbf 9911 8ebe 2617 9ebe
00000010: 857d d6be 53f8 b73f
0.65919846 -0.8011998 -0.277478 -0.30877036 -0.4189264 1.4372658

qnn._weights f4 [6]
00000000: 3bc1 283f 6e1b 4dbf 9911 8ebe 2617 9ebe
00000010: 857d d6be 53f8 b73f
0.65919846 -0.8011998 -0.277478 -0.30877036 -0.4189264 1.4372658
