models/classification/3qubits/oasis-2_sagittal_3qubits.pt (torch, 59188 bytes, 10 tensors)

conv1.weight f4 [2, 1, 5, 5]
00000000: 36a3 0dbe c9cd 273e ba5e 993d 0301 1ebe
00000010: 7c64 90bc 3016 1d3e 50e6 36bd 38ad eb3d
00000020: 0d85 d93b 1c5e 91bd f75f 2b3e ba6d c6bc
00000030: 34c0 acbd cc8c 6bbe fb8a 0ebe 3d11 c6bd
00000040: b85c 443e b35a 773c c152 ecbd c429 aa3d
00000050: bed9 c53d 88ab 393c 4f64 be3c 174a 05be
00000060: 034b 37be 7dba 29be 1887 46bd 68fb 2dbd
00000070: b037 82bd c5e6 473e e9a8 093e 299f 213e
00000080: 7241 32be 0659 b33d 7c57 03be 503f 2d3c
00000090: 4d3a e7bd 677b 9bbd 266c d33d 94b2 69bd
000000a0: 2ebe a33d d839 e73c 3229 c83d e0cd 28be
000000b0: 1bfa 2f3e d057 9bbd d0b0 f33c ad22 b8bd
000000c0: c045 1bbe 236e 34be
-0.13831791 0.16387095 0.07488771 -0.15430073 -0.01762604 0.15340495 -0.044653237 0.11507648
0.0066381753 -0.07098028 0.16735826 -0.024222244 -0.08435097 -0.23002928 -0.13920204 -0.09671257
0.19175994 0.015097308 -0.115392216 0.083087474 0.09660672 0.0113324 0.02324119 -0.13016544
-0.17899708 -0.16575046 -0.04846868 -0.042476088 -0.06358278 0.19521625 0.1344334 0.15783371
-0.17407778 0.08757214 -0.12826341 0.010574177 -0.11290417 -0.075918965 0.10323362 -0.05705507
0.07995258 0.028225824 0.097734824 -0.16484785 0.17185251 -0.07585108 0.029747397 -0.08990989
-0.15163326 -0.17620139

conv1.bias f4 [2]
00000000: b598 0e3e 2b4b 0fbe
0.1392544 -0.13993518

conv2.weight f4 [4, 2, 5, 5]
00000000: 5595 3f3d 80c0 d53d 2778 0b3e e972 9c3c
00000010: 0f18 133e 3dd9 033e 91ff 5d3d 1c9c 8c3d
00000020: 9e4b 963d ede9 83bd baec 843b 2284 0e3e
00000030: b15a f23d f0f4 573d 3985 fd3d 6f50 cabd
00000040: 1f7d 153e 9e09 99bd 7051 48bc b8d9 aabd
00000050: 96ed f6bd 6824 603c fa93 9ebd 6ce5 c0bd
00000060: f7c9 df3d e02f 47bd a05b 06be 50f3 5f3c
00000070: 8043 873a 0d23 0abe 7b11 0abe e72e e8bd
00000080: 5c32 fdbc f0c8 0cbe e004 e23c 903d 3bbc
00000090: ea30 aa3d 1c17 b13d 4008 383d 6ac2 cc3d
000000a0: ea25 e0bd 183b 08bd 00bf 333c 105c 403c
000000b0: bb32 dfbd b100 b5bd b87a efbd bacc 923d
000000c0: 402b d23b 38f3 5f3d 1e3a e8bc 8d23 17be
000000d0: b434 b23d 0291 ee3d 81b7 b5bd 38cd 753d
000000e0: cb63 dabd f7b5 6c3c 1223 81bc c073 38bd
000000f0: 48c2 3fbd 0e7e eb3d 1ff5 0cbe 915c cf3c
00000100: 6548 30bd 54d7 fa3d 8994 d1bc 6994 513d
00000110: ec3b 09be 6d15 cbbd 949e abbd 8949 c33c
00000120: 8fa1 2d3b e101 f23d 819b 0dbe c6f6 d5bd
00000130: 3076 30bd a0f1 b23c 1077 673c 003d c73b
00000140: 0034 a23b be55 943d 2097 533d 2068 623c
00000150: 3eac bc3d a4b5 853d 602c c73c 3c2a 703d
00000160: d272 e73d 6670 8c3d ac1e 65bd 4e5b 833d
00000170: ac6c 613d c878 4b3d 5b23 98bd b98d abbd
00000180: f81f 8cbd bab7 e83d a8c0 a33c d2b1 fbbd
00000190: 7246 543c 998d ca3d 6d44 f2bd 885e 343d
000001a0: 2a5a a0bb 62ad 9e3d 7e6b 26be 3841 bd3d
000001b0: bb90 073e 6d1d fd3d 9d65 94bd e760 1abd
000001c0: 81d0 e1bd a969 873d 2db7 b4bb b6da 003e
000001d0: 943a 0fbe 38f1 a13d aeea 00be 7882 68bd
000001e0: 665b 2bbd 4d9c d33d cbd5 d53d aaa0 8dbb
000001f0: ab7e e83d cc26 7b3d 443a aa3d 7a2e aa3d
00000200: 789e 843c d263 76bd 4079 6a3b aefe b0bd
00000210: 6a18 c4bd ec70 96bc be47 87bd cc62 e6bd
00000220: e065 bdbd 7a27 1fbd 7c7c 7f3d 408f a4bb
00000230: 7088 c93c 1c28 5e3d 04f1 223d 90bb fa3c
00000240: 3067 06bc e09f 1f3c be8c da3d 56a5 6ebd
00000250: 84ca b8bd 8877 b73d 4461 89bd d1d5 0bbe
00000260: c515 37bd 83f3 f13d 8c03 0d3e 5413 bebd
00000270: dc13 b7bd e208 cc3c aa68 dabd 2986 b33d
00000280: 2c0d 46bc 2105 5a3d b89d 65bd b202 d3bd
00000290: 0122 873c f97f 9f3d ff28 c5bd c80b a53d
000002a0: 8e54 e03d 2d4c 69bb 1e12 ff3c 3091 b9bd
000002b0: 85cc 51bd a91f 223e e06c b2bd 8a0b b63d
000002c0: 5ce7 9f3d 801f 84bd e8f8 803d d010 e83c
000002d0: a033 943d 107d 513c e07b 57bc 46e3 0abe
000002e0: d095 1cbc a78d 013e 88a6 ba3d e0e7 92bb
000002f0: 8aa0 cbbd 8091 213c 409f 93bc 4d37 01be
00000300: a0e8 df3b f8eb 823c 10ea 08bc 20eb bebd
00000310: bf7e dbbd fc1e d5bc e88b 903d aaac ae3d
0.046773273 0.10437107 0.13620053 0.019097762 0.14364646 0.12875839 0.054198805 0.06865713
0.073386416 -0.06441102 0.0040565403 0.13917592 0.11833704 0.052723825 0.12378926 -0.09878623
0.14598511 -0.074725375 -0.012226447 -0.08342308 -0.12057035 0.013680555 -0.07743068 -0.09418759
0.109271936 -0.04862964 -0.1312089 0.01366885 0.0010319799 -0.13489933 -0.13483231 -0.11337071
-0.030907802 -0.13748527 0.027590215 -0.011428252 0.08310111 0.08646986 0.044929743 0.09998019
-0.109447315 -0.03325948 0.010970831 0.011740699 -0.10898348 -0.088380225 -0.116933286 0.07167955
0.006413847 0.05467531 -0.028348025 -0.14759655 0.087014586 0.11648752 -0.08872891 0.060010165
-0.10663565 0.014447681 -0.015763793 -0.045032263 -0.04681614 0.114986524 -0.13765381 0.025312694
-0.04303779 0.12248102 -0.025583522 0.051166926 -0.13401765 -0.09916196 -0.08379856 0.023838775
0.0026494002 0.118167646 -0.13828851 -0.10447459 -0.043081462 0.021843731 0.014127508 0.00608027
0.0049500465 0.072429165 0.051657796 0.013818771 0.0921254 0.06528786 0.024313152 0.058634028
0.11301197 0.06857376 -0.055937454 0.06413899 0.05503528 0.049675733 -0.074286185 -0.08376641
-0.06842035 0.11363168 0.019989327 -0.12289776 0.012956249 0.09890289 -0.118294574 0.044035465
-0.004893561 0.07747914 -0.16251943 0.09240955 0.13238804 0.12359128 -0.07245944 -0.03769007
-0.11026097 0.0661195 -0.0055150003 0.12583432 -0.1398719 0.07907337 -0.12589523 -0.05676505
-0.04183521 0.103325464 0.104411684 -0.004322131 0.11352285 0.061316296 0.083118945 0.08309646
0.016188845 -0.06015379 0.0035777837 -0.08642326 -0.09574969 -0.018364392 -0.066054806 -0.11249313
-0.09247947 -0.038856007 0.062374577 -0.0050219595 0.024601191 0.05423747 0.03978063 0.030607015
-0.008203313 0.009742707 0.10671376 -0.058263145 -0.09023002 0.08958346 -0.06708005 -0.13655783
-0.044698495 0.11814024 0.13770884 -0.0928103 -0.08939335 0.02490658 -0.10664494 0.087658234
-0.012088101 0.053227548 -0.056058615 -0.103032485 0.016495707 0.07788081 -0.0962696 0.08058888
0.109536275 -0.0035598383 0.031136569 -0.090608954 -0.051220436 0.1583239 -0.087121725 0.0888892
0.078078 -0.06451321 0.06297475 0.02832833 0.07236409 0.012786165 -0.013152093 -0.1356326
-0.009557202 0.12651692 0.091137946 -0.004483208 -0.0994273 0.00986135 -0.018020272 -0.12618752
0.006833151 0.01598166 -0.008356586 -0.0932219 -0.10717534 -0.026015751 0.07057935 0.08529027

conv2.bias f4 [4]
00000000: 5fce e9bd 9a08 3b3d 31b5 ebbc 710a f5ba
-0.11416315 0.0456625 -0.028772922 -0.0018695128

fc1.weight f4 [4, 3364]
00000000: 9ba0 bf3b 1ed2 c2bc e77f fa3a 88c4 d93b
00000010: cb9f 3d3b 7c75 363c e34f 59ba 0500 093c
00000020: 3bdf 62bc e6f1 18bb e0f3 0ebc 8595 1ebb
00000030: 768b ddba 4072 79bc 89ad 93bc 7079 fabb
00000040: ab2b 31bc b808 2ebc 7718 4a3c 3b8a 9b39
00000050: 15af ed3a 7aca a5ba de22 91bc 8268 d0b9
00000060: 4080 6cbc c75f b33b db3f aebb 6079 a8bc
00000070: 3506 ddbc 3903 68bc 0556 b53b 8815 88bb
00000080: 1e07 f0b7 4e9b b4bb 6d27 943c 00db 2abc
00000090: e031 2abc 83b1 8939 6ca7 943c 3ac7 7fbc
000000a0: 2938 8e3a a6eb 9f3c 2e94 0c3c 0434 9f3c
000000b0: a3c1 82bc ba75 5e3c 7b90 2ebc 3012 9fbc
000000c0: 9344 74bc 7401 a23c bbe7 8cbb c940 53bc
000000d0: b0d2 e6bb c03c 27bb b787 94bb 94de 29bc
000000e0: cf71 cdbb 2d19 85bb 7b97 0cba e5e9 12bc
000000f0: 01d4 44bb 2916 7a3b 4236 37bb 77e1 9dbc
00000100: 3ab4 27bc c0bb 83bc bfb1 fd3c 37fe 503c
00000110: ccd4 bb3c 7898 72bb 5dc5 9a3c e5a0 c3bc
00000120: 11eb dcbb abdb d839 cd9d 8d3b b853 f4b9
00000130: 2016 8f3c 7d75 4d3c e83a 54bc 3054 a539
00000140: e7b9 3abc 40cd 273c a8bd ad3b d456 1d3c
00000150: 7761 bdba 5b25 15bb fa77 60bc 806e 7dbb
00000160: 5a6e 7dbc e916 c6ba fadf 8f3b 4c3b 71bc
00000170: ff58 ee3a e725 b23c 76ec c73a 4a87 43bb
00000180: f80d bebc 5529 bfbb f5a4 86bb 9e27 13bc
00000190: 83ea 433b 74e6 d9bc fd65 88bc fb27 393c
000001a0: a32e b1bc 3f72 933c dbe0 2b3c bc9a 2b3c
000001b0: 1271 87bb ec86 433c a511 4e3c 1183 43bc
000001c0: ab38 19bc 7fdd ffbb 20ee b9bc 1936 38bb
000001d0: 5f3c 32bc 7066 32bc 3fd2 0c3c 6735 34bc
000001e0: 7d5d f53c 21b8 ce3c 82dc 94bb a920 a9bc
000001f0: 8da8 a1bc 48d0 713b e7dd 1fbd 0d2f e2bb
00000200: 73e2 fd39 55e9 19ba b598 bfbc b58b e03b
00000210: 4fc4 c1bc 3466 ea3b 1c38 823c 2288 a13c
00000220: 577d c73b 3720 af3c 527e 853b 12c4 513c
00000230: ffbe 76bb f4ca 18bc 6520 b5bc f1cb 07ba
00000240: 98e6 9abc 4560 febb fcab 03bd d876 10bc
00000250: 8c73 a23c bd43 20bc 7ebe 853c 25a9 25bd
00000260: d547 203c 8e23 e93b 7198 723c 070f 003d
00000270: abae fa3b c010 47bc 4388 d8bb d352 14bb
00000280: fde9 b4bc 26b4 48bc c0b1 263c b6c1 933a
00000290: 99a5 9bbc 93bf 0b3d ba9b 023d 248f af3c
000002a0: 0b6e 9b3c 8d8e 31bc ec43 a43a 0062 9a3a
000002b0: 4e63 b0bc a004 52bb 24c2 e13a b882 01bc
000002c0: d356 d3bb de4d 6e3c 3b4f debb 1b36 bfbc
000002d0: 0ae7 f23b d056 c93c 8d07 14bb 717a 8abc
000002e0: a8fb 1b3d 5cf1 273d 3684 993c 6339 a73a
000002f0: dad9 8f3a 8f4b 803c d387 983c 182b 023c
00000300: 758b 503b 848f 86bb c885 a7bc 145e d23c
00000310: e183 d03c d1ba 3abc 4693 1a3d abda debb
00000320: 00ba aeba e2c4 c53b ede3 02bd 2f9a 8bbc
00000330: 91e3 92bc d070 12bc 7414 8fbb 5595 3bbc
00000340: c592 c2bc 3826 bfbc 8005 a3bc 289e 0f3c
00000350: 7090 8e3c 57cc eb3b ca9a 19bb 63cb 973b
00000360: 0030 d2b8 3ab0 cfbc ea46 e13b b737 1f3c
00000370: d16c 4b3c ad14 ff3b b7d4 0e3c e2fc cdbb
00000380: eb2e 14bb f834 1d3c fe6b 863c e240 00bd
00000390: 8bf6 253c 3352 a63c c49f 603c e0bf e7bc
000003a0: b12e 4b3c 3897 38bc bde0 5bbc 2c93 753b
000003b0: 9ce4 f0bc 3b9b d3bc 084f 9fbc 835b 093c
000003c0: d3e3 a93c 3558 f5bb 0149 b03a 4602 86bc
000003d0: bf81 c0bc fc83 a4bc b1cc b5bc 59e1 78bb
000003e0: e201 d33c 948e 2b3d 837d 053d 099a 773c
000003f0: 504c 06bc 7b79 583b 924c ee3c b0d2 8f3b
0.005848003 -0.023781832 0.0019111604 0.006645743 0.0028934355 0.011136409 -0.0008289797 0.008361821
-0.013847168 -0.0023337542 -0.0087251365 -0.0024198007 -0.0016902525 -0.015224993 -0.018027084 -0.007643871
-0.010813634 -0.010622196 0.012334934 0.00029666894 0.0018133844 -0.0012648844 -0.017716821 -0.00039750716
-0.014434874 0.005474064 -0.0053176708 -0.020565689 -0.026980499 -0.014160925 0.005533936 -0.0041529574
-2.8613544e-05 -0.005511678 0.018085206 -0.01042819 -0.010387868 0.00026262933 0.01814624 -0.015611464
0.0010850477 0.019521546 0.008580251 0.019433983 -0.015961474 0.013577873 -0.010654564 -0.019417852
-0.0149089275 0.019776084 -0.0043000854 -0.012893864 -0.007044159 -0.0025518388 -0.00453278 -0.010368008
-0.0062696706 -0.004061839 -0.00053631485 -0.008966898 -0.003003359 0.003816018 -0.0027955924 -0.01927255
-0.01023584 -0.016080737 0.030968545 0.012755922 0.022928618 -0.0037017148 0.018892938 -0.023880431
-0.0067418893 0.00041362396 0.00432179 -0.00046601682 0.017466605 0.012540218 -0.0129534975 0.00031533977
-0.011396862 0.0102418065 0.00530215 0.009603221 -0.0014448602 -0.0022757861 -0.01370048 -0.00386706
-0.015468204 -0.0015113029 0.0043907138 -0.01472361 0.0018184482 0.021746589 0.0015252966 -0.0029835277
-0.02320002 -0.0058337846 -0.00410902 -0.008981613 0.0029894419 -0.026599146 -0.016650194 0.011301036
-0.021628683 0.017998813 0.010490621 0.010473903 -0.004133352 0.011934023 0.012577449 -0.011933104
-0.00935189 -0.007808387 -0.022696555 -0.0028108417 -0.010878651 -0.010888681 0.008595048 -0.01099906
0.029951805 0.025234284 -0.004542888 -0.020645456 -0.019733692 0.0036897827 -0.039029982 -0.0069025815
0.00048424638 -0.0005871256 -0.023388246 0.006852592 -0.023653178 0.007153297 0.015895896 0.019718233
0.0060879397 0.021377666 0.0040738964 0.012803094 -0.0037650464 -0.009325732 -0.022110173 -0.0005180231
-0.018908784 -0.007762941 -0.03214644 -0.008817397 0.019830488 -0.009781775 0.016326185 -0.040444512
0.009782751 0.007114834 0.014806853 0.03126433 0.0076502166 -0.01214999 -0.0066080405 -0.0022632375
-0.02208423 -0.012249982 0.010174215 0.001127294 -0.018999862 0.034118246 0.031886794 0.02143056
0.018973371 -0.010837209 0.0012532449 0.0011778474 -0.021531727 -0.0032046214 0.0017223996 -0.007904701
-0.0064495592 0.014544932 -0.0067843474 -0.02334123 0.007412796 0.024577528 -0.0022587508 -0.016904088
0.038081795 0.041001663 0.0187398 0.0012758191 0.0010974959 0.01566103 0.018619454 0.007944845
0.0031821404 -0.004106464 -0.020449534 0.025679626 0.02545351 -0.01139708 0.037738107 -0.0068009696
-0.0013330579 0.006035433 -0.03195565 -0.017041294 -0.017930778 -0.008938029 -0.004366452 -0.011449178
-0.023751626 -0.023333654 -0.019900084 0.008765735 0.017402858 0.00719599 -0.0023438209 0.0046324
-0.00010022521 -0.025352586 0.0068749087 0.009717873 0.012416081 0.007784447 0.008717707 -0.0062862495
-0.0022610973 0.009595148 0.016408917 -0.031311877 0.010129581 0.020302868 0.013709966 -0.028289735
0.012401269 -0.011266522 -0.013420281 0.0037471754 -0.029405884 -0.025830856 -0.019446865 0.0083836345
0.020738518 -0.0074873217 0.0013449491 -0.016358506 -0.023499368 -0.020082466 -0.022192331 -0.0037976115
0.025757734 0.04188402 0.0325904 0.015112408 -0.008196905 0.0033031392 0.029089246 0.0043891296

fc1.bias f4 [4]
00000000: 9fd3 a43d 4714 2b3d 61d7 c83d 3dbc 3e3d
0.08048176 0.041767385 0.09806705 0.046566237

fc2.weight f4 [3, 4]
00000000: 683f d3be 65a3 e3bd 7db3 07bf 4a9b 223f
00000010: 2ffb 193e c130 d3be d3ae b9bd ecc6 8cbe
00000020: de30 3c3e 2e0e 04be 0824 f33d 8503 a2bd
-0.41259313 -0.111151494 -0.5300825 0.635182 0.15037225 -0.41248134 -0.09066548 -0.27495515
0.18378016 -0.12896034 0.11872107 -0.079108275

fc2.bias f4 [3]
00000000: 3e90 733e d307 ef3e 553e d7be
0.23785493 0.46685657 -0.42039743

qnn.weight f4 [6]
00000000: 1773 f53e c23e 4abf 388c 18be d05e 0bbe
00000010: cdd9 813f 2b77 69bf
0.4793937 -0.7900201 -0.14897239 -0.13610387 1.0144593 -0.9119746

qnn._weights f4 [6]
00000000: 1773 f53e c23e 4abf 388c 18be d05e 0bbe
00000010: cdd9 813f 2b77 69bf
0.4793937 -0.7900201 -0.14897239 -0.13610387 1.0144593 -0.9119746
