models/classification/3qubits/oasis-2_sagittal-ss_3qubits.pt (torch, 59233 bytes, 10 tensors)

conv1.weight f4 [2, 1, 5, 5]
000000 de 11 60 bd e3 ad 6f bd 52 22 12 3e ce b4 84 3c
       -0.05470454 -0.05851544 0.14270905 0.016199496
000010 d1 68 39 bd 01 29 3d bd f2 51 11 3e 37 04 fd bd
       -0.045265976 -0.046181682 0.14191416 -0.123543195
000020 c5 1b df 3d ab 19 14 3e e6 a0 8f bc 26 bd 74 bd
       0.108939685 0.14462917 -0.017532777 -0.0597507
000030 dc 88 2a 3e d6 a1 bf 3d 39 dc f6 bd 62 19 6e bd
       0.1665377 0.0935704 -0.12053723 -0.058129676
000040 23 9d 09 bd cc da 1d 3e d5 2e 24 3e f4 8f 7b bd
       -0.033597123 0.15415496 0.1603349 -0.06141658
000050 90 fc 26 bd 06 c5 a0 3b 04 86 f7 bd 4c c1 07 3e
       -0.040768206 0.0049062995 -0.12086108 0.1325733
000060 63 42 e3 3d 35 cf 6f bd f6 d6 8b bd 1a 06 91 bd
       0.11096647 -0.058547217 -0.0682811 -0.07081242
000070 1b ac 11 3c 43 26 de 3d 2f 58 65 3e b2 33 f1 3d
       0.008891131 0.108471416 0.2239692 0.11777438
000080 4c a3 fe 3c 6e 5e 5e 3e b8 f0 64 3e 1d cb 69 3e
       0.031083725 0.2171571 0.22357452 0.22831388
000090 02 02 20 3e 0c 20 6a 3d cc 28 11 3e 12 b3 85 3e
       0.15625766 0.05715947 0.14175719 0.26113182
0000a0 5d 03 82 bc 34 68 ba bd d3 58 61 3e bb 4c 1e 3d
       -0.015870744 -0.091019064 0.2200654 0.038647395
0000b0 92 0c 29 3e 2d 44 9c 3d 25 ef 17 3e d1 e2 03 3e
       0.16508701 0.07630191 0.1483732 0.12879492
0000c0 6d cd 46 3e fa d0 b0 3d
       0.19414301 0.08633609

conv1.bias f4 [2]
000000 07 19 3f bd ba 51 98 3d
       -0.046654727 0.07437463

conv2.weight f4 [4, 2, 5, 5]
000000 44 43 91 bd 3d 9b 70 bd 88 cc 18 be 78 eb 18 3e
       -0.07092908 -0.058741797 -0.14921772 0.14933574
000010 fc 59 cf bb 53 b0 fb 3c bf ee 46 bd e8 76 b7 3b
       -0.0063278656 0.030723726 -0.04856753 0.0055988915
000020 18 7d d4 3b 7c e7 00 3e 91 96 f1 3b 43 a1 d0 bc
       0.006484639 0.12588304 0.0073726852 -0.02546752
000030 cf 49 49 bd f7 f6 df bd e8 ed 22 3e b6 33 c1 3d
       -0.049142655 -0.10935777 0.15911067 0.09433691
000040 78 3b 02 3e 6b 69 8f 3c 35 75 be bd 76 33 7a bc
       0.12717998 0.017506322 -0.09299699 -0.015271058
000050 f2 0a 47 bd 06 c5 0a 3e 49 dc 99 3d ab e8 56 3c
       -0.048594423 0.13551721 0.07512719 0.013116996
000060 42 38 60 bd 3f c9 06 3e 66 8c 28 bd c1 ea 02 3d
       -0.05474115 0.13162707 -0.04114952 0.03196216
000070 6b 51 0f 3c be 57 5a 3d 63 b1 07 3d b1 c8 bb bd
       0.008747439 0.053306334 0.033128154 -0.09169138
000080 be c7 fe bd f6 33 3d bd 16 a1 dc 3d 3a e4 5b 3c
       -0.124404415 -0.046192132 0.10772912 0.013421113
000090 c8 92 6e bd 83 81 10 3e 34 12 3b bd 47 20 d7 3d
       -0.05824545 0.14111905 -0.045671657 0.10504203
0000a0 ea ee e5 bb 7d 96 af bc e5 b7 e6 bc d4 0c ba bd
       -0.007017006 -0.021434063 -0.02816386 -0.09084478
0000b0 3b dd 41 3d 5c 8c 1f 3d 1b 25 0f 3e c1 52 49 3d
       0.047330122 0.038952217 0.13978998 0.049151186
0000c0 bb f0 dd bd c3 25 92 bc d0 3b ee 3c b8 7a f1 bd
       -0.10836931 -0.017840272 0.029081255 -0.11790985
0000d0 10 bc d3 bd 89 d8 1a be 4d 3f 1e 3d ac 20 8f 3d
       -0.103386045 -0.15121664 0.038634587 0.069886535
0000e0 b2 79 0b be 37 aa 54 bd f6 1c 17 be 19 9f c3 bd
       -0.13620642 -0.051920142 -0.14757141 -0.0955183
0000f0 1b 40 82 3d 5f 0e 4e be 07 73 59 3d 86 ec 0f 3d
       0.063598834 -0.2012267 0.053088214 0.035137676
000100 b1 68 67 3d 73 ff bf b9 c4 6a 0e be c1 8a 5a bd
       0.056496326 -0.00036620683 -0.13907915 -0.053354982
000110 82 c7 e8 3d b5 5f 01 bd 9d 5b 1e 3e 3b 65 83 3b
       0.11366178 -0.031585414 0.15464635 0.0040098703
000120 4d 4b a4 3d 28 85 75 bd 36 b2 06 be cc ec e2 bc
       0.08022175 -0.05994144 -0.1315392 -0.027700804
000130 85 ba 0a 3e 3d 9f e3 3d 85 3f a7 bd 8b b5 fb bd
       0.13547714 0.11114357 -0.08166412 -0.12290486
000140 c3 4a 08 be 9e 84 e3 bd fb 6e c7 3c d7 e4 88 3d
       -0.1330977 -0.11109279 0.024344912 0.06684273
000150 43 84 b1 bb 1d d7 e5 bd 4f 7e 99 3b 5e d1 7f bd
       -0.005417378 -0.1122267 0.0046842466 -0.062455527
000160 21 b5 12 be ad bd dd bd 2d ac f5 bc b7 2b 77 3d
       -0.14326908 -0.108271934 -0.029989326 0.060344424
000170 53 ba d8 3d a8 75 62 3d af 54 4e 3d e1 41 60 3d
       0.105824135 0.055287987 0.05037373 0.054750327
000180 f7 b1 08 3e f2 f9 df 3c e3 b3 1b 3d b2 07 bd bd
       0.13349138 0.027340863 0.03801335 -0.092299834
000190 cf 03 f2 3c 12 3d 73 3d fd a8 27 be da 8b 1e 3d
       0.029542832 0.059384413 -0.16373058 0.03870759
0001a0 8b 5d 31 3d 8e 59 d8 bd 73 7c 05 3d c2 a5 f8 3d
       0.0433021 -0.10563956 0.032589387 0.12140991
0001b0 0e 35 cc bd 3e 8e 87 3b 0f 23 93 bd 0b b7 8a bd
       -0.09971057 0.0041368296 -0.07184421 -0.06773194
0001c0 68 79 2d 3d 1a 94 9c 3d cd bd a4 3d f1 73 a6 bc
       0.04235211 0.07645436 0.08044014 -0.020318957
0001d0 96 2b 14 3e e9 15 68 3d aa c3 d4 3d bf c4 f9 bd
       0.14469752 0.05666152 0.103888825 -0.121957295
0001e0 76 30 26 3d 7d 18 5e bd f0 fb ac bd 93 bf 47 bc
       0.04057356 -0.054222573 -0.08446491 -0.012191671
0001f0 5a 43 c7 bd ce e6 23 be 7e c0 19 be 4c 72 d7 bd
       -0.09729643 -0.16006014 -0.15014836 -0.10519847
000200 fe 25 ea 3d 5b d9 c1 3d 61 54 98 bd ed 07 60 bd
       0.11433028 0.094652854 -0.07437969 -0.05469506
000210 96 45 14 bd 66 a5 ab bd 32 f6 ef 3d c6 b1 0e 3d
       -0.036199175 -0.083811566 0.1171688 0.034837507
000220 a1 16 81 3d f8 79 8b 3c ff 45 38 3d 9d 39 ff bd
       0.06303144 0.017025933 0.04498863 -0.12462161
000230 42 c6 55 bd fd f3 bf 3d 70 55 5e 3c 0f c2 10 3d
       -0.052191027 0.09372709 0.013570175 0.03534132
000240 07 a9 5d 3d 35 7b 89 3d e6 09 b2 bd db dc f8 3c
       0.054116275 0.06712953 -0.08693294 0.03037875
000250 37 a4 80 bd c7 d4 77 3c a2 75 b9 bd 74 32 79 bd
       -0.062813215 0.015126414 -0.0905564 -0.06083913
000260 de d2 f3 bd bd 95 68 bd 43 73 ad 3d a7 88 62 bd
       -0.11905454 -0.056783427 0.0846925 -0.055306103
000270 6b ff e8 3b eb 3e 49 3d db e4 83 bd bc 86 fc bd
       0.0071105263 0.04913227 -0.06440135 -0.12330386
000280 50 02 49 bd 76 27 16 3e 37 77 ea bc d3 cb 0a be
       -0.04907447 0.1466349 -0.0286213 -0.13554315
000290 11 ab 08 bd ff 54 83 3d c9 68 f7 bd c1 0d a7 3d
       -0.033366267 0.06412696 -0.12080533 0.0815692
0002a0 5d 64 d3 3d 19 cc e1 bc 20 6e ec 3d 5c 0c 10 3e
       0.10321877 -0.027563142 0.11544442 0.14067215
0002b0 7d 17 55 bd 8f 7c 9d bb 06 66 79 bd 22 73 0d 3d
       -0.052024353 -0.0048061083 -0.060888313 0.034533627
0002c0 fb ba cd bd d8 79 ed 3d 8d 0e c8 bd bc 5f dd 3d
       -0.10045429 0.115955055 -0.097684 0.108092755
0002d0 67 e5 b8 bd dc d7 94 bd 68 41 2e 3d 1c 00 70 3d
       -0.0902813 -0.072677344 0.042542845 0.058593854
0002e0 c9 43 07 3e c4 99 16 3e 74 ce 00 be 74 00 e9 bd
       0.13209452 0.14707094 -0.12578756 -0.113770396
0002f0 8f 6f 55 3d b7 2a 0d be 89 fc 8c 3d 20 12 9d bd
       0.052108344 -0.13785826 0.06884105 -0.07669473
000300 af 90 da 3d 34 53 d9 bd 16 37 3c bd 37 da 5b 3d
       0.106721275 -0.10611573 -0.04595097 0.053674903
000310 7b 24 13 3e 6a b7 f3 3d 3a 6a f3 3a d0 4e b0 bd
       0.14369385 0.11900218 0.0018571087 -0.08608782

conv2.bias f4 [4]
000000 06 8a cc bd ca 2b 94 bc 87 fa 16 3d eb b0 cd bb
       -0.099872634 -0.018087287 0.036860015 -0.006277194

fc1.weight f4 [4, 3364]
000000 63 8c 09 bc 58 3b 97 bb 74 d7 35 3c 42 04 3a 3c
       -0.008395287 -0.0046152286 0.011098731 0.011353554
000010 6d 3b 8c 3c 7f 40 89 bc ac 76 b5 3b e0 d7 b4 3a
       0.01711818 -0.016754387 0.0055378284 0.0013797246
000020 e0 bb c3 3b 44 b7 d0 3b d6 64 14 bc a2 a7 8c bc
       0.005973324 0.006369503 -0.009057244 -0.017169777
000030 d4 f1 a6 3b 80 4b e9 39 42 49 96 bb d4 4d f6 3b
       0.005094746 0.00044497475 -0.0045863697 0.007516602
000040 10 3b 0a 3c 3e 9d 98 bb 80 77 c0 3b 48 33 68 bb
       0.008436933 -0.0046574166 0.0058736205 -0.0035430957
000050 60 b0 f4 3a 90 11 b5 3b 54 06 f7 bb 1a 3f 26 3c
       0.0018668287 0.0055257753 -0.007538596 0.0101468805
000060 d8 fd a7 bb 3c f5 b3 3b 7f bb 86 bc 06 ff 33 bc
       -0.005126696 0.0054918807 -0.016446827 -0.010986095
000070 a8 1a 74 bb b0 7e 8c bb e0 05 12 3a a0 3b 18 3b
       -0.0037247334 -0.0042875633 0.00055703335 0.0023228899
000080 00 62 6f bb ac 23 3a 3c 1a cc 2d bc f5 a6 7e bc
       -0.0036526918 0.011361044 -0.010607744 -0.015542735
000090 78 ad ef bb 9e 01 6a 3c a4 59 f1 3b cd e3 14 bc
       -0.0073143803 0.014282612 0.0073654223 -0.009087515
0000a0 a0 5c c2 3a f8 9e e1 bb 3c c4 60 3c 1a 8c 10 3c
       0.001482863 -0.0068854056 0.013718661 0.008822465
0000b0 70 d9 91 3b 68 e3 f4 3b 0d 20 85 3c 78 86 8c 3b
       0.0044509694 0.007473398 0.016250635 0.004288491
0000c0 97 7d 84 3c 40 7b 5c 3b 3c 9c 1f bb 28 34 e9 bb
       0.016173167 0.0033642799 -0.0024354598 -0.007116813
0000d0 90 4b 79 3b 8d f6 6d bc e5 fb 8c bc 88 d3 fd 3b
       0.0038039424 -0.014524114 -0.017209956 0.0077461638
0000e0 14 22 5f bc 5e 70 1f 3c dc fa 1b 3c 02 f1 3f 3c
       -0.013618965 0.00973138 0.009520259 0.011715176
0000f0 f9 49 07 bc 30 1b 15 3c 66 fa 67 3c 20 fe 66 ba
       -0.008257383 0.00910072 0.014158821 -0.0008811671
000100 00 be d9 bb ac 9a 36 3c 78 94 cc 3c 48 1b 53 bb
       -0.006644964 0.011145275 0.02497314 -0.0032212306
000110 2e cf 70 bc df 37 46 bc 99 5e d0 3c bc d2 83 3b
       -0.014697833 -0.012098282 0.025435733 0.004022924
000120 77 cb 4f bc 80 ed 02 ba ed 66 82 bc f2 fb 2c 3c
       -0.012682787 -0.00049944967 -0.01591822 0.010558115
000130 c0 19 c6 3a 02 3f 68 bc 02 ff 0b 3c 9c 1f ac 3b
       0.0015113875 -0.0141751785 0.008544685 0.0052527916
000140 32 e8 18 3c 2e 32 4e bc be 4b dd bb e8 09 45 3c
       0.009332703 -0.012585206 -0.006753414 0.012026288
000150 5d df 88 bc e8 32 10 bc 66 84 2d bc ba 03 29 bc
       -0.01670807 -0.0088011995 -0.010590648 -0.01031583
000160 d2 d6 11 3c dc 02 5c 3c 58 31 e0 bb a0 71 fc 3a
       0.008901315 0.013428416 -0.0068418197 0.0019259937
000170 dc 8a 56 bc 21 58 55 3c 65 33 00 3c 18 ba 71 3c
       -0.01309463 0.0130215 0.007824753 0.014753841
000180 a4 84 db bb 15 b1 c0 3a 96 b0 df b9 73 58 80 3c
       -0.0066991616 0.0014701212 -0.0004266544 0.015667176
000190 64 6b 7a 3c 2c 8f 44 bc 54 e9 0c bc f8 29 38 bb
       0.015284393 -0.011997025 -0.008600552 -0.0028101187
0001a0 77 91 2d bc 26 7e 5b bc 70 b2 2c 3b b0 95 a9 bb
       -0.010593764 -0.013396775 0.0026351474 -0.005175315
0001b0 88 4f a2 3b 26 f8 37 bc c2 7f 94 bb 3c e4 7f bb
       0.0049533285 -0.011228597 -0.0045318315 -0.003904595
0001c0 0a a8 48 3c 8f c4 8c 3c 80 fc 09 bc af 59 8b 3c
       0.012247095 0.01718357 -0.008422017 0.017010538
0001d0 ea c4 57 bc 78 16 4b 3c ca ed 51 3c 96 31 20 bc
       -0.013169507 0.012395494 0.012813041 -0.009777447
0001e0 ee 5b 6f 3c 00 f9 fd b8 5e e2 af 3c 8d ed 03 3d
       0.01460932 -0.0001211036 0.021470245 0.032208968
0001f0 a7 7f f5 3c 41 ba da 3a aa 71 0f 3b 7c 4d 9d bc
       0.029968096 0.0016687588 0.0021887817 -0.019201986
000200 c4 12 1b 3c c6 47 c2 3c 78 4a 3f 3b 80 f4 53 3a
       0.009464923 0.023715865 0.0029188674 0.00080854446
000210 1c 3b 73 bb 83 8f 84 3c d0 ec 2d 3b 9e c8 dd bb
       -0.003711409 0.016181713 0.0026538856 -0.0067683
000220 00 60 dd bb 18 0c 18 3c 2e 2e 4e bc 40 a0 5a 3a
       -0.006755829 0.009280227 -0.012584252 0.0008339919
000230 4e ad 06 3c 38 3c ef ba b2 b7 6e 3c 88 a1 80 3b
       0.00822003 -0.00182522 0.014570164 0.003925506
000240 9e 76 62 3c 9d 0e 80 3c 6e 97 05 3c ac 63 c1 3b
       0.013822226 0.015631968 0.008153779 0.0059017744
000250 cd a7 41 bc 7d a4 5e 3c 29 e0 8e 3c e1 fc b5 3c
       -0.011819792 0.013589022 0.017440872 0.022215309
000260 db a8 21 3b 3c e8 78 3b 78 c2 f6 3c ff 58 4d 3c
       0.0024667296 0.003798022 0.030122027 0.012533425
000270 06 09 9b 3c 8f f4 90 39 6c a2 2d bc c3 2e ff ba
       0.018925201 0.0002764803 -0.010597806 -0.0019468892
000280 3d 1f eb 3c 58 ba 53 bc 42 24 76 bc 38 ce b1 3b
       0.028701419 -0.012922846 -0.015023293 0.0054261945
000290 88 3e db 3b b9 c0 e4 3c 53 e7 b2 3c bc 94 03 3c
       0.006690804 0.027923929 0.02183882 0.0080310665
0002a0 3e ff e2 bb 80 ac d1 bb 0c 1b d8 3b 84 97 1d bb
       -0.0069274 -0.0063987374 0.006595021 -0.002404661
0002b0 00 40 3a 37 55 b0 86 bc e0 a2 83 bc fb b1 86 3c
       1.1101365e-05 -0.016441504 -0.016068876 0.01644229
0002c0 c9 95 50 bc 61 a9 05 bc 96 a2 f0 3b cb cb e0 3c
       -0.012731024 -0.008158059 0.0073436005 0.027440926
0002d0 3a a1 82 3c e6 8d f5 3c 4a 7b 07 bc 05 bc 9e 3c
       0.01594602 0.029974889 -0.0082691405 0.019376764
0002e0 00 07 69 bc f8 f4 24 3c d3 90 a9 3c 7d 6f e1 bb
       -0.01422286 0.010068171 0.02069894 -0.0068797455
0002f0 71 79 6a 3b d6 90 d5 ba 77 3e 44 3c 14 52 17 bc
       0.003577795 -0.0016293775 0.011977783 -0.009235878
000300 ad d6 0d bc 1e 50 1f bc de d0 4f 3c 92 83 05 3c
       -0.00865714 -0.009723691 0.012684075 0.008149045
000310 08 5c c4 3b 20 20 ed ba 04 89 8a bb 52 83 7d bc
       0.0059924163 -0.0018091239 -0.0042277593 -0.015473204
000320 d6 1f 12 3c f0 b6 8d ba d8 4f 61 bc f2 31 58 3c
       0.008918723 -0.0010811966 -0.013751946 0.013195502
000330 24 8d 92 bb 80 5f c5 3b 00 28 9f 3a 8c d2 c9 3c
       -0.0044723917 0.0060233474 0.0012142658 0.02463653
000340 92 77 b8 39 39 39 78 3c 29 8c 59 3c a6 8c b5 3c
       0.00035184302 0.015150362 0.013278046 0.022161793
000350 e5 6f 4a bb 59 aa 68 bc ec cb 14 3d 86 9e 9d 3b
       -0.0030889448 -0.01420077 0.036327288 0.004810157
000360 20 5b 17 3c 57 21 66 3c 05 4a 5d bb 13 c1 d4 bb
       0.0092380345 0.014046035 -0.0033766043 -0.006492743
000370 3a 03 0a bd 29 a1 90 3b e4 e3 90 bc c4 56 88 3b
       -0.033694483 0.004413743 -0.017686792 0.004160734
000380 7c ef ea bb 8a 16 81 bc 46 68 e5 bc 60 fb 9f ba
       -0.007169662 -0.015757818 -0.028003823 -0.0012205653
000390 c4 1e 35 bb b7 28 18 bc d4 e0 45 bc 6d a2 8b bc
       -0.0027636746 -0.009287051 -0.012077529 -0.017045224
0003a0 80 0f 72 3a 51 6e 84 3c 1f 94 7e bc 59 62 3a b9
       0.0009233877 0.016165884 -0.0155382445 -0.0001777498
0003b0 6c 1d 0b 3c 66 7f 3f bd f0 21 ee 3b 56 64 6e bc
       0.008490901 -0.046752356 0.0072672293 -0.014550289
0003c0 06 5b 99 bc b3 47 57 bc 56 c8 68 3b b9 7e 6e bc
       -0.018720161 -0.013139653 0.00355198 -0.01455658
0003d0 be 2c 91 3b 6e db ce bc f3 8e 70 bc 6f c0 22 bc
       0.0044303825 -0.025251117 -0.014682519 -0.009933575
0003e0 56 46 8b 3c 8c 8b f4 3b 0d 18 c4 bc 51 9c 8b bc
       0.017001312 0.0074629243 -0.02393725 -0.01704231
0003f0 f4 60 21 bc 63 f2 46 bb 87 d3 31 3c b3 b2 02 3c
       -0.009849776 -0.0030356876 0.010853655 0.0079771755

fc1.bias f4 [4]
000000 92 72 d6 3d 46 1e 9d bc d5 58 82 bc 23 cd 03 3e
       0.10471071 -0.019179475 -0.015911499 0.12871222

fc2.weight f4 [3, 4]
000000 10 f1 0a bf cd b8 a9 be ae 4c 8e 3e 33 da 77 bd
       -0.5427408 -0.33148804 0.27792877 -0.060510825
000010 1d 5b 7c be 45 46 f4 be 47 e6 83 be f6 ca 4e be
       -0.24644132 -0.4770986 -0.25761625 -0.20194611
000020 a7 4e 04 3e 12 23 c2 3e 9f fb ea 3e 33 97 f9 be
       0.12920628 0.37917382 0.45895097 -0.48748168

fc2.bias f4 [3]
000000 c6 d7 09 3e d5 10 15 3e c4 90 8d be
       0.13461217 0.14557202 -0.2764951

qnn.weight f4 [6]
000000 b2 c0 2d 3f 64 8e 56 3f 3f 1f 5e 3e 28 65 ee 3e
       0.67872155 0.8381102 0.21691607 0.4656155
000010 04 b7 0e 3f f0 8c 1e 3f
       0.5574801 0.61933804

qnn._weights f4 [6]
000000 b2 c0 2d 3f 64 8e 56 3f 3f 1f 5e 3e 28 65 ee 3e
       0.67872155 0.8381102 0.21691607 0.4656155
000010 04 b7 0e 3f f0 8c 1e 3f
       0.5574801 0.61933804
