models/classification/3qubits/oasis-2_coronal-ss_3qubits.pt (torch, 59218 bytes, 10 tensors)

conv1.weight f4 [2, 1, 5, 5]
-0.033535905 0.060041286 -0.1309797 0.10080122 0.09090854 0.14485496 0.18828088 -0.052615568
0.21958521 0.16818382 -0.16200402 0.11772405 -0.120579064 -0.068257414 0.2144183 -0.07100528
-0.10797626 0.06824817 -0.056112524 -0.11753909 -0.09585248 -0.25460672 -0.2194214 0.12714428
-0.13042139 -0.10804816 -0.23176058 -0.17606737 0.013801489 -0.06322573 -0.17593476 0.13429046
-0.12729277 -0.15816 0.19665992 -0.21310776 -0.23880526 0.0892477 -0.07289127 -0.22821137
0.15378347 -0.23771024 -0.063824095 0.10242795 -0.21697976 -0.098580986 -0.07248207 -0.054296434
-0.03348631 -0.15335503
00000000: f25c 09bd daed 753d 8b1f 06be df70 ce3d
00000010: 422e ba3d dc54 143e b4cc 403e 6c83 57bd
00000020: f2da 603e 6138 2c3e 62e4 25be 4f19 f13d
00000030: 28f2 f6bd 8bca 8bbd 7990 5b3e 376b 91bd
00000040: a822 ddbd b2c5 8b3d 3fd6 65bd 56b8 f0bd
00000050: 4e4e c4bd d05b 82be 01b0 60be 1c32 023e
00000060: 2f8d 05be 5b48 ddbd a552 6dbe 014b 34be
00000070: a41f 623c 7e7c 81bd 3e28 34be 7083 093e
00000080: 0959 02be b2f4 21be 3861 493e ec38 5abe
00000090: 5e89 74be 80c7 b63d 0548 95bd 3eb0 69be
000000a0: 6a79 1d3e 506a 73be 35b6 82bd bfc5 d13d
000000b0: f12f 5ebe d4e4 c9bd 7b71 94bd f065 5ebd
000000c0: f128 09bd 1a09 1dbe

conv1.bias f4 [2]
0.10444372 0.21316047
00000000: 97e6 d53d bd46 5a3e

conv2.weight f4 [4, 2, 5, 5]
0.012220569 0.002463453 -0.009502482 0.0746551 0.076979615 -0.14523567 0.00071149383 0.029820494
-0.08599245 -0.013829788 -0.1290237 -0.087980196 0.11469436 0.07741888 0.050002262 -0.14761037
-0.07767246 -0.15046015 -0.021274397 0.062171936 -0.14572439 -0.17070311 -0.17300372 0.10595792
0.09088377 -0.11499566 -0.0801789 -0.042408764 0.025174985 -0.06883149 0.10853084 -0.030050503
0.075907856 -0.10820811 -0.014879162 0.07400597 0.13175142 0.14170133 0.03326295 0.075179674
0.064767495 -0.09362263 -0.122158654 0.10404298 -0.11077762 -0.14870305 0.10856751 -0.14117187
-0.05408555 0.09692027 0.071901925 -0.11175849 -0.08707843 0.05862014 -0.09074242 0.07862677
0.043211587 -0.08633319 -0.09041666 0.025069078 0.105727024 0.11037277 -0.018445516 0.14367683
-0.051088415 0.13122693 0.12260511 0.015917411 -0.02247095 -0.12356211 -0.040878225 -0.04789381
-0.002245099 0.09516074 -0.020498224 -0.045394685 0.117943905 -0.08389204 0.058120653 0.116852835
-0.110289864 0.04701705 -0.10545 -0.07764614 0.021097982 -0.0069822352 0.02677552 0.13030018
0.09741966 -0.098548785 0.1276015 -0.047142122 0.017617846 -0.05924264 -0.031968113 0.029929902
-0.025017146 -0.10766564 -0.12086995 -0.14280663 0.025450092 0.031061837 -0.023075804 0.087575406
-0.15223356 -0.012801262 0.021166936 -0.060693383 -0.05791169 0.10110134 0.097777605 0.09472297
0.13211234 0.1175529 -0.08998335 0.0881947 0.09241923 0.031823847 0.10386031 0.0866806
-0.0141436355 -0.12564816 -0.1082082 -0.011112425 0.12792867 -0.16067319 0.120596126 -0.040677596
0.11951967 0.030807624 -0.046630237 0.08549643 0.024343504 0.056231085 -0.06901325 0.100057006
0.11535863 0.06428613 -0.15834236 0.061101455 0.015880594 0.078202225 0.10893154 -0.10311942
-0.09785397 -0.17536978 -0.122526124 0.104876645 0.10821829 -0.1538196 -0.0681373 0.008926883
0.054343536 0.072103515 -0.1404588 -0.08209486 0.11994968 0.16260794 0.03806728 0.11909833
-0.04296166 -0.16339865 0.09355945 -0.054983493 0.076021135 -0.1738546 0.028546166 0.04668712
-0.16270457 -0.008061636 -0.066145614 0.07469444 0.060494274 0.020456538 -0.10638477 -0.10215074
-0.0011415225 -0.16848274 -0.08467097 -0.076202214 0.057048373 -0.1255902 -0.12634997 -0.03503498
0.0351851 -0.06923209 -0.0151899345 -0.042272944 0.118757814 0.019184688 0.09847157 0.10709953
-0.021619143 0.03868013 0.054758646 -0.112040624 -0.10136472 0.06948476 -0.05271058 0.07401777
00000000: c838 483c e271 213b 4cb0 1bbc c6e4 983d
00000010: 7da7 9d3d a9b8 14be 8b83 3a3a 1c4a f43c
00000020: cf1c b0bd 5696 62bc ca1e 04be f62e b4bd
00000030: e0e4 ea3d ca8d 9e3d 2ccf 4c3d 2c27 17be
00000040: bd12 9fbd 3a12 1abe a547 aebc 00a8 7e3d
00000050: c638 15be cccc 2ebe e327 31be 7700 d93d
00000060: 4521 ba3d d882 ebbd d634 a4bd d0b4 2dbd
00000070: c53b ce3c 86f7 8cbd 6b45 de3d 792c f6bc
00000080: 9475 9b3d 379c ddbd bbc7 73bc 7190 973d
00000090: d8e9 063e 271a 113e bb3e 083d cdf7 993d
000000a0: d2a4 843d 39bd bfbd 512e fabd 7c14 d53d
000000b0: 60df e2bd 9d45 18be a558 de3d 5c8f 10be
000000c0: cf88 5dbd 227e c63d 5141 933d a3e1 e4bd
000000d0: 2d56 b2bd ac1b 703d 29d7 b9bd 1207 a13d
000000e0: a2fe 303d 75cf b0bd 5f2c b9bd ab5d cd3c
000000f0: 6987 d83d 1e0b e23d 0d1b 97bc 0520 133e
00000100: 1642 51bd 5a60 063e 6318 fb3d 3b65 823c
00000110: ff14 b8bc 220e fdbd ed6f 27bd 4d2c 44bd
00000120: 8322 13bb a2e3 c23d e4eb a7bc c7ef 39bd
00000130: 938c f13d 97cf abbd ec0f 6e3d 8a50 ef3d
00000140: a7df e1bd f394 403d 2bf6 d7bd f004 9fbd
00000150: add5 ac3c 3ccb e4bb 5658 db3c 696d 053e
00000160: f583 c73d f2d3 c9bd f8a9 023e 1918 41bd
00000170: 4d53 903c 69a8 72bd fff0 02bd 8e2f f53c
00000180: c2f0 ccbc ce7f dcbd aa8a f7bd e73b 12be
00000190: b67c d03c 6575 fe3c 7809 bdbc bc5a b33d
000001a0: 1de3 1bbe 62bc 51bc 4866 ad3c a099 78bd
000001b0: cf34 6dbd 380e cf3d a03f c83d 1efe c13d
000001c0: 7548 073e 93bf f03d 3149 b8bd 6c9f b43d
000001d0: 4b46 bd3d b959 023d b7b4 d43d 9985 b13d
000001e0: b5ba 67bc e9a9 00be 439c ddbd e310 36bc
000001f0: bcff 023e 8387 24be 1afb f63d 8d9d 26bd
00000200: bbc6 f43d 4560 fc3c 59ff 3ebd c118 af3d
00000210: 076c c73c 9152 663d d256 8dbd b0ea cc3d
00000220: 2541 ec3d 72a8 833d 8024 22be 8545 7a3d
00000230: 0518 823c 7d28 a03d 8017 df3d 4630 d3bd
00000240: aa67 c8bd 2394 33be faee fabd 91c9 d63d
00000250: 8da1 dd3d e382 1dbe 928b 8bbd 1042 123c
00000260: 5497 5e3d 02ab 933d 6fd4 0fbe 5a21 a8bd
00000270: 2ea8 f53d b282 263e 70ec 1b3d d3e9 f33d
00000280: 91f8 2fbd fa51 27be 199c bf3d 5f36 61bd
00000290: f8b0 9b3d f106 32be a6d9 e93c fe3a 3f3d
000002a0: 079c 26be f414 04bc 5a77 87bd 66f9 983d
000002b0: d8c8 773d 7894 a73c 42e0 d9bd 6834 d1bd
000002c0: 249f 95ba bd86 2cbe f967 adbd e80f 9cbd
000002d0: 8eab 693d b89a 00be e361 01be d780 0fbd
000002e0: 401e 103d 8ec9 8dbd 34df 78bc 6526 2dbd
000002f0: 4c37 f33d 3529 9d3c 76ab c93d 0057 db3d
00000300: a11a b1bc 0e6f 1e3d 9a4a 603d 8e75 e5bd
00000310: 4e98 cfbd 074e 8e3d 0de7 57bd a196 973d

conv2.bias f4 [4]
0.056695405 -0.017351046 -0.096153155 0.0738989
00000000: 7139 683d c823 8ebc f2eb c4bd 4e58 973d

fc1.weight f4 [4, 3364]
-0.0012620038 0.010818668 -0.014699351 0.008870006 0.009038504 0.0119480835 0.014146777 -0.015787967
-0.0012725681 0.0031000474 0.0132412985 -0.009047306 -0.015561005 0.006511322 -0.007521318 0.009840202
-0.013374469 -0.018061034 -0.017285407 0.0032170084 0.0045762258 -0.0054171924 -0.017633416 0.0049549304
0.0063451454 0.0052825045 -0.007177286 0.0050774924 -0.015636383 0.007387771 -0.01417199 0.0014202854
-0.008837358 0.009476344 0.008002743 0.0010044721 0.0070104413 0.012934712 0.0022699113 0.007433263
0.0034441294 0.014778062 -0.0037089856 -0.0055468194 0.0012330527 0.008748669 0.0035543693 0.0047343397
0.008229972 0.0034528994 0.0048239096 0.0057891156 0.005925894 0.014938409 -0.0101478165 -0.001984788
0.00015636494 0.006715562 -0.014408914 -0.00015113036 0.0046008774 -0.0069667385 -0.0043518953 0.0036560886
-0.003797438 0.006188198 0.00020922071 0.0028441178 -0.015791653 -0.0280348 -0.028345602 -0.040149476
-0.04653237 -0.03941078 -0.030517448 -0.018576032 -0.024115935 -0.033694416 -0.0151382135 0.004793052
0.014207054 0.02218249 0.018837681 -0.0014630065 -0.007144435 0.013747805 -0.0069848257 -0.013064297
-0.012012765 0.009052425 0.011807968 0.00090712047 -0.022034122 -0.007761356 -0.041789494 -0.03202266
-0.035565354 -0.035060816 0.0151932165 0.008771118 -0.028630624 -0.06831611 0.0030818335 0.018025706
-0.030877046 -0.03073637 -0.005337157 0.022025913 -0.015888415 -0.03000206 -0.0033890582 0.005237358
0.017735908 -0.0016146348 -0.009843847 0.018757379 0.006699712 0.003559382 0.0012411282 -0.012548355
-0.0017916072 -0.0044954433 -0.008708905 -0.016160293 0.0068862378 0.0036377986 0.01584011 -0.01369025
0.038501278 0.02215866 -0.035846356 -0.027237777 0.022857985 0.013475728 -0.006629636 0.0067779245
0.014401339 -0.0019156162 0.008596721 -0.030232066 -0.028761972 0.0041114506 0.017663544 -0.0016845375
0.017612478 0.0067729605 -0.015112379 -0.009238995 -0.006484149 0.014914301 0.0029459503 0.009003142
0.036907405 0.01309408 -0.0028445376 -0.01739862 -0.0076608597 -0.008344415 -0.004238183 -0.016331598
-0.044062216 -0.017682822 -0.0011659662 0.00018053707 -0.05172455 -0.0024459576 0.03310225 0.029278088
0.011646759 0.009699315 0.011046695 -0.022283081 0.008380656 0.005331019 -0.0049936436 -0.016994018
-0.003684495 0.03792721 -0.010648863 -0.02634611 -0.037008807 0.0050796187 0.02096872 0.004729674
0.018932015 0.03371264 -0.009909391 0.019138234 0.023821678 -0.010943878 -0.01758731 0.033940952
0.03693212 -0.021798158 -0.026264753 -0.035755046 -0.012669948 -0.033375353 0.013133644 7.108946e-05
0.0037904014 -0.02007664 0.015358526 -0.011813758 -0.010016032 0.020247966 0.0552023 0.0049779247
0.036360536 0.036636353 -0.010942047 0.008648457 -0.0043829908 -0.041152656 -0.024194324 -0.06408831
-0.015209071 0.017439203 0.014515708 -0.021713339 -0.034686208 -0.0061680228 0.0069896164 0.003844407
0.010881358 -0.0038150318 -0.007367495 -0.04067027 0.009505202 0.005211473 0.016386814 0.014609381
0.004471818 -0.0030988888 0.01959884 0.047670506 0.008187675 0.009758024 0.030584512 -0.0016910523
-0.03398706 -0.047574338 -0.05673953 -0.015735636 -0.029561348 -0.014090726 -0.0029213454 -0.031449657
-0.014319028 -0.020350812 -0.034742743 -0.08724856 -0.0074682855 0.014803928 0.022924336 0.013758124
00000000: d269 a5ba c840 313c 8cd5 70bc 8053 113c
00000010: 3c16 143c e5c1 433c e2c7 673c c455 81bc
00000020: 4dcc a6ba 2a2a 4b3b 08f2 583c 273b 14bc
00000030: 96f3 7ebc ee5c d53b 6375 f6bb cc38 213c
00000040: 9720 5bbc bcf4 93bc 209a 8dbc 72d4 523b
00000050: 2af4 953b b482 b1bb f473 90bc f85c a23b
00000060: f0ea cf3b dc18 ad3b 702f ebbb 1861 a63b
00000070: df17 80bc 1d15 f23b a231 68bc df28 ba3a
00000080: 91ca 10bc ab42 1b3c f01d 033c 7ea8 833a
00000090: d8b7 e53b 1dec 533c cbc2 143b bb92 f33b
000000a0: e7b6 613b af1f 723c 7412 73bb 18c2 b5bb
000000b0: 629e a13a 9456 0f3c 6cf0 683b 8522 9b3b
000000c0: 01d7 063c 0a4a 623b e311 9e3b 9fb2 bd3b
000000d0: 002e c23b 3bc0 743c 0743 26bc 3813 02bb
000000e0: e5f5 2339 380e dc3b 5e13 6cbc bf78 1eb9
000000f0: f5c2 963b 3d49 e4bb 589a 8ebb fd9a 6f3b
00000100: 70de 78bb 5ec6 ca3b 4262 5b39 6164 3a3b
00000110: 7f5d 81bc 3da9 e5bc 0935 e8bc c773 24bd
00000120: ba98 3ebd 336d 21bd baff f9bc c32c 98bc
00000130: c88e c5bc 2803 0abd 4506 78bc 090f 9d3b
00000140: b4c4 683c 0eb8 b53c 7b51 9a3c 5ac2 bfba
00000150: dd1b eabb 793e 613c f7e0 e4bb a20b 56bc
00000160: 30d1 44bc 9f50 143c 3576 413c d3cb 6d3a
00000170: e780 b4bc f952 febb 762b 2bbd 312a 03bd
00000180: faac 11bd ee9b 0fbd f8ec 783c bcb4 0f3c
00000190: c58a eabc 51e9 8bbd 96f8 493b a5aa 933c
000001a0: dcf1 fcbc d7ca fbbc 51e3 aebb b06f b43c
000001b0: 6c28 82bc e1c6 f5bc f61a 5ebb 259e ab3b
000001c0: e54a 913c 27a2 d3ba 1648 21bc 13a9 993c
000001d0: 4289 db3b 8544 693b 5aad a23a 9e97 4dbc
000001e0: 5dd4 eaba 834e 93bb ccaf 0ebc 9762 84bc
000001f0: f3a5 e13b 2268 6e3b 1ec3 813c 124d 60bc
00000200: 84b3 1d3d 1486 b53c a1d3 12bd c221 dfbc
00000210: ab40 bb3c 4dc9 5c3c 6b3d d9bb 5a19 de3b
00000220: 98f3 6b3c 6a15 fbba 43d9 0c3c 3da9 f7bc
00000230: 3a9e ebbc 59b9 863b 23b3 903c b3cb dcba
00000240: 0b48 903c b6ef dd3b e999 77bc 275f 17bc
00000250: fc78 d4bb 1d5b 743c d810 413b ea81 133c
00000260: 382c 173d 8d88 563c 6c6b 3abb 8d87 8ebc
00000270: f307 fbbb 03b7 08bc 75e0 8abb d8c9 85bc
00000280: 957a 34bd 91db 90bc 55d3 98ba 8d4e 3d39
00000290: 1fdd 53bd 5c4c 20bb 3a96 073d 9ad8 ef3c
000002a0: 0cd2 3e3c e0e9 1e3c 32fd 343c 028b b6bc
000002b0: 054f 093c d4af ae3b b8a1 a3bb 0a37 8bbc
000002c0: 9277 71bb 9059 1b3d 9278 2ebc ccd3 d7bc
000002d0: 8c96 17bd ee72 a63b 98c6 ab3c 62fb 9a3b
000002e0: 5017 9b3c 4416 0a3d 005b 22bc c9c7 9c3c
000002f0: ae25 c33c f44d 33bc 4313 90bc ab05 0b3d
00000300: 2246 173d 0d92 b2bc 2e29 d7bc e273 12bd
00000310: 9d95 4fbc 98b4 08bd 7f2e 573c dd15 9538
00000320: 6268 783b c477 a4bc 54a2 7b3c 7e8e 41bc
00000330: 481a 24bc 10df a53c cf1b 623d dc1d a33b
00000340: c9ee 143d 0010 163d 4646 33bc 42b2 0d3c
00000350: 319f 8fbb b08f 28bd 2d33 c6bc bb40 83bd
00000360: 782f 79bc a9dc 8e3c 4bd3 6d3c 2ce0 b1bc
00000370: 2013 0ebd 201d cabb 2709 e53b 72f2 7b3b
00000380: b947 323c 9d05 7abb 076b f1bb de95 26bd
00000390: b5bb 1b3c 01c5 aa3b a43d 863c 2f5c 6f3c
000003a0: 5488 923b ba16 4bbb bf8d a03c 2642 433d
000003b0: 9925 063c 1ee0 1f3c 5f8c fa3c 4da6 ddba
000003c0: 0436 0bbd 4fdd 42bd b667 68bd 05e8 80bc
000003d0: a42a f2bc cadc 66bc 0b74 3fbb 5bd1 00bd
000003e0: 5b9a 6abc bfb6 a6bc 684e 0ebd 5faf b2bd
000003f0: 85b8 f4bb 2d8c 723c d1cb bb3c c169 613c

fc1.bias f4 [4]
0.105579324 0.050903115 -0.02480113 0.08327895
00000000: f939 d83d c97f 503d bd2b cbbc 278e aa3d

fc2.weight f4 [3, 4]
-0.13896646 -0.2673843 -0.35863823 0.053359106 -0.32407928 0.06503397 0.4823673 -0.009098032
-0.43768463 0.48966593 0.2119841 -0.3142302
00000000: 394d 0ebe 98e6 88be 6e9f b7be 148f 5a3d
00000010: b8ed a5be 8830 853d d9f8 f63e e90f 15bc
00000020: 3318 e0be 7eb5 fa3e 5c12 593e c8e2 a0be

fc2.bias f4 [3]
-0.33971697 0.27838212 0.1505993
00000000: 62ef adbe 1a88 8e3e b436 1a3e

qnn.weight f4 [6]
0.57497126 0.49002227 -0.26567945 -0.14311637 -0.64210385 0.6680343
00000000: 5131 133f 33e4 fa3e 2307 88be 198d 12be
00000010: eb60 24bf 4c04 2b3f

qnn._weights f4 [6]
0.57497126 0.49002227 -0.26567945 -0.14311637 -0.64210385 0.6680343
00000000: 5131 133f 33e4 fa3e 2307 88be 198d 12be
00000010: eb60 24bf 4c04 2b3f
