models/classification/control/axial/oasis-2_axial_2qubits_r4.pt (torch, 59124 bytes, 10 tensors)

conv1.weight f4 [2, 1, 5, 5]
-0.040649407 0.14003576 -0.08302258 -0.1656901 -0.24018393 -0.016837563 0.003838514 0.13632563
-0.15945594 -0.0022389921 0.20076723 0.11681627 -0.052966975 -0.069002 0.13710624 0.14542468
0.19577236 -0.14980894 -0.143558 -0.19160403 -0.025579214 -0.005142846 0.21460126 -0.13403898
0.01485208 0.0027311817 -0.0551994 0.1655646 0.19513988 0.1764185 -0.047086623 -0.12051094
0.2343629 0.2718313 0.2503145 -0.026681103 -0.009154892 0.0002748437 -0.093961194 -0.14268923
-0.045613036 -0.014185467 0.04845399 -0.065442905 -0.20336056 -0.18204571 0.014871783 -0.19948423
-0.16365379 -0.0558889
00000000: fe7f 26bd 8965 0f3e be07 aabd aaaa 29be
00000010: c7f2 75be eeee 89bc 948f 7b3b f298 0b3e
00000020: 6b48 23be 0ebc 12bb ed95 4d3e 5e3d ef3d
00000030: e6f3 58bd ec50 8dbd 9465 0c3e 35ea 143e
00000040: 8d78 483e 8467 19be de00 13be d933 44be
00000050: 808b d1bc 5285 a8bb 6fc0 5b3e 8441 09be
00000060: 2356 733c a0fd 323b c418 62bd c489 293e
00000070: c0d2 473e 0da7 343e e7dd 40bd 71ce f6bd
00000080: d4fc 6f3e 792d 8b3e 3929 803e 5492 dabc
00000090: 66fe 15bc e618 9039 ba6e c0bd 201d 12be
000000a0: bcd4 3abd 296a 68bc b177 463d ee06 86bd
000000b0: c03d 50be 316a 3abe c7a8 733c 9845 4cbe
000000c0: dc94 27be c2eb 64bd

conv1.bias f4 [2]
0.08265356 0.104640566
00000000: 4546 a93d cb4d d63d

conv2.weight f4 [4, 2, 5, 5]
0.06609669 0.106846 0.09399654 0.09973933 0.07212178 -0.10675017 -0.12812807 -0.18346617
0.06234355 -0.06357233 0.104700536 -0.04617399 -0.17069592 -0.14716874 -0.02131912 0.10409781
0.0885344 0.08183846 0.088374026 0.07639477 0.039203472 -0.15215248 0.1420441 -0.114983745
0.08963688 0.14805971 -0.018321322 -0.119115345 -0.10608012 0.0047495104 0.14042231 -0.018185075
-0.018016778 0.009735098 0.07672621 -0.18082161 0.0015633543 0.14858466 0.12772094 0.122301385
-0.059367806 0.15260974 0.14021452 -0.08794626 -0.14989266 0.059831195 -0.09558446 -0.052670382
0.07070444 -0.14304765 -0.12021381 -0.015150788 0.07530513 -0.031636525 0.015941788 -0.0010981791
-0.018543089 -0.111936286 -0.18872698 0.07533456 0.14054616 0.024013707 -0.19663112 0.050765067
-0.01984878 0.118663125 0.10957988 -0.08953751 -0.14977719 -0.087757654 0.14681475 0.09919203
-0.005161397 0.045136187 -0.16070421 -0.08566355 -0.1102349 -0.17559983 -0.13763733 -0.033021893
0.13738802 -0.09605873 0.031612046 0.19152471 0.09838066 -0.11558056 0.14953203 0.07543734
0.13919355 0.15511383 -0.0084758075 -0.14108105 0.11793664 -0.09038566 0.106405385 -0.043331873
-0.020178305 -0.0004053451 -0.10634514 -0.060933325 0.22336996 0.0045467685 -0.13388307 0.10343945
0.053518742 0.0019187266 0.22533527 0.01846325 0.08161212 -0.036908187 -0.15970112 0.10688065
0.17981385 -0.026415497 0.09896844 -0.16537195 -0.052984808 0.12169388 0.15180597 0.088762924
-0.046097383 -0.061215278 0.054030534 0.12680577 0.083619826 0.043533944 -0.035928663 0.09320751
-0.02788701 0.14046814 -0.1353355 -0.16697763 -0.08232578 0.020235192 0.19867636 0.001842501
-0.10740832 -0.19305742 -0.07142942 0.048718926 0.019303715 -0.023425695 0.06971814 0.077583134
-0.013810541 -0.082662106 -0.09865926 0.06918342 0.06330052 0.007489268 0.094202586 0.11913604
0.078780696 -0.03350986 0.13819462 -0.14461227 -0.124250054 0.085493915 0.12515973 -0.13256335
-0.059171036 0.007887918 0.14058161 0.18585771 0.115069404 -0.087298356 0.042071447 -0.03639658
-0.014212476 -0.05426255 -0.0095343115 -0.031697787 -0.0052619046 -0.10421588 0.12138359 -0.016832722
0.12673569 -0.03807428 -0.13314512 -0.055271436 -0.16443771 -0.19557658 0.09937679 -0.10419975
-0.13521633 -0.17853619 -0.062911734 0.13262235 0.06792237 -0.007456329 -0.029096482 0.10677262
0.11737962 0.019750128 0.14870639 0.024244864 -0.05239858 -0.010490551 -0.033006087 0.0468053
00000000: b45d 873d 13d2 da3d 4281 c03d 2244 cc3d
00000010: 95b4 933d d59f dabd 0134 03be 8ede 3bbe
00000020: f35b 7f3d 3632 82bd 3c6d d63d f020 3dbd
00000030: e9ca 2ebe 67b3 16be 6fa5 aebc 3c31 d53d
00000040: 8651 b53d ec9a a73d 71fd b43d dc74 9c3d
00000050: d293 203d dccd 1bbe 0274 113e 997c ebbd
00000060: 8a93 b73d f79c 173e 9916 96bc bff2 f3bd
00000070: 8940 d9bd c8a1 9b3b deca 0f3e def8 94bc
00000080: ec97 93bc f67f 1f3c a222 9d3d 4d29 39be
00000090: 77e9 cc3a 9426 183e 47c9 023e 2679 fa3d
000000a0: a82b 73bd ba45 1c3e 6594 0f3e 2b1d b4bd
000000b0: 767d 19be 8e11 753d c9c1 c3bd e6bc 57bd
000000c0: 7dcd 903d 157b 12be a832 f6bd 033b 78bc
000000d0: 9339 9a3d 4d95 01bd 5a98 823c c7f0 8fba
000000e0: ade7 97bc da3e e5bd a541 41be 0149 9a3d
000000f0: 55eb 0f3e 65b8 c43c ab59 49be 08ef 4f3d
00000100: e999 a2bc a705 f33d 6b6b e03d 715f b7bd
00000110: 315f 19be 49ba b3bd 9b56 163e 3125 cb3d
00000120: f020 a9bb b9e0 383d a58f 24be 5f70 afbd
00000130: d6c2 e1bd 71d0 33be cdf0 0cbe f741 07bd
00000140: 72af 0c3e 70ba c4bd a27b 013d 0e1f 443e
00000150: cd7b c93d 80b5 ecbd ed1e 193e e47e 9a3d
00000160: c188 0e3e 29d6 1e3e 1dde 0abc 8d77 10be
00000170: c488 f13d 1e1c b9bd 11eb d93d c37c 31bd
00000180: f94c a5bc 8084 d4b9 7bcb d9bd 3995 79bd
00000190: 18bb 643e 0ffd 943b a518 09be 10d8 d33d
000001a0: 7836 5b3d c87d fb3a 4abe 663e 3e40 973c
000001b0: 4124 a73d 0a2d 17bd b188 23be 3ee4 da3d
000001c0: 1f21 383e 5065 d8bc f7af ca3d 4457 29be
000001d0: 9906 59bd a43a f93d 0673 1b3e 56c9 b53d
000001e0: 9cd0 3cbd dfbc 7abd 1f4f 5d3d 5fd9 013e
000001f0: df40 ab3d a650 323d ef29 13bd 94e3 be3d
00000200: 4c73 e4bc e1d6 0f3e 6495 0abe 2ffc 2abe
00000210: 6b9a a8bd 46c4 a53c d171 4b3e 1380 f13a
00000220: e5f8 dbbd d8b0 45be 9649 92bd 7f8d 473d
00000230: d322 9e3c 3ee7 bfbc 62c8 8e3d e8e3 9e3d
00000240: 9b45 62bc c04a a9bd de0d cabd 09b0 8d3d
00000250: b4a3 813d 8968 f53b 49ed c03d 99fd f33d
00000260: c657 a13d a341 09bd e482 0d3e 3d15 14be
00000270: d076 febd 6f17 af3d df29 003e b0be 07be
00000280: 545d 72bd 533c 013c a0f4 0f3e 7c51 3e3e
00000290: 82a9 eb3d 7bc9 b2bd 1c53 2c3d 9514 15bd
000002a0: 72db 68bc 6842 5ebd cd35 1cbc 8ad5 01bd
000002b0: 0e6c acbb 236f d5bd f697 f83d c7e4 89bc
000002c0: 00c7 013e c7f3 1bbd 3257 08be 4d64 62bd
000002d0: 5c62 28be 3a45 48be 0f86 cb3d ae66 d5bd
000002e0: 2676 0abe 31d2 36be ded7 80bd 27ce 073e
000002f0: e21a 8b3d 3954 f4bb bf5b eebc 9aab da3d
00000300: ba64 f03d 05cb a13c 7d46 183e 2a9d c63c
00000310: e59f 56bd 8fe0 2bbc 6431 07bd eab6 3f3d

conv2.bias f4 [4]
-0.052790236 0.0074886866 -0.08767074 -0.01083274
00000000: 933a 58bd a863 f53b b88c b3bd ce7b 31bc

fc1.weight f4 [4, 3364]
-0.016816488 -0.007796474 -0.011698399 -0.006366457 -0.017939957 -0.017699203 0.00017942346 -0.00010401869
-0.009588935 -0.016857227 -0.010238537 -0.03038187 -0.0017503928 -0.017554931 -0.028361013 -0.011175494
-0.021820297 -0.03614729 -0.035928942 -0.026019303 -0.015840363 -0.014093333 -0.030083105 -0.0152613055
-0.020638496 -0.034009688 -0.02678836 -0.009514982 -0.0067161676 -0.012489596 -0.019503644 -0.008886666
-0.013204902 -0.009485324 -0.0036843978 -0.0013500099 -0.01113554 -0.016624765 -0.016202426 -0.02850012
-0.032150574 -0.021970395 -0.004053777 -0.010232169 -0.029707054 -0.027814178 -0.017195232 -0.032524373
-0.014869957 -0.015219881 -0.006187127 -0.024296323 -0.012032511 -0.0207613 -0.03508929 -0.019205373
-0.005278069 -0.00019507037 -0.01939889 -0.019704858 -0.012907202 -0.0047671655 -0.0172307 -0.0004042557
0.002495572 -0.034416214 -0.016966445 0.0027844412 -0.023070564 -0.0099283075 -0.009955595 -0.0150498105
0.0067874505 -0.029111976 -0.0023191734 -0.017698402 -0.02043073 -0.0114428 -0.000568129 -0.01966464
-0.016257841 -0.031259827 -0.02596328 -0.030470343 -0.023690986 -0.022578793 0.0021474005 -0.019468587
-0.01145436 -0.02191768 -0.0026900452 -0.0046601603 -0.007464499 -0.022185646 -0.009129208 -0.006192194
0.00053215754 -0.013827456 -0.021637036 -0.01230111 0.0047528245 -0.0021446107 -0.02413761 -0.0051571517
-0.024679773 -0.013361196 -0.02406136 -0.0014142197 0.020772547 0.0030779573 -0.019296123 -0.009949983
-0.0293203 -0.011152571 -0.009735742 -0.004002237 -0.02440504 -0.029105386 -0.0017433782 0.005427018
-0.033889152 -0.0020452768 -0.013810229 -0.008263761 -0.019907705 -0.009369067 0.0025074342 -0.013776122
-0.016499408 0.00811716 -0.0010357698 0.016302444 0.00014749034 0.00025970003 0.010118538 -0.012660598
-0.016081706 -0.022471936 -0.01961494 -0.011446233 -0.007922476 -0.022153165 -0.027965814 -0.028741091
-0.013962777 -0.003975456 -0.001599866 -0.021262003 -0.01633891 0.0013029778 0.0008777265 -0.010761932
-0.011298791 0.009159131 -0.0067141457 0.0068660057 0.014953884 0.0028266949 -0.015652038 -0.018264024
-0.014970262 -0.019641368 0.007823561 0.009326918 -0.01045214 0.0017729608 -0.006117133 -0.021218218
-0.002294611 -0.014446163 0.012076698 -0.009696176 -0.010135783 -0.008798089 -0.012455413 -0.02436083
-0.023247171 -0.0013047225 -0.0024099834 0.0012585272 -0.021531831 0.0069407527 0.010434965 -0.023209095
0.0023829748 -0.0016264708 -0.0061424305 -0.00167237 0.017091189 0.018659675 0.0018780746 0.005428132
-0.00041739122 -0.017626198 0.0050587323 0.01040253 -0.005431649 -0.030440988 -0.00680429 -1.1633292e-05
-0.006471915 -0.016142905 -0.012613047 -0.010522 0.0041790335 0.00914079 -0.015488548 -0.013241494
-0.02371621 0.006426102 -0.0022959795 0.011510094 -0.0026633274 -0.010602778 0.017398631 0.005699661
-0.009226197 -0.0044093803 -0.0040434306 -0.016080871 0.0130934 -0.009489113 -0.0009776709 -0.012284874
-0.003569747 0.00054564595 -0.0042979657 -0.022507988 -0.0078118797 -0.027752673 0.00034945813 0.0069545084
-0.024663348 0.002040658 0.0036013813 -0.0033804802 0.007757712 0.006967532 -0.030446405 0.0062103136
-0.0023183692 -0.017395802 -0.0044718017 -0.0042548 -0.007941798 0.020080041 0.008212656 -0.003763575
0.0048278244 -0.010969835 -0.0025845487 0.01288215 0.0029446078 0.017578684 0.0034722604 -0.013947537
00000000: bbc2 89bc 9079 ffbb a4aa 3fbc b69d d0bb
00000010: d1f6 92bc ebfd 90bc 9e23 3c39 9c24 dab8
00000020: e91a 1dbc 2b18 8abc 89bf 27bc 66e3 f8bc
00000030: 706d e5ba 5ccf 8fbc 5b55 e8bc 6b19 37bc
00000040: 7bc0 b2bc 2e0f 14bd 3a2a 13bd 6f26 d5bc
00000050: a6c3 81bc b9e7 66bc d870 f6bc 8e0a 7abc
00000060: 1012 a9bc be4d 0bbd 4373 dbbc bae4 1bbc
00000070: 4c13 dcbb 2aa1 4cbc 1bc6 9fbc 6199 11bc
00000080: 6059 58bc 5568 1bbc f075 71bb d1f2 b0ba
00000090: d771 36bc a930 88bc f3ba 84bc 1579 e9bc
000000a0: 52b0 03bd 42fb b3bc 8cd5 84bb d4a4 27bc
000000b0: 355c f3bc 8fda e3bc 04dd 8cbc 4738 05bd
000000c0: 1fa1 73bc cf5c 79bc 62bd cabb 1509 c7bc
000000d0: 0224 45bc 9a13 aabc cab9 0fbd 9654 9dbc
000000e0: a7f3 acbb ce8b 4cb9 6cea 9ebc 156c a1bc
000000f0: bb78 53bc e235 9cbb 6627 8dbc 48f2 d3b9
00000100: c08c 233b 04f8 0cbd 37fd 8abc 2c7b 363b
00000110: 7bfe bcbc 57aa 22bc cb1c 23bc 7b93 76bc
00000120: 4369 de3b 3d7c eebc 46fd 17bb 3dfc 90bc
00000130: 595e a7bc 957a 3bbc 7eee 14ba bd17 a1bc
00000140: 2a2f 85bc 4e0a 00bd f2b0 d4bc f19c f9bc
00000150: 9913 c2bc 29f7 b8bc 67bb 0c3b 967c 9fbc
00000160: 11ab 3bbc b58c b3bc 784b 30bb 42b4 98bb
00000170: c298 f4bb acbe b5bc ac92 15bc e3e7 cabb
00000180: 7d80 0b3a 8e8c 62bc 2740 b1bc 988a 49bc
00000190: 95bd 9b3b 998c 0cbb 3dbc c5bc 53fd a8bb
000001a0: 3c2d cabc ebe8 5abc 541c c5bc 575d b9ba
000001b0: 302b aa3c 8eb7 493b e712 9ebc 4105 23bc
000001c0: 2031 f0bc 46b9 36bc a982 1fbc 3325 83bb
000001d0: 14ed c7bc 6b6e eebc 1182 e4ba 20d5 b13b
000001e0: 5acf 0abd 0d0a 06bb 4c44 62bc ba64 07bc
000001f0: 7c15 a3bc b780 19bc c453 243b 3eb5 61bc
00000200: c429 87bc d6fd 043c abc2 87ba b48c 853c
00000210: a3a7 1a39 5928 8839 39c8 253c 666e 4fbc
00000220: c8bd 83bc 1117 b8bc 83af a0bc fb88 3bbc
00000230: 46cd 01bc 8e7a b5bc 9018 e5bc 7072 ebbc
00000240: 22c4 64bc 8b44 82bb 98b2 d1ba a72d aebc
00000250: 2ed9 85bc aec8 aa3a 3a17 663a d052 30bc
00000260: 901e 39bc 2e10 163c 5602 dcbb 3bfc e03b
00000270: 2301 753c 1240 393b b438 80bc 6f9e 95bc
00000280: d445 75bc efe6 a0bc 652e 003c eecf 183c
00000290: 743f 2bbc b162 e83a 3b72 c8bb d4d1 adbc
000002a0: 2f61 16bb 99af 6cbc 58dd 453c b6dc 1ebc
000002b0: 8e10 26bc dc25 10bc ca11 4cbc 5d90 c7bc
000002c0: da70 bebc 3903 abba d0f0 1dbb 2af5 a43a
000002d0: 8663 b0bc 416f e33b 6af7 2a3c 0021 bebc
000002e0: af2b 1c3b 4e2f d5ba 7146 c9bb 6d33 dbba
000002f0: d202 8c3c 2ddc 983c ba29 f63a 79de b13b
00000300: 4dd5 dab9 d164 90bc b9c3 a53b 606f 2a3c
00000310: f9fb b1bb 615f f9bc 86f6 debb 9c2c 43b7
00000320: 5c12 d4bb 203e 84bc f4a6 4ebc 7764 2cbc
00000330: 46f0 883b 41c3 153c aec3 7dbc daf2 58bc
00000340: 7f48 c2bc 0d92 d23b 2578 16bb d594 3c3c
00000350: 388b 2ebb 46b7 2dbc 9387 8e3c 39c4 ba3b
00000360: 7a29 17bc 907c 90bb c17e 84bb 08bc 83bc
00000370: b385 563c 3a78 1bbc 3125 80ba 7f46 49bc
00000380: 6bf2 69bb ae09 0f3a f3d5 8cbb ac62 b8bc
00000390: ccfa ffbb 9359 e3bc 7a37 b739 a5e2 e33b
000003a0: ca0a cabc 8fbc 053b 2705 6c3b 0c8b 5dbb
000003b0: 6834 fe3b e54f e43b bd6a f9bc e37f cb3b
000003c0: c8ef 17bb a481 8ebc 3188 92bb d96b 8bbb
000003d0: 511e 02bc e67e a43c 608e 063c 50a6 76bb
000003e0: ba32 9e3b d3ba 33bc 8861 29bb a70f 533c
000003f0: 52fa 403b 2c01 903c dd8e 633b 3684 64bc

fc1.bias f4 [4]
-0.02169987 0.12155238 0.10337377 0.20596893
00000000: edc3 b1bc 74f0 f83d a1b5 d33d 85e9 523e

fc2.weight f4 [2, 4]
-0.30599073 0.3148218 0.42446566 0.579654 0.2187069 -0.4743433 -0.3790353 0.46742854
00000000: d1aa 9cbe 5330 a13e 9053 d93e 3464 143f
00000010: b4f4 5f3e 20dd f2be ea10 c2be cb52 ef3e

fc2.bias f4 [2]
0.51557755 -0.013062646
00000000: e4fc 033f b504 56bc

qnn.weight f4 [4]
-0.1600407 -0.15074879 -0.6755981 -0.5140708
00000000: b6e1 23be e45d 1abe fff3 2cbf 259a 03bf

qnn._weights f4 [4]
-0.1600407 -0.15074879 -0.6755981 -0.5140708
00000000: b6e1 23be e45d 1abe fff3 2cbf 259a 03bf
