models/classification/control/axial/oasis-2_axial_2qubits_r2.pt (torch, 59124 bytes, 10 tensors)

conv1.weight f4 [2, 1, 5, 5]
000000 00 67 55 3c 9f 6a 3c be 03 22 cc bd df dc 24 3e
       0.013025045 -0.18400048 -0.09967425 0.1609988
000010 28 10 6f bd c0 84 d3 3b 9f ae 07 3e 64 14 6f 3d
       -0.058365017 0.006455034 0.13250206 0.058369055
000020 37 de de bd ca 8f ab 3d 30 f0 83 3c 60 1d d5 bb
       -0.10882228 0.08377035 0.016105741 -0.006503746
000030 28 b1 c7 bc aa 56 d2 bd 06 0b 95 bd c8 36 2b be
       -0.024376467 -0.10270436 -0.07277493 -0.16720116
000040 0a eb a1 bd 6c 4f 1d bd 28 ef 94 bc c8 df 10 3d
       -0.07906158 -0.03840582 -0.018180445 0.035369664
000050 49 6e 40 3e c8 36 2b bd 5a 5f 81 bd b2 5e 2e be
       0.1879207 -0.04180029 -0.06317015 -0.17028311
000060 2a 3e 2a be 44 59 0b be fd 30 1f bd 61 1a 1b bb
       -0.16625276 -0.13608271 -0.03886508 -0.0023666846
000070 09 9d 3b 3d 47 d4 0f 3d d0 ce 30 3e 2a 12 0b be
       0.045804057 0.035114553 0.17266393 -0.13581148
000080 81 ea 44 bd 75 b9 08 3e c4 c3 25 be f0 ce a3 3c
       -0.048075203 0.13351996 -0.1618796 0.019996136
000090 95 98 3e bd 66 9d 06 3e f2 51 fb bd 71 65 ee bd
       -0.046532232 0.1314598 -0.12271489 -0.11640442
0000a0 e9 22 99 bc 77 4f a0 3c d2 27 25 3e db 50 36 be
       -0.018693404 0.019569142 0.16128471 -0.17804281
0000b0 35 9b 41 be cc da 0d be b6 7d 0b 3e 50 a6 05 bb
       -0.18906863 -0.13852996 0.13622174 -0.002039332
0000c0 4f 0d 42 be d3 80 d7 bd
       -0.1895039 -0.10522618

conv1.bias f4 [2]
000000 ca b5 af bd e7 e2 4f be
       -0.085795954 -0.203014

conv2.weight f4 [4, 2, 5, 5]
000000 30 24 da 3c 23 ba 0f 3e a0 5e dd 3c 64 31 44 bd
       0.026628584 0.1403585 0.02702266 -0.047898665
000010 98 de 8d bc 39 fc f0 bd c5 5a 0d be 40 a1 22 3b
       -0.017318055 -0.11766858 -0.13804157 0.002481535
000020 a8 ab cc 3c 92 bf 63 bd a6 8b 0a bd 84 83 8e 3d
       0.024984196 -0.055602618 -0.033824585 0.06958678
000030 ec 1a 8f 3d 39 82 03 3e 59 4a 05 3e 02 4a e4 bd
       0.06987557 0.12842645 0.13016643 -0.11146928
000040 09 3b 0b be c0 3d 7c 3d cc a7 5a 3d e4 ce 64 bd
       -0.13596739 0.061582327 0.05338268 -0.05586137
000050 e6 c7 c7 bd 64 a7 63 3d 58 18 99 3c 5b 1a 8d bd
       -0.097549245 0.055579558 0.018688366 -0.068897925
000060 3c c0 95 3d d6 c5 0e be 82 1a 50 bd 6c 3d 53 bd
       0.073120564 -0.13942656 -0.05080653 -0.05157225
000070 e8 06 f9 3d 14 bd ea bc 00 a1 b4 3c 34 36 59 3d
       0.121595204 -0.028654613 0.022049427 0.053030208
000080 c9 42 07 3e 30 ef ae 3d ad b6 89 bd 80 78 39 3d
       0.1320907 0.08541715 -0.06724296 0.045280933
000090 2e 34 5e bd 9b 5d 5f 3d ac e7 56 3d f0 8f 9f 3d
       -0.05424898 0.05453263 0.052467033 0.07791126
0000a0 f0 64 ce 3c b0 e8 cc 3c a4 bc 55 3b 96 9d 8a 3d
       0.025194615 0.025013298 0.003261366 0.067683384
0000b0 34 be 0e bd c3 78 9d bd 5c 70 be bc 24 62 88 3d
       -0.03484936 -0.07689049 -0.023246937 0.06659344
0000c0 0c 10 fe bd b0 82 c4 3d c0 2c 18 3c 7c b7 ad bd
       -0.124054044 0.09595239 0.009288013 -0.084822625
0000d0 c0 58 2d bc 18 75 92 3c d0 75 6d 3d 78 5e f3 3c
       -0.010580242 0.0178781 0.057973683 0.029708132
0000e0 b0 fa 3e bc 82 c7 6e bd 1c 0c 0b bd 20 bc ad 3b
       -0.011656448 -0.058295734 -0.033947095 0.0053019673
0000f0 70 f3 b5 3c 3f b5 b2 bd d0 64 2c 3c c1 28 0e be
       0.022210807 -0.08725976 0.010522082 -0.13882734
000100 d7 9a a2 bd 8e 04 cd bd c6 cf 87 3d 62 db b8 3d
       -0.079396896 -0.10010634 0.066314265 0.09026219
000110 7d ac 0a 3e f3 31 07 3e 9e b5 ee 3d b7 ea 02 3e
       0.13542362 0.13202648 0.116557345 0.12784849
000120 b6 de 82 3d dc de 07 be b0 c7 c3 bd 00 5f 4c 3d
       0.06390135 -0.13268608 -0.09559572 0.049895287
000130 76 03 38 3d 8a 6a cd 3d c4 a7 c3 3c 4c 1d a9 bd
       0.044925176 0.10030086 0.023883708 -0.08257541
000140 ba c0 c1 bd 19 a1 97 bc 8d 0f c7 3d 00 41 32 bc
       -0.09460588 -0.018509435 0.09719763 -0.010879755
000150 bc e3 80 bd cb 5e b0 3b ff 7d 52 bd 3c 98 22 be
       -0.06293437 0.005382394 -0.05138969 -0.15878385
000160 93 b8 4a bd 9e 76 0a be c6 ef a1 bd 92 4f 2c 3d
       -0.04949243 -0.13521811 -0.07907061 0.04206807
000170 ec aa af 3b a5 13 36 bc 46 34 10 bd 71 7f fb bd
       0.0053609516 -0.011113082 -0.0352061 -0.12280167
000180 b8 db 98 bd 88 d9 67 bd 82 4a 7a 3c 76 39 b9 3d
       -0.07463783 -0.05660394 0.015276553 0.09044163
000190 24 93 d3 3d 9b 60 dc bd 8c c2 e0 bc 88 b3 9a bd
       0.10330799 -0.107606135 -0.027436517 -0.07553774
0001a0 b9 76 a4 bd 20 39 11 3c 60 bf 08 bc 56 3a f9 3d
       -0.08030457 0.008863717 -0.008346409 0.1216933
0001b0 0b 14 90 bd 24 33 87 3d de 70 cc bd 56 a8 ce 3d
       -0.07035073 0.06601551 -0.09982465 0.10090701
0001c0 0a 09 ed 3d 26 77 e8 3d c0 86 95 3d c0 b3 52 bd
       0.1157399 0.11350851 0.07301092 -0.051440954
0001d0 60 9a bc bd 00 bf 7f 3d ed cb 08 3e dc b4 35 3d
       -0.09209132 0.06243801 0.13359042 0.044361934
0001e0 60 59 d5 3b 56 da 99 bd 1d f6 0b 3e 54 6e 7e 3d
       0.0065108985 -0.075123474 0.13668104 0.062116936
0001f0 ba 98 cc 3d 32 cf cf 3d e0 8c 85 3b 40 5d 34 3b
       0.09990068 0.10146941 0.0040756315 0.0027521402
000200 d8 7b 55 bd 78 df d7 3c d0 f4 3d 3c 48 ba c0 3c
       -0.05212006 0.026351675 0.011594012 0.023526326
000210 6f 51 ec bd 62 01 e9 bd 4a fc 05 be f6 ed 44 bd
       -0.1153897 -0.11377217 -0.13084522 -0.0480785
000220 00 67 12 ba 94 33 fe bd 06 a5 35 bd ee f3 92 bd
       -0.0005584806 -0.124121815 -0.04434683 -0.07175432
000230 b1 72 fa bd 38 5c fc 3c b8 68 51 3d 60 25 63 bc
       -0.12228907 0.030805692 0.05112526 -0.013863891
000240 74 53 ae bc 4e 6d 01 be ea f1 d5 3d 72 17 6a bd
       -0.021280028 -0.12639353 0.10446532 -0.057151265
000250 c0 71 b3 3d cc a3 1b 3d 72 fe 8c 3d cb 04 f5 bd
       0.087619305 0.037998006 0.06884469 -0.11963805
000260 c8 0a 9a bc 6d 98 05 be 1c 5e 65 3d c8 e7 8c 3d
       -0.018803969 -0.13046427 0.055997953 0.06880146
000270 00 80 8c ba 9e 8a f9 3d 06 9d c9 3d e2 dd e2 3d
       -0.0010719299 0.12184642 0.09844403 0.11077477
000280 00 51 e5 3c 40 59 27 bd 70 e6 43 bd 62 5d 6d bd
       0.027992725 -0.0408566 -0.047827184 -0.057950385
000290 bc 5a 16 3d 06 bd 76 bd af de 0b be 9a 70 d6 3d
       0.036707625 -0.06023886 -0.13659166 0.10470696
0002a0 84 a8 ea bd 65 a3 02 3e 3e d2 c3 3d c0 3e ad 3d
       -0.11457923 0.12757643 0.09561585 0.08459234
0002b0 91 a9 89 bd 64 8a be bc 83 6f ed bd a4 a6 37 3d
       -0.06721795 -0.02325935 -0.11593535 0.044836655
0002c0 30 5d 94 bc 38 fe a4 bd 8e df a8 bd 1e 7e b0 bd
       -0.018110842 -0.08056301 -0.08245765 -0.08617805
0002d0 50 b8 78 3c dc d9 67 bd 0c 01 37 bd 34 c3 6e 3d
       0.015180662 -0.05660425 -0.044678733 0.05829163
0002e0 e8 47 fd 3c 15 82 0f 3e a4 73 95 3d 60 19 c8 3c
       0.030918077 0.14014466 0.07297447 0.024426162
0002f0 e0 a9 93 3d 19 46 99 bd c8 32 e4 3c 80 bc 16 3c
       0.072101355 -0.07484073 0.027856246 0.009200215
000300 e8 ab 86 bc 5c a8 85 3d 18 52 c3 3d 2a cc 71 bd
       -0.016439393 0.065262526 0.095371425 -0.059032597
000310 7a 39 01 be b6 c7 cf 3d d4 f3 dc 3d bc 81 84 3d
       -0.12619582 0.10145514 0.10788694 0.06470057

conv2.bias f4 [4]
000000 98 b6 fe bc 66 82 4d 3c 06 d9 0c bd 8d 7e a7 bd
       -0.031092927 0.012543296 -0.034386657 -0.081784345

fc1.weight f4 [4, 3364]
000000 70 b3 95 3b da d3 31 3c c4 f5 03 3c 66 7e 5d bc
       0.0045685098 0.010853732 0.008054201 -0.013518905
000010 f0 67 48 3b a4 af e8 bb b4 7c e4 3b f2 42 23 bc
       0.003057953 -0.007101016 0.0069728736 -0.0099646915
000020 4e 3d 4a 3c 63 f2 81 3c 88 fa 2d 3c c8 17 9d 3b
       0.012343718 0.01586265 0.010618813 0.0047940947
000030 82 a3 13 3c 9e 8b 83 bb c6 e2 6d 3c 78 30 a3 bb
       0.009011151 -0.0040144464 0.014519399 -0.004980143
000040 3c d1 4a 3c 9d ec 7d bc 72 a9 c4 bb 50 34 5a bb
       0.012378987 -0.0154983075 -0.006001645 -0.003329534
000050 e6 d1 49 bc aa 19 19 bc fa 05 53 bc 80 d5 21 ba
       -0.01231811 -0.009344498 -0.012879843 -0.00061734766
000060 92 5f 29 bc 39 23 0d bc 3c fd 0d 3c 4a 7d 7c 3c
       -0.010337727 -0.008614355 0.008666333 0.015410731
000070 54 d0 37 bc 34 c2 62 3c 78 1a 46 3b 62 9b 36 3c
       -0.011219103 0.013840247 0.003022818 0.011145445
000080 68 98 1e bb 70 84 4c 3c f5 ea 7c bc 4a 0b 23 3c
       -0.0024199728 0.012482747 -0.0154368775 0.009951422
000090 8b 33 14 bc b0 05 50 3b fa c9 84 bc 72 d9 c5 bb
       -0.009045492 0.0031741671 -0.016209591 -0.0060378844
0000a0 e0 09 19 3a 80 86 e9 bb 12 30 7f 3c af 6e 8b 3c
       0.00058379583 -0.0071266294 0.015575426 0.017020551
0000b0 08 08 68 3b 50 12 8e bb 2c a4 ef 3b 84 96 a0 3b
       0.0035405178 -0.004335679 0.007313272 0.0049007554
0000c0 34 fd 47 3c 5f 79 65 bc a8 8a 86 bc bd b6 8a 3c
       0.012206364 -0.014005988 -0.016423538 0.01693284
0000d0 ba 5b 26 bc 6c e2 1b 3c f8 bf 3d 3c 18 5a 6b 3b
       -0.010153705 0.009514432 0.011581413 0.0035911854
0000e0 fe 38 75 3c 80 8d c2 bb da 23 7e 3c 18 82 20 3b
       0.014967201 -0.0059372783 0.015511477 0.0024491604
0000f0 f8 71 94 3b 40 52 b9 39 18 63 fd ba 66 cc 3a bc
       0.0045301877 0.0003534723 -0.00193319 -0.011401271
000100 b0 19 b7 3b 40 8f a3 39 2c 25 c1 3b cd a3 67 bc
       0.005587779 0.00031196512 0.005894324 -0.014138174
000110 72 7b 53 bc 66 ff 54 3c 92 5a 06 bc 1e 16 bf bb
       -0.01290785 0.013000345 -0.008200305 -0.005831494
000120 ae 4c 39 bc 9c 0f c6 3b 9b a6 81 3c 8c 89 fd 3b
       -0.011309786 0.0060443413 0.015826514 0.007737344
000130 cd 6f 1e bc 6c ee 52 bc 3c 4a 5c bb bc 21 f1 3b
       -0.00967021 -0.012874227 -0.0033613583 0.007358758
000140 da 7b 1b 3c dc 23 70 bb cb 99 2b bc 2a 44 12 bc
       0.009489978 -0.0036642468 -0.010473679 -0.008927384
000150 56 7d 00 3c d4 4b 0a bb 34 78 3e 3c 84 cd f8 3b
       0.007842382 -0.0021102326 0.011625338 0.0075928587
000160 dc 1e 40 bb 54 20 65 bc 1a ac 74 3c b2 5b 54 bc
       -0.0029315269 -0.013984758 0.01493361 -0.012961315
000170 e5 9e 09 bc 85 6b 88 3c 84 44 58 bc 08 a7 1f 3c
       -0.0083997 0.016652832 -0.013199929 0.009744413
000180 00 cc a9 ba 3a 4f 3d bc 9b c2 85 3c 00 9c 06 3c
       -0.0012954473 -0.011554534 0.016328147 0.008215904
000190 58 ea 85 bc e0 87 21 ba ed 5e 8b 3c 75 70 7e bc
       -0.016347095 -0.00061619096 0.017013038 -0.0155297415
0001a0 ac d5 46 3c 00 14 2a ba d0 fc 1b 3c 00 28 93 37
       0.012135904 -0.00064879656 0.009520724 1.7542392e-05
0001b0 92 0b 1b 3c 7a 3d 6b 3c 80 fa d9 bb 58 39 9e 3b
       0.009463208 0.014357919 -0.0066521764 0.0048286133
0001c0 68 df 3c bb 5a cc 35 bc b3 b7 71 bc d0 83 6d 3b
       -0.0028819684 -0.0110960845 -0.01475327 0.0036241896
0001d0 e8 99 3a bc 26 b0 6d 3c 30 5c 23 3c ff f7 86 bc
       -0.011389233 0.014507329 0.00997071 -0.016475676
0001e0 f0 87 27 bb 80 67 3a 39 58 e9 9f bb 00 8d f3 3b
       -0.0025563203 0.00017776899 -0.0048801117 0.00743258
0001f0 fe 8f 67 bc 34 4e f4 3b 4e e7 26 3c b5 29 00 bc
       -0.0141334515 0.0074556116 0.010186983 -0.007822444
000200 7e 6f 6e 3c 80 c6 31 bc 30 34 0b 3c 58 b6 18 bb
       0.014552949 -0.010850549 0.008496329 -0.0023302045
000210 00 d0 8b ba 28 8c 6d bc 98 b9 ed ba ea b6 0d 3c
       -0.0010666847 -0.014498748 -0.0018136976 0.008649567
000220 4b d6 7f bc 10 98 47 3b ea 0e f3 bb c0 ca a4 39
       -0.015615056 0.0030455627 -0.0074175494 0.00031431578
000230 38 e8 2f 3c 80 f7 34 ba 00 a0 ac bb b7 38 83 bc
       0.010736518 -0.00069033355 -0.005268097 -0.016018255
000240 c2 6f d7 bb f4 9a ef 3b 58 d1 d2 3b 49 74 04 bc
       -0.006574602 0.007312173 0.006433647 -0.008084365
000250 40 fe f8 b9 20 6c 5d ba a9 6a 8a bc 48 03 c4 3b
       -0.00047491677 -0.0008446593 -0.016896563 0.0059818365
000260 1f d7 5d bc 56 67 17 bc d0 f3 b3 bb ae 7d 7a 3c
       -0.013540058 -0.009240946 -0.005491711 0.015288753
000270 0d 3b 78 bc a0 44 79 bb b8 ac f8 3b a8 6f 29 3b
       -0.015150798 -0.0038035288 0.007588949 0.0025853906
000280 30 44 9f 3a 00 b6 4a 39 e2 66 09 3c 22 9e 6a 3c
       0.0012151059 0.00019332021 0.008386346 0.014319928
000290 e8 25 b3 3b 00 a5 0d bc 10 68 e0 ba 66 46 90 bb
       0.0054671653 -0.008645296 -0.0017120857 -0.0044029234
0002a0 5f 46 66 bc 42 81 b2 bb 1c 3e 49 bb 56 eb 69 bc
       -0.014054864 -0.0054475376 -0.0030707186 -0.0142773
0002b0 88 88 93 3b 34 02 90 3b 72 95 7b 3c 16 d5 74 3c
       0.00450236 0.004394794 0.015355455 0.014943382
0002c0 50 b7 eb ba 00 9a fd 3a 7e b7 31 bc 9f 52 7b bc
       -0.0017983709 0.0019348264 -0.010846971 -0.015339523
0002d0 62 8b 87 bc e0 2a c0 ba 02 a7 32 3c 8f e9 7e bc
       -0.016545955 -0.0014661215 0.010904076 -0.015558614
0002e0 e0 3f aa 3a 92 db 3e bc f6 51 88 bc cd 66 86 3c
       0.0012989007 -0.011649029 -0.016640645 0.016406441
0002f0 56 ba 2c bc 82 5d 7d bc b2 b0 1e bc 9c 61 39 3c
       -0.010542473 -0.0154641885 -0.009685682 0.011314776
000300 40 9e aa 39 69 d5 8a 3c 79 fc 08 bc 00 58 04 ba
       0.00032542832 0.016947465 -0.008360975 -0.00050485134
000310 46 78 37 3c 54 08 b8 bb 24 c4 38 bb 4f d6 02 bc
       0.011198109 -0.005616227 -0.002819308 -0.007985665
000320 b8 81 a8 3b 4e b7 76 3c e2 6e 7a 3c d6 24 12 3c
       0.005142417 0.015058352 0.015285226 0.008919915
000330 48 72 b5 3b 78 24 82 bc 98 9e 32 3c 9a 05 4b bc
       0.005537305 -0.01588653 0.0109020695 -0.012391472
000340 28 94 a4 3b dc 09 d3 3b 30 9e 0e 3c b0 e2 93 3a
       0.0050225444 0.0064403843 0.008704707 0.0011282768
000350 b0 b1 44 3c e0 65 8a 3a 40 87 ba ba 80 67 ae 39
       0.012005255 0.0010558926 -0.0014230981 0.0003326498
000360 26 2c 42 bc 00 54 4f b9 be ab 49 3c fc 5e 7d bc
       -0.011851346 -0.00019772351 0.012309013 -0.015464541
000370 80 65 23 ba cd 78 4a bc 60 b6 b4 3b b0 77 71 3b
       -0.0006233081 -0.012357903 0.005514905 0.003684502
000380 58 fc 82 bb 11 0b 89 3c 67 03 8d 3c fe 58 2d bc
       -0.003997367 0.01672891 0.017213536 -0.010580299
000390 61 6d 09 bc ec 90 48 3c 3c 09 58 bb 52 de 7b 3c
       -0.008387894 0.012241583 -0.0032964488 0.0153728295
0003a0 cd 04 8a bc 7c 97 1a 3c 64 25 b6 3b fc 56 c0 3b
       -0.016847992 0.009435531 0.0055586565 0.0058697443
0003b0 f3 fe 80 bc e6 8e 88 bb 90 3f 0e 3b f0 42 9d ba
       -0.01574657 -0.0041674254 0.0021705367 -0.0011998098
0003c0 84 6a 87 3b 8e e0 11 3c 6a 71 c4 bb 9d 64 8a bc
       0.0041325707 0.008903636 -0.0059949653 -0.01689368
0003d0 0e 75 7b 3c ca c9 87 bc 00 3f 5d bc ae 4a 8c bc
       0.015347732 -0.016575713 -0.01350379 -0.017125454
0003e0 90 f8 52 3c d7 0c 86 bc 12 64 0a bc e1 8f 75 bc
       0.012876645 -0.016363544 -0.00844671 -0.014987917
0003f0 ae 59 70 bc 20 c4 d7 ba 4a b3 6b 3c 14 69 0b 3c
       -0.014669819 -0.0016461648 0.014386008 0.008508939

fc1.bias f4 [4]
000000 65 7d ee bb f8 a8 72 3d 17 96 e6 3d 6e 14 50 bc
       -0.007278132 0.059243172 0.11259096 -0.012700183

fc2.weight f4 [2, 4]
000000 5b 5d f1 3e e6 77 97 be db 71 0e bf 14 74 4e be
       0.47141537 -0.29583663 -0.5564248 -0.20161468
000010 a8 0b 39 3d 9a eb 1c be a3 95 a4 3e a8 2f 8c bd
       0.045177132 -0.1532425 0.32145414 -0.06845027

fc2.bias f4 [2]
000000 03 71 ec 3d 34 d2 0e be
       0.11544993 -0.13947374

qnn.weight f4 [4]
000000 a2 1e 60 bf d2 96 00 3f 37 97 62 bd 65 91 86 be
       -0.8754674 0.50230134 -0.05531999 -0.26282802

qnn._weights f4 [4]
000000 a2 1e 60 bf d2 96 00 3f 37 97 62 bd 65 91 86 be
       -0.8754674 0.50230134 -0.05531999 -0.26282802
