models/classification/control/axial/oasis-2_axial_2qubits_r5.pt (torch, 59124 bytes, 10 tensors)

conv1.weight f4 [2, 1, 5, 5]
0.15390794 0.24776071 0.09693955 0.2486523 -0.049161766 -0.023023764 -0.00026679417 0.16386569
0.09466847 0.04103555 0.07626256 -0.05761985 0.14916933 -0.1585549 0.016777232 0.04839829
-0.20493121 -0.0959448 0.09566805 -0.23782942 0.030704007 0.044406336 -0.17161587 -0.0906963
-0.16685857 0.15237625 -0.16584747 -0.0043122056 0.10427822 -0.11179495 0.007825116 0.13415155
0.14607787 -0.12154282 -0.06425374 -0.1233775 0.18751822 -0.12771249 -0.09445907 0.10923426
0.057947513 -0.13980831 -0.1352614 0.22169316 -0.005632058 0.06830364 0.2263494 -0.0366116
0.10854489 0.021324923
00000000: 0b9a 1d3e fcb4 7d3e 3e88 c63d b59e 7e3e
00000010: d95d 49bd 559c bcbc 82e0 8bb9 68cc 273e
00000020: 8be1 c13d e514 283d 8c2f 9c3d cb02 6cbd
00000030: d8bf 183e 375c 22be 6870 893c 493d 463d
00000040: 7dd9 51be b57e c4bd 9ced c33d 8e89 73be
00000050: f886 fb3c 6be3 353d 12bc 2fbe fbbe b9bd
00000060: f9dc 2abe 8508 1c3e ebd3 29be 674d 8dbb
00000070: d28f d53d c0f4 e4bd ea34 003c 065f 093e
00000080: 7095 153e 71eb f8bd 7797 83bd 58ad fcbd
00000090: c704 403e 10c7 02be c273 c1bd 36b6 df3d
000000a0: 5f5a 6d3d e929 0fbe f781 0abe 8803 633e
000000b0: 208d b8bb c7e2 8b3d 23c8 673e 0cf6 15bd
000000c0: c94c de3d 9bb1 ae3c

conv1.bias f4 [2]
0.102646254 -0.08126502
00000000: 3338 d23d 466e a6bd

conv2.weight f4 [4, 2, 5, 5]
-0.08210558 -0.12849693 -0.069473624 0.029315965 -0.039694954 0.054989148 0.008768115 0.08322024
0.03920303 -0.14564878 -0.07182448 -0.018156674 -0.027960924 -0.15687485 -0.03299079 0.015338755
-0.081368335 -0.08165975 -0.028165601 -0.1400712 0.0077848695 0.03564995 -0.13437702 -0.044031836
-0.06258195 0.038094595 0.013265516 0.09223713 -0.047042847 -0.08378802 0.011079112 -0.14191133
0.059904788 -0.06588704 0.049781747 0.091350555 -9.379711e-05 0.032899454 -0.06952918 -0.012009649
-0.12710954 -0.010763825 0.0055424673 -0.0074381074 0.05061194 -0.043275233 0.044251267 0.10284326
0.06507453 0.10154646 0.09408077 -0.08331113 -0.15520601 -0.07296403 0.113935255 -0.055934057
-0.09487951 -0.11894686 -0.14380299 -0.10585164 -0.035414245 -0.07264396 -0.10143082 0.14654312
0.05227649 -0.015745517 0.08334677 0.13600472 0.11087108 0.17840436 -0.119614355 0.08906986
-0.09976849 -0.08227207 -0.002855408 0.07578089 -0.15873086 0.030641316 0.1590536 0.21312368
-0.012994086 -0.10937719 -0.06936393 0.07710598 -0.028035063 0.18344197 0.0031242685 -0.07967038
-0.09615709 0.06295436 0.04554129 -0.09292931 -0.08968836 -0.10136819 0.19926372 -0.09335002
-0.077465296 0.036157418 -0.06481658 -0.14662461 -0.12624027 -0.02873788 0.14358772 -0.007922425
0.053164247 0.063567765 -0.13728982 0.08972136 -0.046124473 0.038667813 -0.027155904 -0.009494269
-0.040669937 0.120833986 -0.11123465 -0.0131873535 0.10941197 0.15527816 -0.011500573 0.14767338
0.11139605 -0.0795277 0.040275816 -0.13520452 0.029898548 0.0054899175 0.10205152 0.07644574
0.055676714 0.07154489 0.09383197 0.18330835 0.023990016 0.046845865 0.109474435 0.03551834
-0.014590208 0.124905765 -0.0657041 0.0141031295 -0.009767751 0.08171729 -0.053318575 -0.13898969
-0.08511134 0.014527949 0.014776077 -0.036398966 0.12990704 -0.10940921 -0.14714018 0.06336321
-0.09500607 -0.14628503 -0.14366506 -0.016299823 -0.13606209 0.122821756 0.022535216 0.028611684
-0.028278368 0.12271008 0.01660689 0.12645102 0.004958147 0.0909608 0.094684206 0.075844966
-0.10955802 0.10302538 0.100640945 -0.11654214 -0.046102438 0.04692076 -0.17449567 0.124210835
-0.062039517 0.12113093 -0.06064803 -0.014860376 0.114265434 0.057934474 0.008687876 0.12401729
-0.05813898 -0.12047626 0.13603 -0.06806444 0.027700217 -0.1124998 0.10713171 -0.06101056
0.14040898 -0.10246208 -0.09410431 0.14747462 0.09520504 0.0081933765 -0.098163225 -0.1415597
00000000: f826 a8bd b394 03be 3048 8ebd 0928 f03c
00000010: 2d97 22bd 4d3c 613d 24a8 0f3c 606f aa3d
00000020: 5b93 203d f424 15be b718 93bd 4ebd 94bc
00000030: 4f0e e5bc cda3 20be 5a21 07bd 674f 7b3c
00000040: 71a4 a6bd 3a3d a7bd 8cbb e6bc d36e 0fbe
00000050: 3818 ff3b af05 123d 219a 09be ba5a 34bd
00000060: f72a 80bd 1409 1c3d 9b57 593c d2e6 bc3d
00000070: 00b0 40bd 0e99 abbd 2a85 353c 3451 11be
00000080: b95e 753d c9ef 86bd f2e7 4b3d 0016 bb3d
00000090: f1b4 c4b8 94c1 063d 5165 8ebd 1ec4 44bc
000000a0: 0129 02be c15a 30bc 969d b53b 5ebb f3bb
000000b0: 774e 4f3d 5f41 31bd d140 353d 7d9f d23d
000000c0: cc45 853d 97f7 cf3d 6bad c03d 079f aabd
000000d0: 53ee 1ebe 2a6e 95bd e356 e93d 1c1b 65bd
000000e0: 3050 c2bd 699a f3bd 1741 13be bfc8 d8bd
000000f0: 870e 11bd 5bc6 94bd f6ba cfbd 660f 163e
00000100: df1f 563d befc 80bc b6b1 aa3d d244 0b3e
00000110: 6010 e33d a2af 363e 5ff8 f4bd 426a b63d
00000120: 6c53 ccbd 427e a8bd cc21 3bbb 0333 9b3d
00000130: 588a 22be 7f03 fb3c f2de 223e 183d 5a3e
00000140: 26e5 54bc 2601 e0bd ad0e 8ebd bde9 9d3d
00000150: caa9 e5bc 36d8 3b3e 87c0 4c3b 392a a3bd
00000160: 02ee c4bd 37ee 803d 8189 3a3d b951 bebd
00000170: 88ae b7bd 209a cfbd ca0b 4c3e 4c2e bfbd
00000180: 20a6 9ebd cd19 143d 8ebe 84bd c324 16be
00000190: 2145 01be b46b ebbc a908 133e 0fcd 01bc
000001a0: c1c2 593d d12f 823d b495 0cbe d5bf b73d
000001b0: 04ed 3cbd 2462 1e3d 0f76 debc da8d 1bbc
000001c0: 8595 26bd cf77 f73d fece e3bd c50f 58bc
000001d0: 6213 e03d 3d01 1f3e e66c 3cbc b137 173e
000001e0: 9d23 e43d 6bdf a2bd 41f8 243d 0e73 0abe
000001f0: cded f43c c4e4 b33b 6300 d13d 968f 9c3d
00000200: 440d 643d 2186 923d fa2a c03d 2fb5 3b3e
00000210: b686 c43c 73e1 3f3d 2234 e03d ae7b 113d
00000220: c50b 6fbc 98ce ff3d df8f 86bd d010 673c
00000230: eb08 20bc 655b a73d 9464 5abd 5053 0ebe
00000240: db4e aebd a206 6e3c 5c17 723c 1517 15bd
00000250: 5a06 053e f011 e0bd eaab 16be 92c4 813d
00000260: 8b92 c2bd becb 15be ef1c 13be 3587 85bc
00000270: dc53 0bbe f989 fb3d c69b b83c 0d63 ea3c
00000280: 09a8 e7bc 6c4f fb3d 2c0b 883c 607c 013e
00000290: f477 a23b a849 ba3d cbe9 c13d 9b54 9b3d
000002a0: f55f e0bd f8fe d23d d71c ce3d a5ad eebd
000002b0: e9d5 3cbd fc2f 403d feae 32be 4062 fe3d
000002c0: 261d 7ebd 7e13 f83d 126a 78bd ef78 73bc
000002d0: ff03 ea3d b34c 6d3d 9857 0e3c c7fc fd3d
000002e0: 2423 6ebd 42bc f6bd 734b 0b3e 5e65 8bbd
000002f0: 91eb e23c 4c66 e6bd df67 db3d 35e6 79bd
00000300: 5fc7 0f3e a4d7 d1bd c3b9 c0bd 9603 173e
00000310: dcfa c23d 833d 063c cd09 c9bd 07f5 10be

conv2.bias f4 [4]
-0.14182004 0.07506315 -0.1190574 -0.0068696123
00000000: 4639 11be b5ba 993d 5ed4 f3bd 7c1a e1bb

fc1.weight f4 [4, 3364]
-0.017034043 -0.016489575 0.014273262 0.005954221 0.0031533763 -0.00060401484 -0.0024767313 0.0071924683
0.011165284 -0.008688497 -0.0017152885 -0.0005087424 -0.0007122718 -0.003093658 -0.0013574027 0.002192339
0.010432232 -0.0065673795 -0.015518735 -0.0071928604 -0.009374239 0.013479667 0.01601795 -0.012153255
0.013399348 0.0068596452 0.0034172907 0.009046478 -0.0016746167 0.0021768678 -0.01002048 0.0029137153
-0.009433553 0.0007014293 -0.011624036 -0.0024406007 0.009432407 -0.0022537354 0.004670514 0.014264276
-0.016215244 0.0010749493 0.00698136 -0.01291487 -0.0010405816 0.011962527 -0.0028080363 -0.012828235
-0.00033717975 -0.003160785 0.00047996268 -0.003122909 0.004351048 0.003106827 -0.009569906 0.013728261
0.0008824542 0.00066536106 0.012087956 -0.014834128 -0.0157453 -0.014295101 -0.012595747 -0.008163049
0.0049087685 0.015083214 -0.0018105265 0.008211888 -0.009590576 0.0047578774 -0.0017925873 -0.006720802
0.017189564 0.010451343 0.005239047 0.007168509 0.0020485185 0.013700023 -0.0067982366 -0.008343855
-0.007642065 0.010858187 0.0024292246 0.0003906861 -0.009050449 -0.007833956 -0.011069916 0.0015240237
-0.0039304392 0.016232347 0.016165962 0.006900307 -0.004806527 -0.002888511 0.0002079811 -0.016978133
-0.004795001 0.006105719 -0.006968694 -0.0023642369 -0.012219267 0.006583389 0.003194945 -0.0134826675
-0.006334249 -0.016215712 0.0077131037 -0.01061305 0.0038691591 0.015316902 -0.0068470137 0.0058268737
0.013525484 0.0016860813 0.003235288 -0.006836135 0.005438341 -0.0015685931 -0.0065514306 -0.009131793
-0.013066111 0.002719963 0.016683707 -0.0151170185 -0.0017486233 0.0037426557 -0.008193781 0.007288767
0.015705941 -0.0013505444 0.0042873565 -0.002706918 -0.011842787 0.003626911 -0.0057314346 -0.013147259
-0.016121812 -0.0054380624 -0.0010463074 0.011604873 -0.0029912675 0.004787946 -0.010852049 -0.006288128
-0.0073976377 0.0045031197 -0.009479434 -0.00633422 0.008771127 0.006564256 -0.012139211 0.013875565
-0.0044493284 -0.00010341965 -0.007736412 0.0061707627 -0.009821769 -0.0077336943 0.009852665 -0.008289126
0.006402638 -0.016664531 0.013327245 0.006748367 0.006551696 -0.011033395 -0.006233507 0.014780084
0.0043798573 -0.013769824 -0.013307054 -0.007134606 -0.0005190149 0.009197984 0.0117552485 0.011427807
0.009806201 -0.0036080377 -0.007933693 0.0132639 0.008254243 0.014429836 0.004434921 0.008704847
0.00080277957 -0.008844302 0.00054659136 -0.011929935 -0.01338768 0.0017627068 0.010826642 -0.011679074
-0.01000167 -0.0023999317 0.0037487727 0.010553267 -0.008505114 0.0013224017 -0.007973172 -0.0062876716
0.012945244 -0.0048380243 -0.009996291 0.005551176 -0.007345557 -0.00232297 0.0018001627 -0.0028238622
-0.0033142772 -0.004074405 0.0056021027 0.015558178 0.011489959 -0.009876456 0.0069035552 -0.012631944
0.008314416 -3.4444034e-05 -0.001247419 -0.013494027 -0.0013699979 -0.01650399 0.00015314482 0.00027939305
0.008908436 0.006720815 0.0014532749 0.002009971 -0.00675417 0.008897359 -0.015479788 -0.0071648136
-0.014206517 0.0143054 -0.010493578 0.0006211754 0.015139369 0.006075319 0.01544092 0.008116258
0.010819038 -0.003603654 0.0024739448 0.0050139893 -0.008692258 0.014664611 -0.0021970477 -0.0124095
0.013850775 0.016160345 -0.010162042 0.008804457 0.0137674045 0.0025090203 0.006521249 -0.016105987
00000000: fa8a 8bbc 2515 87bc 66da 693c a01b c33b
00000010: e0a8 4e3b c056 1eba a850 22bb ccae eb3b
00000020: 98ee 363c 335a 0ebc 88d3 e0ba 205d 05ba
00000030: c0b7 3aba f8be 4abb e0ea b1ba 58ad 0f3b
00000040: f4eb 2a3c 2c33 d7bb 4b42 7ebc 16b2 ebbb
00000050: 6896 19bc d2d9 5c3c 1338 833c 721e 47bc
00000060: f088 5b3c e0c6 e03b a0f4 5f3b ae37 143c
00000070: d07e dbba c8a9 0e3b f02c 24bc 08f4 3e3b
00000080: 308f 1abc 20e0 373a be72 3ebc 7cf2 1fbb
00000090: 628a 1a3c 68b3 13bb 1c0b 993b b6b4 693c
000000a0: d5d5 84bc 50e5 8c3a e4c3 e43b e498 53bc
000000b0: 2064 88ba 7afe 433c 0807 38bb 842d 52bc
000000c0: 80c7 b0b9 2c25 4fbb 80a3 fb39 b8a9 4cbb
000000d0: 3c93 8e3b e89b 4b3b 18cb 1cbc 80ec 603c
000000e0: 8054 673a a06b 2e3a 900c 463c d80a 73bc
000000f0: 4afc 80bc 0036 6abc 645e 4ebc 4fbe 05bc
00000100: bcd9 a03b 961f 773c 304f edba 288b 063c
00000110: cb21 1dbc f8e7 9b3b 40f5 eaba 2c3a dcbb
00000120: 21d1 8c3c 1c3c 2b3c 50ac ab3b d0e5 ea3b
00000130: 7040 063b 1076 603c bec3 debb aab4 08bc
00000140: 4a6a fabb 8ae6 313c a033 1f3b 00d5 cc39
00000150: 5648 14bc fe59 00bc 985e 35bc c0c1 c73a
00000160: eaca 80bb b3f9 843c 7b6e 843c f81b e23b
00000170: 1280 9dbb 2c4d 3dbb 8015 5a39 ba15 8bbc
00000180: 621f 9dbb 7c12 c83b a459 e4bb 50f1 1abb
00000190: 5233 48bc 78b9 d73b 4862 513b 68e6 5cbc
000001a0: 888f cfbb d0d6 84bc 34be fc3b 5ce2 2dbc
000001b0: b891 7d3b bef3 7a3c ea5c e0bb 5cef be3b
000001c0: fe99 5d3c 80ff dc3a 2007 543b a801 e0bb
000001d0: 1c34 b23b 4099 cdba 62ad d6bb 849d 15bc
000001e0: 3e13 56bc 6841 323b 45ac 883c 5fad 77bc
000001f0: 1032 e5ba 5847 753b 353f 06bc 9cd6 ee3b
00000200: bfa9 803c c004 b1ba f47c 8c3b 8c66 31bb
00000210: 4008 42bc 78b1 6d3b c2ce bbbb 9a67 57bc
00000220: e411 84bc c631 b2bb 4024 89ba 5e22 3e3c
00000230: 2409 44bb 34e4 9c3b cbcc 31bc a40c cebb
00000240: e267 f2bb e88e 933b a14f 1bbc 4a8f cfbb
00000250: c6b4 0f3c f818 d73b 8be3 46bc 5656 633c
00000260: accb 91bb 00e3 d8b8 ba81 fdbb 1c34 ca3b
00000270: 7ceb 20bc ee6a fdbb 126d 213c 1dcf 07bc
00000280: 38cd d13b 0e84 88bc 845a 5a3c 6821 dd3b
00000290: 9caf d63b 6ac5 34bc 7242 ccbb 2a28 723c
000002a0: e884 8f3b d49a 61bc d405 5abc 6ac9 e9bb
000002b0: 800e 08ba 24b3 163c 1699 403c b23b 3b3c
000002c0: 30aa 203c d474 6cbb 52fc 01bc d450 593c
000002d0: ce3c 073c 1e6b 6c3c d052 913b c69e 0e3c
000002e0: a071 523a b1e7 10bc 2049 0f3a c675 43bc
000002f0: 0058 5bbc a00a e73a 3a62 313c 9659 3fbc
00000300: 0bde 23bc 2c48 1dbb f8ad 753b 9ce7 2c3c
00000310: 0959 0bbc 7054 ad3a e8a1 02bc d008 cebb
00000320: 4a18 543c 4a88 9ebb 7cc7 23bc a4e6 b53b
00000330: 00b3 f0bb f83c 18bb 70f3 eb3a 8c10 39bb
00000340: 5834 59bb 9682 85bb d891 b73b bae7 7e3c
00000350: 6240 3c3c dcd0 21bc 3837 e23b 37f6 4ebc
00000360: 3039 083c 0078 10b8 7080 a3ba 0d16 5dbc
00000370: 8091 b3ba 6033 87bc 8095 2039 807b 9239
00000380: b0f4 113c 483a dc3b d07b be3a b8b9 033b
00000390: 1652 ddbb 3ac6 113c f09e 7dbc d0c6 eabb
000003a0: 73c2 68bc 3261 6a3c 42ed 2bbc 60d6 223a
000003b0: 1e0b 783c 7813 c73b eafb 7c3c 0efa 043c
000003c0: 5642 313c 482b 6cbb e821 223b 644c a43b
000003d0: f969 0ebc d643 703c 58fc 0fbb 3751 4bbc
000003e0: 5cee 623c b362 843c b27e 26bc 9240 103c
000003f0: ae90 613c 606e 243b 34b0 d53b b4f0 83bc

fc1.bias f4 [4]
0.06350249 -0.02330723 -0.023241207 0.2744441
00000000: 980d 823d ceee bebc 5864 bebc f083 8c3e

fc2.weight f4 [2, 4]
-0.14419149 0.42560536 -0.25499228 0.053856403 -0.14709654 -0.42845547 -0.005046063 -0.7171337
00000000: efa6 13be f2e8 d93e 598e 82be 8898 5c3d
00000010: 7aa0 16be 845e dbbe 7259 a5bb 1396 37bf

fc2.bias f4 [2]
0.33794603 0.21773297
00000000: 4307 ad3e 64f5 5e3e

qnn.weight f4 [4]
-0.5399281 -0.044062275 -0.014463286 -0.22917199
00000000: ba38 0abf a57a 34bd 6bf7 6cbc 10ac 6abe

qnn._weights f4 [4]
-0.5399281 -0.044062275 -0.014463286 -0.22917199
00000000: ba38 0abf a57a 34bd 6bf7 6cbc 10ac 6abe
