models/classification/classical/oasis-2_axial-ss.pt (torch, 58092 bytes, 8 tensors)

conv1.weight f4 [2, 1, 5, 5]
00000000: 418e 74be d19b 68be 52e0 a33d b9b9 1d3e
00000010: e2f0 05be dbed 283e 939d 673c 9212 58bd
00000020: 30dd 3f3e b498 383e c83b 8bbd 6914 6a3d
00000030: 483b e33d 5099 ef3d 33cd 5d3e a9de a23e
00000040: 6afb 6b3e 9812 703e c321 ce3d 4bf3 ac3e
00000050: 7c80 ab3e 1666 c63e e95c e53e 4ebf e13e
00000060: 180a 523e 88c9 03be f331 86be e30d bbbd
00000070: da44 353d 05a2 993e d643 5cbd 115f 32be
00000080: 75c4 aebd 67b8 943d 967e 123e 7406 10be
00000090: 50c6 13be f443 a13d fa7d 9c3c 3ec0 b13e
000000a0: 25fd a0bd 929d 5d3d 2ddd 3f3e e146 923e
000000b0: fa70 443e f9ce 39bd 9ae8 ffbd f7ba c4bd
000000c0: ff6d 96bb ff9c 7e3e
-0.2388239 -0.22715689 0.0800177 0.15402879 -0.13080171 0.16496985 0.01413669 -0.052752085
0.1873672 0.18027002 -0.06798512 0.05714837 0.110952914 0.11699164 0.21660309 0.318105
0.23045126 0.23444593 0.10065033 0.33779368 0.33496463 0.3874976 0.44797447 0.44091266
0.20511663 -0.12869847 -0.26209983 -0.09133508 0.044255115 0.30006424 -0.05377563 -0.17419077
-0.08533565 0.072617345 0.14306101 -0.14064962 -0.14431119 0.07874289 0.019103039 0.34716982
-0.078607835 0.05410535 0.18736716 0.285697 0.19183722 -0.0453634 -0.12495537 -0.09605973
-0.0045907493 0.24864577

conv1.bias f4 [2]
00000000: 2cd4 283e 2088 173d
0.16487187 0.036995053

conv2.weight f4 [4, 2, 5, 5]
00000000: 079a 10be 5301 db3b 7f02 30be c823 5dbd
00000010: 8ec9 9abd 26a9 bd3d 896d 1fbe a8a5 11be
00000020: 399b 963d 7664 3e3d 32d5 043e a053 b23d
00000030: eb90 b23d 4aef f3bc 1829 8f3a 428b 563e
00000040: f9ef e63d 654b a23c 8c9d 3d3e 7e2a 583c
00000050: 4f01 64bd ac4a 853d 70be 193e b32d 89bd
00000060: dc58 d83d eca2 973d 74b7 3b3c 5a14 fa3a
00000070: 684e 4e3e 3267 df3d a8dc ad3c e2fb 543b
00000080: 9843 5c3d 075b 6f3d cd25 a0bd 3d03 03be
00000090: 5fba 0abe 6ef9 0a3e 52b0 3a3e bed9 e73d
000000a0: 934f 283e 8be9 b13d 5e6f 70bd 5356 d13d
000000b0: e8e3 d63d a5cf 8ebd 158d 183e 2ad4 3c3b
000000c0: 9238 8ebd d560 993d a45d f9bd 12f2 fc3c
000000d0: ffa7 123e 35b0 073d f81e b13d 94d5 31be
000000e0: 390e f53d a925 403d 4e7e 0abc 466e e43d
000000f0: ad06 24be 9e32 00bd 97ad 9b3d 3062 883d
00000100: 4e48 d43d 9f63 2dbe b3a6 c53c 23bf d03d
00000110: 0a72 0e3d 8a56 ed3c 8f4d 88bd 8b45 1ebe
00000120: c6ab 68bd 6a72 823c d72b efbc 917d b53d
00000130: c0e8 2f3e b9db 853d 96c8 51bd b9bd c93d
00000140: 25d7 bb3d f312 5a3e e59b 123e 20fd 203e
00000150: 8998 413d af1e 3a3e c5f6 2b3e 9945 50bc
00000160: f91d babc d252 a7bd b1ff 0bbd 5cf3 853e
00000170: 8654 353e cf36 103d 2775 cb3d f5ae 92bd
00000180: 9697 3a3e ddbc f9bb 7b5b c6bb cafb e1bb
00000190: e2fc 09be fd22 1ebe 7154 d83c 7d42 863d
000001a0: 695a 4b3c 6ecd 2ebd 76d0 25be e276 87bd
000001b0: 68a4 d0bc 7055 6bba 1f12 32be f01b 7dbd
000001c0: cb51 023e 799a 643e a8e6 203e 08ad f8bd
000001d0: da44 143d 51f6 f63b b63c c83d 922c 3f3e
000001e0: a19c d3bd 0ea1 4ebd 680f 423e f18b 3a3c
000001f0: 8129 a7bd 492d 6bbe 4bb2 18be 8e9a de3d
00000200: 07c6 8a3c 227f 843d d8fe 3fbe daa6 1abe
00000210: f00f 893e e27e 983e b76e bb3d 31e8 1fbe
00000220: 97a2 bc3c 3c96 b83d f8b1 a63e 00c6 213e
00000230: 27db efbd 83cf 883e 15d3 843e 6cbc 953e
00000240: 295e 5d3d 4789 403e 4638 7e3e 9076 933e
00000250: b305 7b3c b337 24be 36ff ccbd 02df cb3d
00000260: 967d ba3d 6193 b93d 8715 b8bd 0a73 803a
00000270: 5c04 1e3e 07b7 503e 149e c93d 2ec7 973c
00000280: e7b4 623e 7232 013e ed6b 563e 2296 6c3a
00000290: 5f23 973c fb8e 153e bc33 9ebd c5b0 f1bd
000002a0: 546a f0bd f095 2c3d beda 653d 04a6 abbd
000002b0: a5da df3b cc90 02be a288 90bd 565a 723e
000002c0: fad2 593d feda 8cbd 9017 30be 306d 7bbe
000002d0: 95cf 243e ec33 313d c81b 9fbd 5334 66bd
000002e0: ff7c fdbc e603 723e 3bf0 0b3e eb3d d4bd
000002f0: b560 29be 135e d0bd 4372 903e 4013 093d
00000300: 05d7 c2bc 224b 82be 18f8 523d 0718 47bd
00000310: 25dc ed3c c390 11be 926a 24be 1047 29be
-0.14121257 0.0066835075 -0.17188452 -0.0539892 -0.07557975 0.09260778 -0.15569128 -0.14223349
0.07353825 0.046482526 0.12971953 0.087073565 0.08719047 -0.029777188 0.0010922281 0.2095156
0.1127624 0.019811342 0.1851713 0.013193725 -0.05566531 0.06508383 0.15014052 -0.066981696
0.105638236 0.07404122 0.011457313 0.0019079552 0.20147097 0.10908355 0.021223381 0.0032498767
0.0537754 0.05843642 -0.0781971 -0.12794204 -0.13547657 0.13571712 0.18231323 0.11320828
0.16436605 0.08687123 -0.058699958 0.10221543 0.104926884 -0.06973199 0.14897569 0.0028812983
-0.06944384 0.07489172 -0.12176064 0.030877147 0.14321898 0.03312703 0.08648485 -0.1736663
0.119656034 0.046910916 -0.008452965 0.111538455 -0.16018172 -0.031298272 0.07601469 0.06659353
0.103653535 -0.16932534 0.02412734 0.101927064 0.034776725 0.02897193 -0.06655418 -0.15456216
-0.05680444 0.015923698 -0.02919571 0.088618405 0.17178631 0.065360494 -0.051216684 0.0985064
0.09171895 0.21296291 0.14317282 0.1572156 0.04726461 0.18175767 0.16793354 -0.012711906
-0.02271937 -0.081700936 -0.034179393 0.2616223 0.17708024 0.03520852 0.099344544 -0.07162277
0.18221888 -0.007621391 -0.006053386 -0.0068964707 -0.13475373 -0.15443034 0.026407452 0.065556504
0.012411692 -0.04267638 -0.16192803 -0.06614472 -0.02546902 -0.000897727 -0.17389725 -0.06179422
0.12726514 0.22324552 0.15712988 -0.12142378 0.036198474 0.0075366874 0.09777205 0.18669346
-0.10332609 -0.050446562 0.1895119 0.011385904 -0.08162213 -0.22966494 -0.14911763 0.10869323
0.01694013 0.06469561 -0.18749559 -0.15102711 0.26769972 0.29784304 0.091519766 -0.15615918
0.023026748 0.0901303 0.32557654 0.15798187 -0.11711722 0.2672082 0.25942293 0.29245317
0.054044876 0.18802367 0.24826154 0.28801394 0.015321183 -0.16036873 -0.10009615 0.09954645
0.09105985 0.090613134 -0.08988481 0.0009799909 0.1543135 0.2038232 0.09844604 0.018527593
0.22139321 0.126169 0.20939608 0.0009025057 0.018449483 0.14605324 -0.07724711 -0.11801294
-0.117390305 0.04213518 0.056116812 -0.08381274 0.0068314844 -0.12750548 -0.07057311 0.23667273
0.05317972 -0.06877707 -0.17196488 -0.2455337 0.16094811 0.043262407 -0.07768971 -0.056202244
-0.030943392 0.236343 0.1366586 -0.103633724 -0.16540797 -0.10174193 0.28212175 0.033465624
-0.02378417 -0.25447947 0.051506132 -0.0486069 0.029035637 -0.14215378 -0.16056278 -0.16531014

conv2.bias f4 [4]
00000000: f480 97bd b0a1 ddbd 1f1f c83c f5b0 fe3b
-0.07397643 -0.10821855 0.024428902 0.0077725598

fc1.weight f4 [4, 3364]
00000000: 8939 c53c 144f ee3c 3f11 233d e9f2 803c
00000010: c87c f03c e9fe 1a3d 61ce a73c e1e9 013d
00000020: cb9d 1e3d b956 d03c 9d19 e03c bbab fc3c
00000030: bf68 a23c 2962 393d f15d 163d ddfb 2f3d
00000040: c767 cb3c 91f3 533c a7cf 303d 5528 933c
00000050: 7fb5 2b3d 6f28 b03c f38d fe3c b4ba e83c
00000060: 67bc aa3c bb6a 0c3d 7516 b73c f02d e33c
00000070: 0377 f93c 3399 523c ff32 3f3c b3a5 363d
00000080: f052 e33c 58e7 f43c 4c73 323c 8dcf 303d
00000090: b516 273d 0813 e33c 14bd 183d dddb 373d
000000a0: aafb 223d 2a0f 9d3c d750 2e3d a083 133d
000000b0: 4586 dc3c 28cc 1f3d c9d2 453c cfdc 0c3d
000000c0: 4b94 fb3c 83b3 1d3d 120b b53c 3938 a43c
000000d0: e82c 8c3c 16d7 183d bc32 6e3c ce13 343d
000000e0: be1e 253d 57dd db3c db33 1a3d fd8c 1f3d
000000f0: e310 943c e1e0 0d3d dac8 cb3c 85bd 123d
00000100: d074 203d 4c7c 493d 15dd 4f3d 61b0 7e3d
00000110: 6f23 593d a350 1a3d 9234 2b3d bca2 1d3d
00000120: 224b a83d ccfd c43d b75d 8b3d 7a8c 0d3d
00000130: 8a70 883c d491 2d3c 15a8 d63c 48a8 a13c
00000140: e3db f63c d7eb 5e3c 8d95 1f3d 7953 8f3c
00000150: 97a5 233d 380a 0a3d 5745 fc3c ee4f 773c
00000160: 0cd9 f43c 3b65 0a3d 4615 bf3c d4ec 683c
00000170: 27bf 553d 8659 953d 843a d93d bd77 063e
00000180: 5659 0b3e b969 283e 494a 133e d64f 103e
00000190: e6b7 083e 9b2b 303e 999b 313e a28c 163e
000001a0: 3273 0a3e 10e4 af3d 5d80 453d daef 433d
000001b0: 84bb 54b9 c619 b43c 2bc6 103d ba4f ef3b
000001c0: de51 963c 2015 ad3c 48f2 373d 452d 0c3d
000001d0: 2712 2d3d 09f2 303d 46ae 7f3c 4f9b 283d
000001e0: cd6e c23d fd0d b03d b3d4 ef3d fe1b de3d
000001f0: 3226 e43d eae7 e23d 4b87 c73d 5e53 853d
00000200: d909 7b3d 15da 833d 143f 9a3d 9ca2 a13d
00000210: fe0d 993d 678e 0b3d 2f31 f13c a341 c53c
00000220: ef92 0b3d 5e69 743d 8523 723d a600 a53c
00000230: c0d8 e8bb 4cf0 b13b ac99 743c e083 0c3d
00000240: 285f 823c d109 343d 37a5 f33c c516 3f3d
00000250: 96c9 cd3d 972f f13d 8882 a63d ba42 e43c
00000260: 470f c03c cc1e 2ebb 39e9 42bc 850c 2ebc
00000270: e0ea 87bd 0e93 2fbd 82d1 cdbc 76f0 27bd
00000280: a0a6 2ebd aa3c 25bd 3a29 77bd fc8d e4bc
00000290: 7dc5 413c 9aec 21bd b163 08bd 00cf 89bb
000002a0: 69fd 613b 0d46 b6bc 5e66 d63b 187d a53b
000002b0: 5041 a13c cfd0 8a3c 0f37 243d 4659 4c3d
000002c0: c85c c03d 84d4 f33d 6032 a03d f7a1 433c
000002d0: 1a7b 8fbb d783 5b3c 9b48 273c 139d 073d
000002e0: 891d 643c 8440 f93b 8033 293b 2afc 9cbb
000002f0: ba30 47bd 7d39 83bc 2a28 c63a 5861 79bb
00000300: 4b3d 68bb cbe4 9d3c 93bd ed3c c383 973b
00000310: 2a98 09bd e0bd 37bd f88c 18bd 6da9 d6bc
00000320: f3a6 1a3d cb3d 413c 9dda 0f3d 55e4 383d
00000330: 8943 b73d b66c fb3d 79ab d73d 87e2 153d
00000340: e175 71bc c167 f0bc a894 b2bb 1670 2e3c
00000350: de2d df39 762f f23c 6b14 993c d621 373d
00000360: 9614 0a3d efdf aeba 4c62 10bc 671d be3c
00000370: 63c9 003c cafc 0b3b 87d8 9bbb 9274 3e3c
00000380: a026 4e3d 0d5d 563d 6c15 8b3c 136f 29bd
00000390: da90 8fbd 713e 48bd cf51 213d 4cc6 a53c
000003a0: 9de4 0c3d 7907 f03d 767f c03d 13a2 883d
000003b0: 759a c93c 9b4a 7d3b 4084 adbc 9703 a53c
000003c0: 0559 073d 91c9 143c afcf 8fbc 9b35 a93b
000003d0: be28 073d fd24 283c 9cc3 cc3c 1f7d 3dbb
000003e0: ac13 013c b0be f33c ed94 9fba bfed fb3c
000003f0: 3a48 0a3c 2f43 ffbb e69f 3b3c 3ca7 2f3d
0.024075286 0.029090442 0.03981137 0.015740829 0.029356375 0.037840758 0.020484151 0.031717185
0.0387247 0.025431978 0.027355963 0.030843606 0.019825337 0.04525963 0.036710683 0.042964805
0.024829758 0.012936489 0.043166783 0.017963568 0.041921135 0.021503655 0.031073546 0.02840934
0.02084179 0.034281474 0.022349576 0.027731866 0.030452257 0.012853908 0.011669873 0.044591617
0.027749509 0.02989547 0.010891747 0.043166686 0.04079314 0.027719036 0.037289694 0.044887412
0.039790787 0.01917227 0.042557564 0.0360142 0.026919493 0.039013058 0.012074181 0.034390267
0.03071036 0.038501274 0.022100005 0.02004634 0.017111257 0.037314497 0.014538463 0.0439642
0.04031252 0.026838941 0.03764711 0.038952816 0.018074458 0.03463829 0.024876047 0.03582527
0.0391739 0.049190804 0.05074795 0.062179927 0.053012308 0.037674557 0.04179818 0.038485274
0.082174554 0.096187204 0.06804984 0.034557797 0.016655225 0.01059385 0.026203195 0.019733563
0.030134147 0.013606033 0.038960982 0.017495858 0.03995284 0.03370115 0.030794783 0.01509474
0.029888652 0.033787947 0.023325574 0.0142166205 0.05218425 0.07292466 0.10606864 0.13131614
0.13608298 0.1644658 0.14383806 0.14092955 0.13351402 0.17204134 0.17344512 0.14702085
0.13520506 0.08588421 0.04821812 0.047836162 -0.0002028775 0.021984946 0.035345238 0.0073032053
0.018349584 0.021128237 0.04490879 0.03422286 0.04225364 0.043199573 0.015605515 0.04116374
0.0949379 0.08596418 0.11710491 0.10845183 0.11140098 0.1107939 0.09742602 0.06510042
0.06128869 0.0643808 0.075315624 0.078923434 0.07473372 0.034071352 0.029442398 0.02407915
0.034075674 0.0596708 0.059115905 0.02014191 -0.0071059167 0.005430257 0.014929216 0.034305453
0.015914515 0.043954674 0.029741867 0.046652574 0.10048215 0.11776655 0.081303656 0.027863849
0.023444785 -0.002656865 -0.011896425 -0.010623102 -0.06636596 -0.04286485 -0.025124315 -0.041000806
-0.042639375 -0.040341057 -0.06034205 -0.027899735 0.01182687 -0.03953228 -0.033298198 -0.0042055845
0.003448332 -0.0222502 0.006542965 0.0050503127 0.019684464 0.01694527 0.04009157 0.049889825
0.093926966 0.119057685 0.07822108 0.011940471 -0.0043786885 0.013398132 0.010210182 0.033108782
0.013923057 0.007606568 0.002581805 -0.0047908025 -0.048630454 -0.016018623 0.0015118171 -0.0038052406
-0.0035436924 0.019274136 0.02902106 0.0046238615 -0.03359238 -0.044858813 -0.037243813 -0.026203835
0.03775687 0.011794518 0.035120595 0.04513963 0.08948428 0.12276594 0.10530753 0.036592986
-0.014737577 -0.029346349 -0.00544985 0.010646841 0.00042568048 0.029563647 0.018686494 0.044710003
0.03371104 -0.0013341884 -0.008812498 0.02320738 0.007860514 0.002136039 -0.0047560367 0.011624472
0.050329804 0.052334834 0.016977988 -0.041365694 -0.0701005 -0.048887674 0.03938466 0.020236157
0.03439771 0.11720175 0.09399311 0.06671538 0.024609784 0.0038649205 -0.021181226 0.020143313
0.03304388 0.00908126 -0.017555086 0.005163861 0.03299784 0.010262725 0.024995618 -0.002891369
0.007878225 0.029754013 -0.0012175121 0.030753015 0.008440072 -0.0077899913 0.011451697 0.042884097

fc1.bias f4 [4]
00000000: 1a1d 763d 7bc1 b9bc ef92 05bd b8f3 97bc
0.060086347 -0.022675266 -0.03261083 -0.018548831

fc2.weight f4 [2, 4]
00000000: 68f8 acbe ea58 d0bd fa5b d33e 4c82 433e
00000010: 2355 a93e 70e8 a5be c9d5 12be c89d 6ebe
-0.3378327 -0.10173209 0.4128111 0.19092673 0.33072767 -0.32403898 -0.14339365 -0.23302376

fc2.bias f4 [2]
00000000: 540e 9f3e 3eda 523e
0.3106562 0.20591065
