models/classification/classical/oasis-2_3-plane-ss.pt (torch, 58116 bytes, 8 tensors)

conv1.weight f4 [2, 1, 5, 5]
00000000: 4e7b 953e dd24 b5bc 8d98 b43e 0b47 c83e
00000010: e5d7 3a3e 1cef 9bbd cadf 13be 72d7 4d3d
00000020: 4f67 a93e 9f07 153e 93af 6f3d 0e5e 043c
00000030: c0c3 423e d82f 793d 76e7 3c3e 48e9 bfbe
00000040: e8a1 02be 67aa 34bd 5f1d 72bd bd4a 37bc
00000050: db93 e9be f43f 1abe 8dee 8bbe 9ec8 36be
00000060: 070d fdbd 7b9f 623e 111f cd3e ccd8 2d3f
00000070: 8dc2 b63e 5c64 033f e0a9 d23e fcd9 043f
00000080: 5555 4b3f 0adc 473f 21b7 253f d4c4 313e
00000090: bae9 a03e d6e1 433f f6d7 1b3f 970d a73e
000000a0: 1fd2 363d fddf 993e 4e83 ac3e ac70 7b3e
000000b0: a367 733e 1bc4 493e f665 673e 8dff 1b3e
000000c0: 3256 0ebe 0953 efbd
0.29195637 -0.022112304 0.35272637 0.391167 0.1824642 -0.07613966 -0.14440838 0.050254293
0.3308663 0.14553688 0.05851705 0.008079065 0.19019985 0.060836643 0.1844767 -0.37482667
-0.12757075 -0.04410782 -0.05911004 -0.011187253 -0.45620617 -0.15063459 -0.27330437 -0.17849967
-0.123560004 0.2213115 0.40062764 0.6790893 0.35695305 0.5132501 0.4114523 0.5189512
0.7942708 0.7807013 0.6473256 0.1736024 0.3142832 0.76516473 0.60876405 0.32627556
0.04463398 0.30053702 0.33693928 0.245547 0.23770003 0.19703715 0.22597489 0.15234204
-0.13900068 -0.116857596

conv1.bias f4 [2]
00000000: e50b 0b3e 7717 b83d
0.13578756 0.089888506

conv2.weight f4 [4, 2, 5, 5]
00000000: 0a33 93bd 40a4 703b c6b2 eebd 201c fabb
00000010: 8a6e 9e3d 9a41 e83d 2fea eebd 389a 273d
00000020: 2a64 ecbd bad8 e13d 1612 00bd c7a7 023e
00000030: 2a28 b03d ae60 1dbd 84e8 eebd 003b 9f3b
00000040: 5270 0cbe 0e7d 93bd 5850 d1bc 049c e9bc
00000050: da90 0cbe 0e5f f33d bc30 76bd f66a d6bd
00000060: f0f8 dabd 1871 e0bc 1805 73bd f8da 4c3d
00000070: 34c4 e7bd 47ce 07be 20a1 64bc 3fa0 babd
00000080: 1c0c dc3d b804 fcbd 9ada a33d ccd9 303d
00000090: 2bf4 033e c00c 94bd b843 7fbd 6113 f2bd
000000a0: c07f 443b 17c9 f0bd d075 513d f6a7 aebd
000000b0: 6687 05be 30c6 233c 80e5 0abe feea d93d
000000c0: d4a1 05be e865 0fbd 6230 c33d 4643 b5bd
000000d0: 6bae 4abe a6ea 70be e0b4 22be 71a0 06be
000000e0: ff6a 2abd 4e6c f7bc 6a77 cabc 93e5 ca3d
000000f0: bea8 eb3b 6505 023e 70e5 e43d 14fe 603e
00000100: c18c c63d 301b 033e b2fd 373e ee46 f83d
00000110: 361d d63c 6a5d 413d 1162 cdbd a44d 89be
00000120: 734c 07bd a3fb 3dbd 05a6 e5bc fbb0 2f3e
00000130: 6eb8 213e f8f8 313e e6a1 e73d 59dd b63d
00000140: 535d f43d be83 263e 50c7 673e 6d77 56bd
00000150: 5c11 ff3d 3025 26bc 26ce 4a3d a1b0 813c
00000160: fbfb 0e3d 8221 5e3a f79d 073e 0a2a ad3c
00000170: 0a02 0a3d 3504 efbd f7c5 59be 01cb 25be
00000180: 9465 51bd cb25 60be 4ca6 87be 57ff 25be
00000190: 9fb8 9f3d 3bf6 30bb 5667 b9bc 189c 87bb
000001a0: 773b cd3d c2f8 95bd c77a 57bd 267b 87bd
000001b0: 6e04 f9bd 7f9e a83d d3c3 30be 7fee 2bbe
000001c0: 3bc6 0dbe ff07 82bb 9568 5c3d 9aae da3d
000001d0: db87 a8bd 1e5b 27be 12a9 803c e0c3 af3d
000001e0: 6b01 db3d bd76 d3bc d4a3 c2bd b212 10be
000001f0: 4f86 c3bd c997 53bd 1dcc 81bd 2961 e43d
00000200: 0460 a6bd 3c63 0c3c 7a7a 803d 3486 1dbc
00000210: 0d15 41bd 4a5e 263d acf5 5dbd 3470 ec3c
00000220: d984 a9bc 3d29 0ebe 3531 70bd c8f6 6bbd
00000230: bc1a 18be e492 10be bd6a 0e3d 791e 0d3d
00000240: ee9b 07be 5009 9fbc de91 0ebe 021f 1cbe
00000250: a427 70bd 7a85 a6bc 45ee db3d 25f1 203e
00000260: 872b 9abc 05fb f8bd cd6b 8fbe 8332 203e
00000270: c7a8 7b3e e380 543e dc39 253e 455e a2bc
00000280: 4b43 8d3d bc97 0a3e 75b5 f53d ee04 a53e
00000290: c817 953e 6f6f 1fbe 2c09 59be 0bfb d8bd
000002a0: 3d52 2bbc 28c7 f4bc 88b3 84be 049e 12be
000002b0: 4731 84be 3f2e ae3d 1aea 663d 9d2e 4dbe
000002c0: 0793 853d a484 67bd bb19 93bc cd59 1c3c
000002d0: cde1 fdbd 08f2 cb3d 4fcc 123e e38a f23d
000002e0: 739e 593e 98fe 84be 0f84 3ebe 5d6c afbc
000002f0: 2e43 69bd eb9a 503e 3e95 8cbd 2c63 e0bc
00000300: 72f5 25be 6db4 c3bd 8cc2 9c3d ebfa 2e3d
00000310: e66e 2abe 0ace d2bd 10ab 473e 8942 be3e
-0.07187469 0.0036718994 -0.11655192 -0.0076327473 0.077359274 0.113406375 -0.11665761 0.04091856
-0.11542542 0.110276654 -0.031267248 0.12759314 0.08601411 -0.03842228 -0.116654426 0.0048593283
-0.13714722 -0.07201587 -0.025551006 -0.028516777 -0.13727131 0.118833646 -0.06010507 -0.1046962
-0.10692012 -0.027397677 -0.05933103 0.050013512 -0.1131672 -0.13262282 -0.013954431 -0.09112596
0.10744497 -0.123055875 0.08000679 0.043176457 0.12886111 -0.07228994 -0.06232044 -0.118201025
0.0029983371 -0.11757105 0.051137745 -0.0852813 -0.13039932 0.009995982 -0.1356411 0.10640524
-0.13050014 -0.035009295 0.09530713 -0.08850722 -0.19793098 -0.23527011 -0.15889311 -0.13147141
-0.041605946 -0.03020301 -0.024715144 0.09907069 0.0071917465 0.1269737 0.11176574 0.21971923
0.096948154 0.1280334 0.17967871 0.12122904 0.026136976 0.047208227 -0.1002847 -0.26817048
-0.033031892 -0.046382558 -0.028033266 0.17157356 0.1579301 0.1738013 0.113101766 0.089289375
0.11931863 0.16261193 0.22634625 -0.052359987 0.12454483 -0.010140702 0.049513005 0.015831294
0.034908276 0.0008473621 0.13243853 0.02113821 0.03369335 -0.11670724 -0.21266924 -0.16190721
-0.051122263 -0.21889417 -0.26494062 -0.16210686 0.077988856 -0.0027002234 -0.022632282 -0.004138481
0.10021108 -0.073228374 -0.052607324 -0.066152856 -0.12159048 0.08233356 -0.17262201 -0.16790198
-0.1384515 -0.0039682384 0.053810675 0.10677834 -0.082290374 -0.16343352 0.015705619 0.08582282
0.1069363 -0.025813455 -0.09503904 -0.14069632 -0.09547102 -0.051658425 -0.0633776 0.11151344
-0.08123782 0.008568581 0.062733606 -0.009614516 -0.047139216 0.040617265 -0.05418937 0.028862096
-0.02069323 -0.13882919 -0.058640677 -0.057608396 -0.14853948 -0.14118534 0.034769762 0.03445289
-0.13243076 -0.01941362 -0.13922831 -0.15246204 -0.058631554 -0.020327318 0.10738806 0.1571699
-0.018819584 -0.12157253 -0.28011933 0.15644269 0.24576102 0.20752291 0.16135353 -0.019820342
0.06897601 0.13534445 0.11997501 0.32230324 0.29119706 -0.15569852 -0.21194905 -0.10594758
-0.010456619 -0.029880121 -0.2591822 -0.1431809 -0.25818846 0.085049145 0.0563756 -0.20037313
0.06522184 -0.05652298 -0.017956605 0.009542895 -0.12396584 0.09958273 0.1433575 0.11842897
0.2125185 -0.2597549 -0.18605064 -0.021413976 -0.056948833 0.20371597 -0.06864403 -0.027391039
-0.16206911 -0.09555898 0.07654294 0.042719763 -0.16643867 -0.10293205 0.19498849 0.37160137

conv2.bias f4 [4]
00000000: 5045 8c3c d5ac 8cbd fca4 2dbe a8ec 213d
0.017122895 -0.068689026 -0.16957468 0.039532334

fc1.weight f4 [4, 3364]
00000000: 206c 00ba ae3c 3b3c 3ccf 0ebc cd9c 8b3c
00000010: 507f b73b be37 46bc 1cfa db3b d2be 793c
00000020: e3c0 15bc 9084 643c 1077 ff3a 5803 1f3b
00000030: a8e1 723b 24a2 253c eca1 5a3c 1cbb 4fbc
00000040: 8004 31b9 6280 173c b0e2 66bb e4e7 163c
00000050: 9e17 b5bb 28c3 47bc 903c beba 6205 753c
00000060: 71ec 13bc f5d1 0cbc d236 3b3c 98ee a93b
00000070: 7c0e d13b 3e3f 363c 87be 02bc 5a58 4b3c
00000080: 6afb 5bbc 34c9 da3b 301b 333c 7803 94bb
00000090: 2a2c 513c faa1 463c 00f4 9437 e8f8 513c
000000a0: 98f0 c33b 0f3b 04bc a857 c83b fed8 7a3c
000000b0: acd1 213c 5ca3 ef3b 9091 6bbc 6e90 5d3c
000000c0: 1813 803b 18f1 c73b 8019 debb a4bd 88bc
000000d0: d8a0 d23b 3788 25bc 3418 4a3c e885 813b
000000e0: 4946 4fbc 14d1 203c 807d f4bb 1a7b 7ebc
000000f0: febb 6fbc 20e8 e13b 4ca5 e73b 8071 5bb9
00000100: 666c 32bc 40f9 7ebc d080 1c3b ab1c 84bc
00000110: 9401 023c 1a46 ebbb 6082 0e3a f246 4ebc
00000120: 1af6 31bc b0bf 1b3b 0d42 0cbc 8049 9cba
00000130: 386a 4f3c be19 1fbc 1e7f 86bc d41e 2ebc
00000140: 1adf 1ebc 2ca7 19bb c22d 8cbc 4cdb c63b
00000150: d8a5 29bc 9267 f5bb 0083 8038 aae7 783c
00000160: e868 07bc 10cb 4d3b 00ed bc39 200d 1bba
00000170: 5f7e 04bc 0e7c c8bb c290 d0bb b343 06bc
00000180: 7a1a 673c 6053 a43b fe4f 4f3c a432 963b
00000190: f0e8 8bba f057 1bbb d4e0 2fbc 63a4 01bc
000001a0: 3af4 d1bb a4f5 8cbb 6c10 20bc 4879 3a3b
000001b0: 0251 0fbc 80e1 6939 6488 45bc bacd 693c
000001c0: a8e2 47bc fa35 513c d21b 333c 0823 4d3b
000001d0: d089 df3b 4ba6 30bc 0b9a 4ebc 0b6d 883c
000001e0: e87c 7fbc 189f fa3b 5262 163c 80d6 233c
000001f0: 8099 0739 c0a9 6ebc c678 3bbc 2290 613c
00000200: 8472 e7bb d8e9 01bc c614 f1bb 7581 00bc
00000210: 84d0 333c a817 51bb b42e cebb 1ea1 f0bb
00000220: 40aa d339 881f e1bb c64e ebbb ee9b 2d3c
00000230: 9896 753b 9a27 a3bb 704d be3b be95 d1bb
00000240: e142 02bc a03c 943a 3a79 723c 1a00 9fbb
00000250: ac92 2dbc c682 5e3c 065b 5a3c b239 3abc
00000260: 28c7 533c 16c4 6fbc 686d 143c 906e 8f3b
00000270: 184a 603b 0854 90bb 40da 473b 5e93 463c
00000280: 7cf5 d6bb 1af6 3a3c d649 5c3c 1632 d3bb
00000290: 0083 a9b8 00a4 60b9 fe6a 16bc ac71 573c
000002a0: f5dc 07bc 8dc6 72bc c02e 06bc 7a94 613c
000002b0: 1029 603b f0fe a73b d8cd 40bc 848b 2bbb
000002c0: 50c1 703b 58d1 203c 80b2 093a 982b 2e3b
000002d0: 3a9b 9dbb e0e1 9bba 379e 07bc de1d 5c3c
000002e0: 70c1 b63a a874 59bc dc41 a03b 609b efba
000002f0: f0c4 b93b f257 1a3c 463c 4b3c 0292 373c
00000300: 1675 fcbb 209b a03a 005c aeb8 b088 99bb
00000310: bcd8 13bc 2414 7fbb c0e8 f73a 841c 66bb
00000320: 07f3 86bc 45e5 803c b155 873c fa2c 37bc
00000330: b5ee 29bc 8012 6abc 24b4 f73b c0ae 183a
00000340: 2836 25bc c030 043a 50f8 753b 3876 8a3b
00000350: 826b 253c 8085 e13b f2c0 81bb c04a acb9
00000360: d478 29bb a283 5b3c b2d0 33bc 49a3 27bc
00000370: 37d3 0fbc 409b 39ba a46c e13b 005d d0bb
00000380: 70e7 94ba 1676 763c 9038 9a3b 2c6b 963b
00000390: 98ba ef3b b49b ba3b 00a0 d63b d4f8 9dbb
000003a0: a081 7dbb 703b f53a e243 2a3c 66ba 66bc
000003b0: 5c08 be3b c997 74bc f809 73bb 0b10 05bc
000003c0: 6050 943a c078 62bc 008e a93a 308b 0f3b
000003d0: 64d6 3ebc e10a 02bc 4cb7 8a3b a055 08ba
000003e0: ee75 f7bb 8050 a33b 80e7 2f3a 1288 24bc
000003f0: 1cd3 40bb 0671 22bc 96f5 84bc b5fa 86bc
-0.00048989244 0.011428041 -0.008716401 0.017042542 0.0055998936 -0.012098251 0.006713165 0.015243249
-0.009140226 0.013947621 0.001949044 0.0024263468 0.003706077 0.010109458 0.013344269 -0.012678888
-0.00016881712 0.009246917 -0.003523033 0.0092105605 -0.005526497 -0.012192525 -0.0014513899 0.014954897
-0.00902854 -0.0085949795 0.011426644 0.0051859133 0.0063799005 0.011123477 -0.007979996 0.012411201
-0.013426641 0.0066768173 0.010931775 -0.004517015 0.012766877 0.012123579 1.7756596e-05 0.0128156915
0.0059796087 -0.008070721 0.006113965 0.015310524 0.00987665 0.007313175 -0.0143779665 0.013523204
0.003908526 0.0061017387 -0.006777942 -0.01669199 0.0064278655 -0.010103277 0.012334872 0.0039527304
-0.012651035 0.009815473 -0.00746125 -0.015532279 -0.014632223 0.0068941265 0.0070692655 -0.0002092775
-0.010890102 -0.0155623555 0.002388049 -0.016126951 0.007934947 -0.0071799876 0.00054362975 -0.012590157
-0.010861898 0.0023765378 -0.00856067 -0.001192376 0.012659602 -0.009710727 -0.016418036 -0.010627467
-0.009696746 -0.002344559 -0.017111663 0.0060686227 -0.010354482 -0.007489153 6.127916e-05 0.015191952
-0.008264758 0.0031401552 0.00036034733 -0.00059147365 -0.00808677 -0.006118304 -0.0063649127 -0.008194852
0.014105434 0.005014822 0.012653349 0.0045836736 -0.0010674279 -0.0023703538 -0.010734756 -0.007912728
-0.006407288 -0.0043017436 -0.00976954 0.0028453637 -0.008747341 0.00022304617 -0.012056444 0.01427024
-0.012200035 0.012769217 0.010931926 0.0031301398 0.0068218485 -0.010781835 -0.012609969 0.016653558
-0.015593745 0.00764836 0.009178715 0.009999871 0.00012931786 -0.014566839 -0.011442369 0.013767274
-0.007063212 -0.007929288 -0.0073572127 -0.007843365 0.010975007 -0.003190497 -0.0062921885 -0.0073434254
0.00040371902 -0.006870214 -0.0071810214 0.010596259 0.0037473794 -0.004979086 0.005807571 -0.0063960245
-0.0079505155 0.0011309572 0.0147994105 -0.004852307 -0.010594051 0.0135809835 0.013327366 -0.011366295
0.0129259005 -0.014634153 0.009059288 0.0043771937 0.003422385 -0.0044045486 0.0030495077 0.012120096
-0.0065600257 0.011411214 0.013445338 -0.0064451797 -8.0829486e-05 -0.000214234 -0.009180782 0.01314966
-0.008292426 -0.014817846 -0.008189857 0.01376831 0.0034204163 0.0051268265 -0.011767827 -0.0026175687
0.0036736317 0.009815536 0.0005252734 0.0026576277 -0.004809764 -0.0011892878 -0.008277467 0.013434855
0.0013943147 -0.013272442 0.0048906635 -0.0018280558 0.0056692287 0.009420382 0.012404507 0.011204245
-0.0077043874 0.0012253262 -8.314103e-05 -0.004685484 -0.0090238415 -0.0038921917 0.0018913969 -0.0035112211
-0.016473306 0.015734324 0.016520353 -0.011180157 -0.010371854 -0.014286637 0.007559316 0.00058243796
-0.010083713 0.00050426647 0.003753204 0.0042255186 0.010096433 0.0068823695 -0.0039597685 -0.0003286209
-0.0025859373 0.013398083 -0.01097505 -0.010231801 -0.008778385 -0.0007080324 0.006879406 -0.0063587427
-0.0011360478 0.015042802 0.00470645 0.0045904126 0.007315945 0.005694831 0.006549835 -0.0048209224
-0.0038682 0.001870973 0.010392161 -0.014082527 0.0057993364 -0.0149287665 -0.00370848 -0.008121501
0.0011315458 -0.013822734 0.0012935996 0.002190303 -0.011647794 -0.007937164 0.0042332765 -0.00052007474
-0.0075519 0.0049839616 0.00067102164 -0.010042207 -0.0029422706 -0.009914642 -0.016230386 -0.016476968

fc1.bias f4 [4]
00000000: 8807 d6bb 663d 0abd edb6 0cbc a3b5 1e3f
-0.0065316595 -0.03374996 -0.008588535 0.61995906

fc2.weight f4 [2, 4]
00000000: db59 b0be a794 ae3d 22a3 9abe 651e 3b3f
00000010: d9d0 293e 60b1 46be 67e8 30bc a029 10bf
-0.34443554 0.08524447 -0.30202585 0.73093253 0.16583575 -0.194036 -0.010797597 -0.56313515

fc2.bias f4 [2]
00000000: f9e2 11bf 6367 213f
-0.5698696 0.6304838
