models/classification/classical/oasis-2_coronal.pt (torch, 58080 bytes, 8 tensors)

conv1.weight f4 [2, 1, 5, 5]
000000 03 da 56 bd a7 66 4c 3e db 35 b6 bd 70 a0 20 3e
       -0.052454006 0.19961034 -0.08896991 0.15686202
000010 fd 58 19 3e 3b 66 4b 3e 21 c5 d8 3d 62 ef 94 3e
       0.14975353 0.19863217 0.10584474 0.29088885
000020 46 72 1e 3e 57 e8 af bd 61 1c 7c 3d ba f9 6d 3e
       0.1547328 -0.08589237 0.0615505 0.23239794
000030 c9 60 58 3e 68 2a 8c 3e 67 6f d0 bd 83 db 33 3d
       0.2113067 0.27376103 -0.10177498 0.043910515
000040 d4 80 e8 3d 82 df 23 3d 5c 9e c2 bd e1 e0 32 3e
       0.11352697 0.040008076 -0.09502861 0.17468597
000050 23 cd 2b 3e 69 42 86 3e 1e 1f 94 3e 8b 3d 65 3e
       0.16777472 0.26222542 0.2892999 0.22386758
000060 93 31 a6 bc d0 69 e5 bd 2e 7d 91 3d 98 06 43 3d
       -0.02028731 -0.11201823 0.07103954 0.04761371
000070 a0 25 2f 3d 07 32 2d be 63 bf 31 3e 70 3c ea bc
       0.04276049 -0.16913615 0.17358164 -0.028593272
000080 ef 48 35 be c0 8b 81 3b e0 75 41 bc 03 3d 33 be
       -0.17703603 0.003953427 -0.011807889 -0.17503743
000090 18 85 b3 3c 4c 73 26 3d d7 87 fc bd d0 87 13 3c
       0.02191405 0.0406373 -0.12330597 0.009004548
0000a0 50 45 2a 3c a0 bb 1e bc 88 0e 03 bd 90 29 b1 bc
       0.010392502 -0.009688288 -0.03199628 -0.021626264
0000b0 68 28 63 bd 2e 2e 1f be 47 0f 36 be dc 59 77 3d
       -0.055458456 -0.1554496 -0.17779265 0.06038843
0000c0 c0 f4 f2 bc 7e b2 83 3d
       -0.029657722 0.06430529

conv1.bias f4 [2]
000000 e1 3d 31 be d2 e9 4b be
       -0.17308761 -0.19913414

conv2.weight f4 [4, 2, 5, 5]
000000 42 5b 84 3d 1f 43 ae bd 49 d0 0f bd 98 a4 ee 3d
       0.064627185 -0.08508896 -0.035110746 0.116524875
000010 40 f9 28 be 64 6a 69 bd ef f5 8c bd ea dc 48 3e
       -0.16501331 -0.056986228 -0.068828456 0.19615522
000020 8e 27 d5 3d 74 e2 65 bd a3 a2 4c 3e 1c 33 61 3c
       0.10407935 -0.056124166 0.19983916 0.013745096
000030 f5 c9 59 3e 2a f0 26 3e 83 17 16 3d f6 12 38 3e
       0.21268447 0.16302553 0.036643516 0.17975983
000040 8a a5 20 3e af 4d 53 3e 4f 4a 6d 3d b8 a1 d4 3d
       0.15688148 0.20635103 0.057932194 0.10382408
000050 9a 5a f8 3d e5 c5 67 3d 23 51 e8 3d 2a e1 4e 3e
       0.12126656 0.05658521 0.113436006 0.20203081
000060 72 6f 39 bd f5 9c 8e bd 92 17 a9 bd e6 94 da 3d
       -0.0452723 -0.06963531 -0.08256449 0.106729314
000070 24 0f bb bd 8e eb f3 3d 7e f2 ee bd 74 82 b5 bd
       -0.09133747 0.11910163 -0.116673455 -0.088627726
000080 80 0d 9a 3c a8 05 40 3d c0 70 29 3d ae 85 bb 3d
       0.018805265 0.046880394 0.041367292 0.09156357
000090 e8 ff 77 bd 40 46 b1 3b a8 19 43 3d 20 71 f0 bd
       -0.060546786 0.005409986 0.04763189 -0.11740327
0000a0 3b 3f 9c bd 54 fa b3 3d 46 38 c6 3d 80 0b 46 bc
       -0.07629248 0.08787981 0.09678702 -0.012087703
0000b0 a4 5f 92 bd 1a 28 97 3d dc ad 4d 3d 10 4a df bd
       -0.07147148 0.07380696 0.050214633 -0.10902798
0000c0 12 1d 0f be e8 60 c1 3c 7a 45 bb 3c ca fe 24 3e
       -0.13975933 0.023605779 0.022860277 0.1611282
0000d0 b9 65 3b 3e 5f d8 65 3c 82 84 84 bc 9f 43 86 bd
       0.18300523 0.014028638 -0.016176466 -0.065558665
0000e0 fe 7c e1 bc 0f 2e d3 3d 1d 94 d7 3c 37 c6 68 bd
       -0.027525421 0.10311519 0.026315743 -0.056829657
0000f0 de c8 a5 3d 33 87 d6 bd 0f d5 f8 3c e9 4d d4 bd
       0.08094953 -0.10475006 0.030375032 -0.10366423
000100 3a 12 93 bd be f7 00 bd 40 14 f6 3d 25 e7 2f 3e
       -0.07181211 -0.031486265 0.12015581 0.17178018
000110 d0 d4 9c 3d 18 4b ff bd 8b 90 2f 3e 50 a1 e3 3d
       0.07657778 -0.12465495 0.17144983 0.11114752
000120 d2 02 d8 bd 80 59 aa 3b a7 2f 93 bb 36 c1 15 bd
       -0.10547413 0.0051986575 -0.0044917646 -0.036561213
000130 de 59 7d bd 46 02 4e bd ea 12 b9 bd 53 36 ac bd
       -0.061853282 -0.050295137 -0.09036811 -0.08408799
000140 e6 fa db bd d0 79 d4 3c 7e b3 be 3d c2 b3 80 bd
       -0.107412145 0.025936991 0.09311579 -0.06284286
000150 08 cf bb 3c 82 d6 78 bd da 14 c9 3d b9 79 06 3e
       0.022925869 -0.060751446 0.0981843 0.13132371
000160 46 82 be 3d 02 7e f0 3d 51 a4 9d bd ef d2 04 be
       0.093021914 0.11742784 -0.076973565 -0.1297109
000170 92 8f de 3d 86 02 02 be ba 9c f2 3d f7 2b 02 3e
       0.108672276 -0.12696275 0.118462995 0.12712084
000180 38 22 96 3d 4f 84 fa bd 58 a2 0c be 4b df bc bd
       0.073307455 -0.12232267 -0.13733804 -0.09222277
000190 8f 84 22 3e 32 2d 19 3e ed d3 dc 3d 17 8b e3 bd
       0.1587088 0.14958647 0.10782609 -0.11110514
0001a0 0d e0 27 be 58 6e 82 bd 37 a5 2b 3e e9 1f 2e 3e
       -0.16394062 -0.06368703 0.16762243 0.1700436
0001b0 a1 58 03 3e cf 98 0a 3d 6d 42 42 3d 21 0e 88 3d
       0.12826778 0.033837136 0.04742663 0.0664332
0001c0 08 30 85 3d 9e fe 73 3e 73 6a 42 3b c9 eb 8a 3d
       0.06503302 0.23827597 0.00296655 0.06783254
0001d0 80 d0 5b 3e 0d 8f 40 3e fa 2c dd bc f4 ff c4 3d
       0.21466255 0.1880457 -0.026998986 0.09619132
0001e0 a0 2e 1d 3e 0e 3c cc 3d ff a4 2c 3e 31 e8 59 bc
       0.15349817 0.09972392 0.16859816 -0.013299988
0001f0 f6 c9 3c 3c 8d 0f d5 bd 94 c7 57 3d 30 e9 1c 3c
       0.011522761 -0.10403357 0.052680567 0.009577081
000200 30 7b 84 3c 80 8d 6b bb d2 64 ab bd c6 c0 a2 bd
       0.016172022 -0.0035942495 -0.08368839 -0.07946925
000210 78 50 cb 3c 58 7f bd 3c 00 46 55 bd 3c 36 b1 3d
       0.024818644 0.023132011 -0.05206871 0.086529225
000220 ac b4 97 3d 20 4b 8e 3b 72 16 3b bd ad 04 83 bd
       0.07407507 0.0043424517 -0.045675702 -0.06397376
000230 3c 19 62 bd ba 2a e6 bd 10 7a 54 bc ea fb dc 3d
       -0.055199847 -0.11238618 -0.012968555 0.10790236
000240 9a 42 ac 3d dc 45 a3 bd 2b 5a 02 3e 93 99 a3 bd
       0.08411141 -0.07972309 0.12729709 -0.07988276
000250 50 cf 5d 3c 1a cc d2 3d 2f 5d 45 3d 08 3b 3a 3e
       0.013538197 0.102928355 0.04818457 0.18186581
000260 28 a2 66 3e b1 1b 42 3e a1 1d f5 3d 1f 4e 4a 3e
       0.22522795 0.18955876 0.11968542 0.19756363
000270 18 c4 25 3e 05 63 4c 3d 93 b3 76 3d 16 97 6d 3e
       0.16188085 0.04989912 0.06022985 0.23202166
000280 b3 16 32 bd ea 42 20 be 1d 4b 1e be 17 b3 1e 3e
       -0.04347868 -0.15650526 -0.15458341 0.15498005
000290 bc 08 50 3d 95 04 85 3d da 62 9b bc 33 82 48 be
       0.05078958 0.064950146 -0.018968035 -0.19580917
0002a0 b5 9e a5 bd b8 4a 8d bd bb 01 29 be 61 2e 50 be
       -0.080869116 -0.06899017 -0.16504566 -0.20330192
0002b0 85 2e 29 be 06 66 19 3d 89 1c c9 3d 2e 5d f7 bd
       -0.16521652 0.037450813 0.09819896 -0.120783195
0002c0 1a 2c be bd 3c b9 7a bd 96 c7 e8 bd f8 50 cb 3d
       -0.092857555 -0.06121181 -0.11366193 0.09927553
0002d0 c6 2b 10 be 68 37 d5 bc 88 4c dc 3c c0 a3 4d bc
       -0.14079198 -0.026027396 0.026891962 -0.012551248
0002e0 0c 9f c1 3d 72 f9 84 3d 9d 90 07 3e 1b 56 99 bd
       0.09454164 0.064928904 0.1323876 -0.074871264
0002f0 a4 86 b2 bc 6e 44 ed 3d 10 65 f2 3c 5c 3a d8 3d
       -0.021792717 0.115853176 0.029589206 0.10558006
000300 fc 39 a8 3d 92 d6 ee 3d 00 e7 c4 3c 60 f3 28 3c
       0.08214185 0.1166202 0.02403593 0.010311931
000310 e3 ff 0c be 70 3c 2a bc b0 c3 06 be 20 9a 7a bd
       -0.13769488 -0.010390386 -0.13160586 -0.06118214

conv2.bias f4 [4]
000000 1a f4 0f 3d 1b 11 08 be dc f4 a4 bb 71 74 4c 3d
       0.035144903 -0.13287775 -0.0050340723 0.049915735

fc1.weight f4 [4, 3364]
000000 8e 31 aa bb 44 34 b4 bc d4 50 dd bc c9 11 3c bc
       -0.0051938957 -0.021997578 -0.02701608 -0.01147885
000010 c6 f8 7f 3b f4 4d 79 bc 9e d7 80 3c e9 23 45 3c
       0.0039058193 -0.015216339 0.015727814 0.012032487
000020 2d a7 e3 3c f3 f4 37 3d 52 ee 54 3d f0 c3 e8 3c
       0.027789677 0.044911336 0.051985092 0.028413743
000030 3a 05 d8 3c 07 34 03 3d 28 c4 5d 3d f5 dc 03 3d
       0.02636968 0.03203204 0.054142147 0.032193143
000040 93 00 09 3d 1f bc 36 3d d1 bc 3b 3d c9 66 8e 3d
       0.033447813 0.044613 0.045834366 0.069531985
000050 2d 62 53 3d 1a e8 cf 3c 90 94 4b 3c 09 49 ff bb
       0.0516073 0.02537923 0.012425557 -0.007790689
000060 2a b4 dd bc ea a3 59 bc db 56 68 bc 01 8f 9c bc
       -0.027063448 -0.013283709 -0.014180864 -0.019111158
000070 e4 7d 4c bc c0 9d 82 bc 35 df ec bc 6f bb 8f bc
       -0.012481187 -0.015944362 -0.028915027 -0.01754543
000080 90 42 63 bb a4 0f c4 3c 7e e7 c9 3c 53 3b 4e 3d
       -0.0034677126 0.02393324 0.024646517 0.050349545
000090 94 a0 ab 3c 1f 76 0b 3d 2d 74 31 3d ef 8c b1 3c
       0.020950593 0.034048196 0.043323684 0.021673648
0000a0 95 a4 25 3c 91 77 f4 bb ba 9b 7a bc 35 45 3f 3b
       0.01011004 -0.0074605425 -0.015295917 0.0029185538
0000b0 96 5c ca 3b 11 fc b4 bc 60 af 26 bc 31 9f c6 3c
       0.006175588 -0.02209285 -0.010173649 0.02424583
0000c0 02 57 2c 3c 5b 61 be 3c 0c f1 47 3d 3f c7 30 3d
       0.010518791 0.023239782 0.048813865 0.043158766
0000d0 eb 08 51 3d 85 6e 33 3c 73 63 a8 3c 3d 6e 9d bc
       0.051033895 0.010951643 0.020555234 -0.019217605
0000e0 19 e5 d9 bc 6f f3 93 bb 43 ff 08 bd db ae cc bc
       -0.0265985 -0.0045151035 -0.03344656 -0.024985721
0000f0 0f 9f b0 3b 10 58 c2 3c 15 9a 1b 3d a9 a3 3e 3c
       0.005390055 0.023723632 0.03798874 0.011635699
000100 02 dd 8b bb 9b 90 c1 bb 16 98 de bb c2 89 b1 bc
       -0.0042682895 -0.005907131 -0.0067930324 -0.021672133
000110 69 91 64 3a b9 fb 97 bc 80 44 10 3a 34 9a 2f bc
       0.00087191776 -0.018552648 0.00055033714 -0.010717917
000120 dd 96 38 3c 18 a9 d4 3a 1b 27 1c bc 34 7b 09 bc
       0.011266437 0.001622471 -0.009530808 -0.00839119
000130 38 71 ad bc 4e 2b 5e bc ec c6 e5 bc c1 67 df bc
       -0.021172151 -0.013560129 -0.028048955 -0.027271153
000140 b8 a7 93 3c 15 d0 26 3d dc 18 9e 3d 93 d3 2d 3d
       0.01802431 0.040725786 0.07719585 0.0424381
000150 44 e3 ef 3b a1 a9 0d 3b 45 f6 97 bc ce 80 19 ba
       0.0073207933 0.0021616 -0.018550048 -0.000585568
000160 88 76 a3 3c e6 c9 9f 3c b2 a2 81 bb ce e5 7b 3a
       0.019953981 0.019505452 -0.0039561624 0.00096091337
000170 a7 5a d0 3b d1 01 bb bc 9f 27 64 bc 0a 32 1a 3b
       0.006358463 -0.022828015 -0.013925462 0.002352836
000180 62 06 9a 3b 74 69 23 3d 0e c4 04 3d b0 6d 96 3d
       0.004700468 0.03989549 0.032413535 0.0734514
000190 72 71 7d 3d e7 21 b6 3d ea 4d 9c 3d 74 0d 5b 3d
       0.061875768 0.08893185 0.076320484 0.053479627
0001a0 c4 dd 3e 3d ec 7f f7 3c 5e ca ff 3c ab 11 24 bb
       0.04659821 0.030212365 0.031224426 -0.0025034945
0001b0 66 26 c4 3b 6e c1 17 bc 62 77 05 3c eb 4a 0c 3b
       0.0059860228 -0.009262426 0.008146139 0.002140696
0001c0 ba 63 c7 3c 30 f9 7d 3d 42 06 01 3d b3 cf 45 b9
       0.024339546 0.06200522 0.03150011 -0.00018864758
0001d0 70 43 59 3c 82 0c 43 3c b7 d1 08 bc 61 b4 1a bc
       0.013260707 0.011904838 -0.008350781 -0.00944242
0001e0 fc 47 ac 39 a0 3b 29 bb 5f 5f b4 3c 29 94 22 3d
       0.0003286003 -0.0025822893 0.022018133 0.039692078
0001f0 c2 0c 4a 3c 33 0b e6 3c 0a ef a6 bb b0 4b 3c 3c
       0.012332143 0.028081512 -0.0050944136 0.011492655
000200 ce b6 72 3b 87 06 d9 3c 57 14 b8 3c 01 d9 ac 3c
       0.003703523 0.02649237 0.022470636 0.02109957
000210 ae 16 17 3c d4 7d ad 3c 08 59 2d 3d 0c 83 26 3d
       0.009221716 0.021178164 0.042321235 0.04065232
000220 65 fb d0 3c a4 92 e5 3c 50 67 18 3d ae 36 34 3c
       0.0255105 0.028024025 0.0372079 0.010999365
000230 1f 03 c4 ba ef a9 15 bc d0 eb 18 bc 9c d8 f5 3c
       -0.0014954543 -0.009134754 -0.009333566 0.030010514
000240 f2 de 70 3d 02 54 67 3c f0 4a b6 3b b8 42 a6 3c
       0.058806367 0.01411915 0.0055631325 0.020295486
000250 02 2c b8 bb 3d 3d 96 3c 9b d6 64 3a 37 04 d2 bc
       -0.0056204805 0.018339748 0.00087294885 -0.025636775
000260 2f e1 01 bc ef 38 5e 3c fe 1d c6 3c 47 5b d4 3b
       -0.007927223 0.013563379 0.024184223 0.0064806077
000270 62 95 55 3c f1 5e 8f 3c d8 20 41 bb 16 67 6c ba
       0.013036104 0.017501326 -0.002946904 -0.00090180465
000280 0e 86 8b bc a8 0b 93 bc cf f4 d2 bc 01 75 a8 3c
       -0.017031696 -0.017949894 -0.0257515 0.020563604
000290 b1 c0 86 3c 3d cd 80 3c 69 25 f7 3c 60 1a 1c 3d
       0.016449304 0.015722865 0.030169206 0.03811109
0002a0 f7 e8 87 3d d0 d0 83 3d 2c d1 08 3d bd 83 21 bc
       0.066362314 0.06436312 0.033402607 -0.009858069
0002b0 92 c9 98 3c e0 de e9 3c 23 0d d4 bc d1 f3 cd bc
       0.018650804 0.028548658 -0.02588517 -0.025140675
0002c0 67 88 98 bc 98 2f b1 bc 98 e1 1d bd ad c4 19 bc
       -0.01861973 -0.02162914 -0.03854522 -0.00938527
0002d0 a9 6c b1 3c 1a 5b ec 3a eb 82 43 bc d5 f7 9e bc
       0.021658259 0.0018032521 -0.011933069 -0.019405285
0002e0 c0 92 7a 3b 29 18 cb bb 32 2f 42 bc b7 0b 13 bc
       0.0038234442 -0.0061979485 -0.011852073 -0.008974961
0002f0 63 a3 af 3c 17 8c 86 bc cd ce 03 bc 56 0e fe bc
       0.021440214 -0.016424222 -0.008044911 -0.031012695
000300 98 f5 ec bb 77 0b d5 bc 08 24 f6 bc f8 a4 b2 bc
       -0.0072314255 -0.026006443 -0.030046478 -0.021807179
000310 00 f7 09 3c 42 b4 a9 3c bf 23 0b 3d 74 ba c6 3c
       0.008420706 0.020715836 0.033969637 0.02425883
000320 cb 17 17 3d 4c d1 f8 3b bc 7d d2 3c 6f 43 3a bd
       0.036887925 0.0075933095 0.02569472 -0.045474466
000330 0d 17 b4 bd 24 b8 56 bd f7 3b bd bc c9 fa d4 3a
       -0.08793459 -0.052421704 -0.023099883 0.0016249056
000340 5d 65 52 3c 6e 62 c7 3c 8d d7 6a 3c 0a 1c e4 3b
       0.01284155 0.024338927 0.014333618 0.0069613503
000350 fb a6 7f bc 6c 0d f5 bb 8b c7 2d bc 25 9f 89 3c
       -0.015603776 -0.0074784067 -0.010606657 0.016799519
000360 7b fa 80 3c 1a 44 4f 3c 5c a0 5d 3c a8 d3 43 bc
       0.015744438 0.012650514 0.013527002 -0.011952318
000370 04 9b a3 bc dc 1f 1a bb 6c 24 d5 bc ab ec bb bc
       -0.019971378 -0.0023517525 -0.026018344 -0.02294
000380 98 30 ec bc b6 7c d9 bc 48 f6 e2 bc 2c 0f 2b bc
       -0.028831765 -0.026548725 -0.027705327 -0.010440629
000390 5f c3 b2 3c 68 4c 9d 39 6e b8 35 3c e2 6a e3 3c
       0.021821676 0.000300023 0.011091335 0.027760927
0003a0 9a fb 9b bd 87 5e 83 bd bd 3a e0 bb 2a f9 15 3c
       -0.076163486 -0.06414514 -0.0068429396 0.009153644
0003b0 99 12 65 3c b7 d9 c0 3b d3 64 19 bc 39 36 a9 bc
       0.013981485 0.0058853286 -0.009362417 -0.020655738
0003c0 56 d2 e1 ba c9 82 0e bc 9c 8e 83 3c 11 26 47 3c
       -0.0017228823 -0.008698174 0.016059212 0.012155072
0003d0 7c 22 0d 3d 8e 97 29 bc 0d 3f b7 bb 49 ca 90 bc
       0.034456715 -0.010351075 -0.005592233 -0.017674582
0003e0 86 ac 6a 3c 4d aa e5 3c cf 86 3e 3d e8 6c dd 3c
       0.014323359 0.028035307 0.046515282 0.02702947
0003f0 3b d1 ab 3a f2 7c 25 3c 69 99 97 bc 81 f5 1e bd
       0.001310862 0.01010059 -0.018505769 -0.03880835

fc1.bias f4 [4]
000000 d0 d0 c4 3d bf 95 8c 3d 38 da cd bc 37 c8 c0 bc
       0.0961014 0.06864499 -0.025128469 -0.02353297

fc2.weight f4 [2, 4]
000000 41 f0 a5 bd 86 6d ac 3e 5f b0 c5 bc 46 ac 1d 3d
       -0.081024654 0.3367731 -0.024131952 0.03849437
000010 cf f8 ad be 84 ef 8a be 18 b2 e7 3e b8 c3 bc be
       -0.33978888 -0.2713586 0.45253062 -0.36868072

fc2.bias f4 [2]
000000 19 4c cf be 03 c4 97 3e
       -0.40487745 0.29641733
