models/classification/classical/oasis-2_3-plane-ss.pt (torch, 58116 bytes, 8 tensors)

conv1.weight f4 [2, 1, 5, 5]
00000000: 35e3 b43c 1ce9 2cbe 0f10 b53d 5898 bb3c
00000010: 14dd e2bc 4e6a 40bd 43a3 f83d a092 d3bd
00000020: c9a3 dd3d 2a7c 22be 15ae 12be d7b4 f23c
00000030: 585b 4ebd 31e9 0a3e 8e39 113c 8b1c 31be
00000040: b64e 653d ed99 20be b701 c8bd 6647 343d
00000050: b407 6b3d 4161 e8bd 28da 073e ccb3 b6bd
00000060: 8ca1 303e a1ea 89be f341 6ebd cdb8 34be
00000070: 7c1f 3b3e 9e30 c43d 0bab 09bf 9dd6 fcbe
00000080: 1132 acbe 9c09 103e 6c99 193e fb1a 06bf
00000090: dc3a 04bf 93e6 22be e3f8 233e 760d c13e
000000a0: 52af 00bf 1641 9ebe ef26 f63d 3251 8c3e
000000b0: 06eb f23d c03a f0bd 6237 9bbd aa67 593e
000000c0: 7acc a13e c3a1 da3e
0.022080997 -0.16885799 0.088409536 0.022899792 -0.027693309 -0.04697638 0.12140515 -0.10330701
0.10822255 -0.15867677 -0.1432422 0.029627247 -0.05038008 0.13565518 0.00886382 -0.17296045
0.055983268 -0.15683718 -0.09765952 0.044013403 0.057380393 -0.11346675 0.13266814 -0.08921012
0.17249125 -0.2693682 -0.058168363 -0.17648621 0.18273729 0.095795855 -0.53776616 -0.49382487
-0.33631948 0.14066166 0.14999932 -0.5238492 -0.5165231 -0.1590827 0.16012911 0.37705582
-0.5026752 -0.30909032 0.12019145 0.27405697 0.118612334 -0.11729956 -0.07578923 0.21230951
0.31601316 0.4270154

conv1.bias f4 [2]
00000000: 3b85 67be a939 f83e
-0.22609417 0.4848149

conv2.weight f4 [4, 2, 5, 5]
00000000: e0cc 713d 279c 1b3e d7cd 413d f918 fdbd
00000010: 9c08 f33c 1c65 bfbd 7860 af3d 1f52 393d
00000020: b723 2a3d 98d0 a6bd df61 10be 3073 333d
00000030: 5623 01bd 705a 32bd e815 053d aea4 e0bd
00000040: 799b d4bd 2614 523c 4a9b a0bc f958 59bd
00000050: 016a 80bc a5b9 eabd 824e 9f3c a036 9a3c
00000060: 355b 95bd ad17 ce3e 622c 473e bb56 ccbd
00000070: e72e 2dbe fdc1 62be 8441 3d3d cc4f 973d
00000080: 88f9 203d 37c9 83be c95f 27be 4b8f 0cbe
00000090: 2ee0 6fbd d0ec 3abe eaf8 d6bd 9221 4fbe
000000a0: 6d71 c4bc a922 36be fa22 14be f89c 1f3e
000000b0: 2e84 3b3e 14d4 b5bd c1a0 343e 74e0 8c3d
000000c0: b575 0e3b 960b 3b3e 76b8 d93d 3814 cf3c
000000d0: ff56 973d d5b3 1a3d 56de 963d abbd 893d
000000e0: 30b9 babd 265d ef3c ebd9 043e 8416 c1bd
000000f0: 7d58 f5bd 5c10 9fbd 69a2 dfbd 597a 5d3c
00000100: 7252 8d39 b663 833d d0dd 053e 79cd d23d
00000110: 18d9 b3bd 41ca 853d 3ff0 80bd b2b0 083e
00000120: 4de6 93bd fba0 06be 9384 94bd 7e6f fbbc
00000130: 1117 0f3e 5f92 b53d 6c78 15be 74b6 22be
00000140: 3c85 313e 2649 8a3e 4c63 b43d 944d 2f3e
00000150: 206c 15be 691a c5bd 3ec8 773e 83bd 6e3e
00000160: f358 253e 830b 73be e140 28be ddf2 a33d
00000170: 36db 043e 8f1f 12be 43de c8bd d2b2 56be
00000180: 55e5 dabb a7d1 fa3d 2848 1fbe d5dd 333b
00000190: dff7 d3bd 311e 303d c428 b9bd 6e01 05be
000001a0: 1a78 33bd d81e edbd b36c bebd 9ec3 83bd
000001b0: 0e8b 18bd 1dc4 dab9 7cf0 6ebd 5121 e13c
000001c0: b762 993d fe2b d8bb 55ea 1ebc e7a3 c3b9
000001d0: 3807 dabc 6f9a a83d 1cad 6c3c 5528 d43d
000001e0: 73d5 1abe 2da6 a3bd ee44 dabd f07b a23d
000001f0: c8bd 84bc 4efe 5abe db5b 06be 5c4e 3cbc
00000200: c504 263e ce24 5dbd 4b40 9ebe fe91 2abe
00000210: 8a37 e2bd 450f 6f3c 81c7 683e ea30 6ebe
00000220: d022 92be a3f3 413d 598b 8c3e 8120 733e
00000230: cdab aabd 0113 e0bd 8b7a e43d d534 9e3e
00000240: 7849 e33c 2a33 1a3e c0a5 9d3c 773f 1dbd
00000250: 9708 c3bc db15 26be d59c e33d 3c11 583d
00000260: 12cf df3d ef5c 3abd 6f50 d6bd f4ee 093d
00000270: 88f4 d83d 28dc 96bb 1190 373d aefc a3bb
00000280: 4c62 a23d 1242 013e 7b06 f5bd db81 bdbc
00000290: 5478 26be 9175 c3bd 851a 6cbc 46e9 cb3c
000002a0: b485 b0b8 2ff5 be3d 0d79 91bd 29b5 8e3d
000002b0: 3baf 80bd bd03 2fbd 11db 213c dc42 dabd
000002c0: e1a0 eebd f341 a53d a503 0ebd 9c2a e83c
000002d0: b589 c93d 4e14 82be 4ed0 40be 9983 a0be
000002e0: c744 f9bd 4561 01be 5525 7dbd 2f9b 9abd
000002f0: 6539 95bd e843 3bbe 05f2 5bbd 434b 11bd
00000300: f9ff 843e 8cb7 843e af0f 7e3e 796f 843d
00000310: ed6d 4b3e 04b9 eb3c 2441 9e3e 928a 533e
0.059033275 0.15196286 0.047315445 -0.12358279 0.029667191 -0.09345457 0.08563322 0.045244332
0.041537967 -0.08145255 -0.14099835 0.043811023 -0.03152784 -0.04354328 0.032491595 -0.1096891
-0.103812166 0.012822187 -0.019605298 -0.053063367 -0.015675547 -0.1146119 0.019446615 0.018824875
-0.07292787 0.40252438 0.19450524 -0.0997748 -0.16912423 -0.22144313 0.04620506 0.07388267
0.03930047 -0.25739452 -0.16345133 -0.13726537 -0.058563404 -0.182544 -0.10496695 -0.2022765
-0.023979867 -0.1778666 -0.14466467 0.15587223 0.18312141 -0.08878341 0.17639448 0.068787485
0.002173764 0.18266138 0.10630886 0.025278196 0.0738964 0.037769157 0.07366626 0.067256294
-0.09117353 0.029219221 0.12973754 -0.09428123 -0.119797684 -0.07766792 -0.10919649 0.0135179395
0.00026955042 0.06415503 0.13072896 0.10293097 -0.08781642 0.065327175 -0.06295823 0.13348654
-0.07221661 -0.13147347 -0.07251849 -0.030692812 0.13973643 0.08865809 -0.14596719 -0.15889913
0.17335981 0.27008933 0.08808002 0.17119437 -0.14592028 -0.09624178 0.2419748 0.2331448
0.16147213 -0.2373486 -0.16431 0.08005307 0.12974247 -0.14269851 -0.09808018 -0.20966652
-0.0066801705 0.12247019 -0.15554869 0.0027445455 -0.10350012 0.042997543 -0.090409786 -0.12988827
-0.04381571 -0.115781486 -0.092980765 -0.064337954 -0.037241988 -0.00041726316 -0.058334813 0.027481707
0.074895315 -0.006597041 -0.009699424 -0.00037315415 -0.02661477 0.08232581 0.014445569 0.10359255
-0.15120487 -0.0799068 -0.106576785 0.079337955 -0.016203776 -0.21386072 -0.13120978 -0.011493292
0.16212757 -0.053990178 -0.30908427 -0.16657254 -0.110457495 0.014591043 0.22732355 -0.23260847
-0.28542185 0.04735149 0.27450064 0.23742868 -0.0833355 -0.10941125 0.11156186 0.30899683
0.027744994 0.1505858 0.019244075 -0.038390603 -0.023807807 -0.16219275 0.11113898 0.05275081
0.109281674 -0.045498785 -0.1046456 0.03367515 0.10593516 -0.0046038814 0.044815127 -0.005004487
0.07928905 0.1262286 -0.11964127 -0.023133209 -0.16256839 -0.095439084 -0.01441062 0.024891507
-8.417238e-05 0.09324109 -0.07103167 0.06968147 -0.062834226 -0.042728174 0.00987889 -0.10657284
-0.11651779 0.080692194 -0.034671444 0.02834063 0.09840719 -0.25406116 -0.18829462 -0.313504
-0.12171321 -0.12634762 -0.06180318 -0.0754913 -0.07286338 -0.18287623 -0.053697605 -0.035472166
0.25976542 0.25921285 0.2481067 0.06466574 0.19866152 0.028774746 0.30909073 0.20658329

conv2.bias f4 [4]
00000000: 9d5e 563e 6f41 cfbd 3962 253e 0d86 92bd
0.2093453 -0.10119902 0.1615075 -0.071544744

fc1.weight f4 [4, 3364]
00000000: 2244 983b c043 e5bc 17fb a739 3019 5bbc
00000010: 70bd 14bc 1c8e 41bc 9893 14bc 165c c6bb
00000020: 4ae0 573b 4e8e b8bc e8ed d83a abef 90bc
00000030: 269c 26bc d95d 3c3b 123a d2bc 366b c3bc
00000040: 9af0 d539 7127 2fbb c383 a0bb ab2b 42bb
00000050: 8042 c0bc 7606 5ebb f897 e8bc 16ae d4bc
00000060: 14c5 99bc f369 123b 4a5f c7bc a9c8 7a3b
00000070: 0e2b b7bc 4c8d 19bc f970 ddbb 9404 bebc
00000080: 5358 f93a fcbd 10bc fa51 0cbc 8d43 01bc
00000090: cbbd c2bc 6b9b bebc e62f debc 4159 00bc
000000a0: 8089 f8bc d4fb 8c3b cb11 ecbc db1b 51bc
000000b0: 1aca d9b8 adb0 34ba e029 9bb9 3dca 62bc
000000c0: 10eb 03bc a82b 87bc 6cff cbbc 4db3 2bbc
000000d0: e6f1 b1bc eba2 3fbc 4060 de3b dcc1 58ba
000000e0: 9b71 bc3b ecc7 c5bc 2efc 86bc c027 89bc
000000f0: 7a03 d5bc 4115 8cbc 5337 7cbc 8927 9ebc
00000100: 852f 3fbc 255b d3bb 5f9d 373b 8aa2 65bb
00000110: 3223 fa3a 44d1 14bc 7908 9dbc 9f20 0cbc
00000120: d790 a2ba 377c 31bc bb78 e33b 9cf4 d5bc
00000130: e737 89bc e097 d23b b6fc 02bc ea74 ae3b
00000140: e09a bd3b 3df3 c9bb b694 2cbc eca1 17bc
00000150: 8ccd 2ebc 74af ddbc 0a34 85bc 198f d7bb
00000160: 20a9 d5bc 94da b7bc 7cca b5bc 4a39 8c3a
00000170: 4eec 40bd ab29 f8bc 10b7 2dbd ce94 0abc
00000180: 5537 113d 2d88 e53c b66f 90ba 14fc 7fbc
00000190: fbcb 02bd b97e 663a c7e1 40bc 30be 4e3a
000001a0: 12a6 2a3c ca8b 9fbc 0aea dabb 1692 5ebc
000001b0: f5c4 583b 18ba 223c 78a8 093c aac7 0e3c
000001c0: 73c7 eb38 e9fa 7a3a 3235 69bc b6d7 03bc
000001d0: 4e12 b2bc 9495 e9bc 65f0 b0bb f25c 97bc
000001e0: fecc 01bd dc7a 02bd b865 bcbc 1e60 ca3c
000001f0: 0d66 1d3d 745c 973c 9931 0f3d 59c6 c5bd
00000200: 010f a8bd 66e5 b1bc 19ef 9c3c fa68 7dbd
00000210: 2a4c b5bc 11d8 643c 6d30 7b3c 3fe6 0dbd
00000220: 4a22 b5bc ad37 383c 84ac d23c 3d9a eb3c
00000230: 2d72 ba3c e9bf 81bc 620b 59bc e329 453c
00000240: f8df 18bc 5ff1 5cbc e60c a7bb efae 64bc
00000250: 52db 5dbc 3ea3 603c 2974 503d 028a c13c
00000260: d5a2 9dbd 9966 e03c f26b 05bd fd34 1ebe
00000270: fce3 35be 8200 fcbd 3134 22be 5256 8cbd
00000280: e4a1 fe3c 0bf7 bdbb b2c7 c0bb 49e0 553d
00000290: 88a2 c73c 1200 9cbc 4366 61bb 6085 6dbb
000002a0: de0c 28bd 94cd 33bd dd2a 18bc 1d77 09bc
000002b0: c859 e63b ab06 6bbc 051c ccbc 1a31 453b
000002c0: e584 41bc 6479 8fbd 1ffe 00bc 2a51 3cbc
000002d0: 32db b93c e4aa a8bd 80a1 bebd 8c5f 11be
000002e0: 70a5 e6bd 838e 0cbd d008 f3bd 1204 67bd
000002f0: fdce e23c 9174 73bd f57f 75bc e233 a03d
00000300: 2b06 a2bd 10a3 9ebd dd40 9bbd a7ec a3bc
00000310: 8c0f f03c a4cd 9c3c 70b3 00bc 59e3 fd3c
00000320: 83f1 ec3b eb42 b33b 90cd 9bbc 3788 47bc
00000330: 1b23 d43c c9bf 74bd 3d1e 8ebc 549e 133d
00000340: 81ac e8bd de80 ccbd b7e2 a6bc 96ae 48bd
00000350: 0cf8 243d dba0 4fbc f198 83bd 41d9 37bd
00000360: 1382 3bbc c7b0 fbbd 81f5 f9bd ab91 e43c
00000370: 0124 8fba fad2 d0bd 7b1e ae3d d410 e63d
00000380: 9a2c 5d3d 4c02 1b3d 0ad3 123d 50a8 e73c
00000390: a929 cabc 4af6 d53b 4b0e 55bc 8fd1 b8bb
000003a0: b9e1 8d3c 7b78 08bd 7603 cdbc 1bfe 3e3d
000003b0: 9a68 70bd cae4 c8bd 95f5 b9bc dfb6 90bc
000003c0: 3b8b 6b3d 8d5d b0bc e718 6cbd 1132 edbc
000003d0: 51c1 033d 081d 493d 945c 51be 91a1 8abd
000003e0: 550e 083d e0ac e7bc cb8f 153c 97bb 9a3d
000003f0: d64b cf3c c8d2 2ebd 743d 9e3c 4220 be3d
0.004646794 -0.027986407 0.000320398 -0.013372704 -0.009078369 -0.011813667 -0.009068392 -0.006053458
0.0032940083 -0.022528794 0.0016550394 -0.017692408 -0.010169065 0.002874246 -0.025662456 -0.023854833
0.00040805788 -0.002672639 -0.0048985197 -0.002962808 -0.02346921 -0.0033878363 -0.028392777 -0.025961917
-0.018770732 0.0022340983 -0.02433743 0.0038266575 -0.022359397 -0.009372067 -0.006757852 -0.023195542
0.0019023515 -0.008834358 -0.008564467 -0.0078896405 -0.023772141 -0.023267468 -0.02712245 -0.00783378
-0.030339003 0.004302481 -0.028817078 -0.012762989 -0.00010385011 -0.0006892782 -0.00029595103 -0.013842163
-0.008051649 -0.01650031 -0.024902068 -0.01047976 -0.021721791 -0.0116965575 0.0067863762 -0.00082686334
0.0057508475 -0.024143182 -0.01647767 -0.016742587 -0.026002634 -0.017099978 -0.01539405 -0.019305961
-0.011669044 -0.0064500743 0.0028017384 -0.0035039508 0.0019083975 -0.009083096 -0.01916908 -0.008552699
-0.0012402785 -0.010832838 0.0069418824 -0.026117615 -0.01675029 0.0064267963 -0.007994821 0.005323996
0.005786285 -0.0061630295 -0.010533502 -0.009254914 -0.010669123 -0.027061202 -0.016260166 -0.006578338
-0.026081622 -0.022443093 -0.022191279 0.0010698226 -0.047100358 -0.030293306 -0.04241091 -0.008458329
0.03545316 0.028019035 -0.001101962 -0.015624065 -0.031932812 0.0008792687 -0.0117725795 0.00078866165
0.010415571 -0.019475836 -0.0066807317 -0.013584634 0.003307638 0.0099320635 0.0084019825 0.008714596
0.000112428235 0.00095741317 -0.014233874 -0.008047035 -0.021737244 -0.028513707 -0.005399751 -0.018476937
-0.031689636 -0.03185545 -0.022997722 0.024704035 0.0384274 0.018476702 0.03495941 -0.096569724
-0.08205987 -0.021715831 0.01915698 -0.06186769 -0.022131044 0.01396753 0.01533137 -0.034643408
-0.022111077 0.011243743 0.025717027 0.02876007 0.022759521 -0.01583858 -0.013247343 0.012033912
-0.009330742 -0.013485282 -0.005097973 -0.013957723 -0.01354106 0.013710795 0.05089203 0.023625378
-0.07697073 0.027392672 -0.032573648 -0.15449901 -0.1776275 -0.12304784 -0.15840222 -0.06852402
0.031083055 -0.005797272 -0.0058831805 0.052215848 0.024369493 -0.019043002 -0.0034393228 -0.0036242828
-0.041027896 -0.043897226 -0.009287563 -0.008390215 0.0070297457 -0.0143448515 -0.024915705 0.0030089081
-0.01181147 -0.07005575 -0.007873087 -0.01149396 0.022687528 -0.0823572 -0.093081474 -0.14196604
-0.112620234 -0.034315597 -0.11866915 -0.056400366 0.02768659 -0.05943734 -0.014984121 0.07822396
-0.07911333 -0.077459455 -0.07580731 -0.020010306 0.029304288 0.019141026 -0.007855281 0.030992197
0.007230939 0.0054706237 -0.019018918 -0.012178472 0.025895646 -0.059753213 -0.017348403 0.036039665
-0.113610275 -0.09985517 -0.020371778 -0.048994623 0.04027562 -0.012672628 -0.06425656 -0.044884924
-0.011444586 -0.12289577 -0.12205029 0.027901491 -0.0010920764 -0.101964906 0.085019074 0.112336785
0.053997613 0.037843987 0.035845794 0.0282785 -0.024678068 0.006529604 -0.013003896 -0.0056402157
0.017319547 -0.033318024 -0.025026064 0.046629053 -0.058693506 -0.09809263 -0.02270011 -0.017665325
0.057505827 -0.021528983 -0.057640936 -0.028954538 0.032166783 0.049099952 -0.20445472 -0.067690976
0.033216793 -0.028280675 0.009128521 0.07555311 0.025304716 -0.042681485 0.019316413 0.092834964

fc1.bias f4 [4]
00000000: 4a20 453e ec48 813e 3c97 3a3e b15b 883e
0.19250599 0.25250947 0.18221754 0.26632455

fc2.weight f4 [2, 4]
00000000: 8ed0 e2be d57f 6fbf bc2a cebe b7c2 a2bf
00000010: dcfe 513f ea19 653f 5b01 aa3e 0666 603f
-0.4429974 -0.9355443 -0.4026698 -1.2715672 0.8202951 0.89492667 0.3320416 0.87655675

fc2.bias f4 [2]
00000000: fe3c 623f 6add 4abf
0.88374317 -0.792441
