models/classification/classical/oasis-2_sagittal-ss.pt (torch, 58128 bytes, 8 tensors)

conv1.weight f4 [2, 1, 5, 5]
0.12643063 0.26128006 0.20440903 0.43028906 0.25215206 0.03807899 -0.13048853 -0.24501325
-0.12400728 -0.07157117 -0.012182348 -0.30333173 -0.31361237 -0.30467132 -0.1723581 -0.30033964
-0.24442202 -0.35671407 -0.22537504 -0.20295933 -0.15543737 -0.22296405 -0.18652718 -0.20122047
-0.016447108 -0.105187595 -0.0868195 0.018965516 -0.11039225 -0.074296676 -0.012053996 0.16816711
0.042167936 0.1495978 0.062469766 0.23860578 -0.14140613 -0.027702153 0.11029059 -0.04421629
0.18584572 0.1586748 0.26478535 0.058228645 0.13398409 0.083347216 -0.10061026 -0.09058282
0.22784014 0.18785504
00000000: 0877 013e 80c6 853e 9a50 513e d94e dc3e
00000010: 131a 813e b7f8 1b3d c99e 05be c1e4 7abe
00000020: 87f7 fdbd e893 92bd 7998 47bc 4c4e 9bbe
00000030: cd91 a0be e1fd 9bbe a47e 30be 1ec6 99be
00000040: c449 7abe 3aa3 b6be b7c8 66be 92d4 4fbe
00000050: f92a 1fbe b050 64be fb00 3fbe bd0c 4ebe
00000060: 16bc 86bc 986c d7bd 6cce b1bd 925d 9b3c
00000070: 5515 e2bd db28 98bd 207e 45bc 0034 2c3e
00000080: 49b8 2c3d 2a30 193e 4ce0 7f3d 1355 743e
00000090: c5cc 10be a0ef e2bc 08e0 e13d 241c 35bd
000000a0: 574e 3e3e a67b 223e f291 873e 2981 6e3d
000000b0: 2033 093e f2b1 aa3d c10c cebd 7c83 b9bd
000000c0: ed4e 693e 125d 403e

conv1.bias f4 [2]
0.22811946 -0.020639809
00000000: 2698 693e d114 a9bc

conv2.weight f4 [4, 2, 5, 5]
0.022958279 0.077732176 -0.067398995 0.029334104 0.03812084 -0.052826688 -0.16608353 -0.12556729
-0.04787787 -0.13710229 0.029660923 -0.13781273 -0.093645886 -0.111257404 -0.08931736 0.049325626
-0.09596948 -0.09805942 0.018109769 0.08081275 -0.14835475 -0.11875024 -0.07379619 0.055253685
-0.08265069 0.07798931 0.04048185 0.10211914 0.1506325 0.102748685 0.06759937 0.20470233
0.0722048 0.06673799 0.0040101223 0.20913616 0.22770101 0.20985776 0.120286874 0.02157628
0.20170398 0.21104261 0.17606887 0.0087496685 0.06356009 0.19223447 0.20604289 0.077906884
-0.066032834 0.15176892 0.030682152 0.10496917 -0.08952047 0.10499903 -0.03008227 -0.14426449
0.012101655 -0.16964234 0.06420057 -0.11482736 0.0924517 -0.0638628 -0.19854563 0.035243064
0.045605827 -0.1873119 0.08318343 -0.14279094 -0.14678152 -0.14783168 -0.16238376 0.092865154
0.09419196 -0.08208011 -0.17785385 -0.064518094 0.17418596 0.04208025 0.054777022 -0.011976781
0.13962878 0.21036667 0.17133646 0.014061705 0.15124129 0.16136268 0.1880442 0.041789006
-0.0022072324 0.069784164 -0.035543855 -0.019486766 -0.058694355 -0.11275933 0.14628112 0.14776105
0.11741707 0.057244275 -0.101672 -0.0014308947 -0.081306055 -0.177061 -0.006802917 -0.18548095
0.06047339 -0.1180552 -0.10141751 -0.1286324 -0.15195732 -0.026280187 -0.023247425 -0.07525822
-0.02584918 0.09496445 -0.1656011 0.15135308 0.21628244 0.021024073 -0.12660088 -0.13425079
-0.019617323 0.05896972 0.15495019 0.24657954 0.117978245 0.10651024 0.2673162 0.20025909
0.050049834 0.20616853 0.056544203 0.1871886 0.2704498 0.019044183 0.1185378 -0.0318553
0.14882508 0.16024871 -0.005659215 -0.011177987 -0.10494726 -0.11790913 0.11818939 -0.021302205
0.1163455 -0.06458648 0.11105961 0.1526965 -0.030958513 -0.066023305 0.0020809297 0.0330789
0.24911797 0.27516618 0.22007197 -0.083593905 0.14094242 0.20202427 0.27980405 0.2485079
-0.059513457 0.09818818 0.1467799 0.14330105 0.025384456 0.04218674 -0.008833893 0.14428894
-0.09207471 0.116099775 -0.05710403 0.0080424715 0.01717792 0.024223477 0.023793457 0.11483506
0.03151098 0.1038182 0.02449897 -0.101817116 0.051513027 0.008397272 -0.003195058 -0.1414424
0.09794903 -0.14354366 0.014515024 -0.019129153 0.06209496 -0.0207282 -0.010922395 -0.058961853
0.06354699 0.103952706 0.009696297 0.14771071 -0.026645472 0.048067946 -0.024029855 0.051213622
00000000: 0013 bc3c 0c32 9f3d 7c08 8abd 134e f03c
00000010: 9924 1c3d cc60 58bd cd11 2abe b694 00be
00000020: 961b 44bd 8b64 0cbe 77fb f23c c81e 0dbe
00000030: 6ac9 bfbd ecda e3bd 05ec b6bd ab09 4a3d
00000040: a68b c4bd 61d3 c8bd f05a 943c 2881 a53d
00000050: 4fea 17be 5333 f3bd 7522 97bd b051 623d
00000060: c444 a9bd dcb8 9f3d 4cd0 253d d723 d13d
00000070: 683f 1a3e e76d d23d 8a71 8a3d 7d9d 513e
00000080: 1ce0 933d edad 883d 5867 833b ca27 563e
00000090: 742a 693e f4e4 563e f758 f63d bdc0 b03c
000000a0: 7d8b 4e3e 8e1b 583e 664b 343e c55a 0f3c
000000b0: cb2b 823d 1dd9 443e e8fc 523e a58d 9f3d
000000c0: 393c 87bd 5069 1b3e 2359 fb3c 14fa d63d
000000d0: 8256 b7bd bb09 d73d 186f f6bc 12ba 13be
000000e0: 0546 463c b9b6 2dbe 977b 833d 9b2a ebbd
000000f0: 5157 bd3d 80ca 82bd 8c4f 4bbe 085b 103d
00000100: 2dcd 3a3d b1ce 3fbe 135c aa3d ca37 12be
00000110: e54d 16be 3061 17be ee47 26be 1630 be3d
00000120: b7e7 c03d 9e19 a8bd 521f 36be 1022 84bd
00000130: ce5d 323e 575c 2c3d df5d 603d 433a 44bc
00000140: d9fa 0e3e 5c6a 573e d372 2f3e 1163 663c
00000150: ffde 1a3e 423c 253e a98e 403e f32a 2b3d
00000160: 37a7 10bb 00eb 8e3d 6f96 11bd b6a2 9fbc
00000170: 7e69 70bd 5dee e6bd b8ca 153e ac4e 173e
00000180: 5c78 f03d f978 6a3d 6939 d0bd dc8c bbba
00000190: ca83 a6bd 7b4f 35be 01eb debb b8ee 3dbe
000001a0: f2b2 773d edc6 f1bd fcb3 cfbd 36b8 03be
000001b0: b39a 1bbe 8c49 d7bc 6271 bebc fb20 9abd
000001c0: a9c1 d3bc b97c c23d 5693 29be 4dfc 1a3e
000001d0: 2579 5d3e ad3a ac3c a9a3 01be 0a79 09be
000001e0: 82b4 a0bc 3c8a 713d 43ab 1e3e 597f 7c3e
000001f0: 949e f13d 0a22 da3d abdd 883e b810 4d3e
00000200: 0e01 4d3d d81d 533e e59a 673d 5eae 3f3e
00000210: 6578 8a3e 8c02 9c3c f2c3 f23d b47a 02bd
00000220: 9a65 183e 3d18 243e f070 b9bb e023 37bc
00000230: 97ee d6bd 587a f1bd 470d f23d f681 aebc
00000240: 8d46 ee3d eb45 84bd 3973 e33d 795c 1c3e
00000250: b59c fdbc 3a37 87bd 3560 083b be7d 073d
00000260: c818 7f3e 95e2 8c3e 8c5a 613e 4833 abbd
00000270: 3653 103e 73df 4e3e 7a42 8f3e db78 7e3e
00000280: 62c4 73bd e216 c93d 784d 163e 83bd 123e
00000290: 10f3 cf3c 01cc 2c3d 08bc 10bc 7bc0 133e
000002a0: aa91 bcbd b8c5 ed3d eae5 69bd 92c4 033c
000002b0: b6b8 8c3c 5070 c63c 7fea c23c a52e eb3d
000002c0: a811 013d a39e d43d 10b2 c83c 7e85 d0bd
000002d0: 53ff 523d b694 093c 2e64 51bb 47d6 10be
000002e0: 8099 c83d 1cfd 12be 6cd0 6d3c beb4 9cbc
000002f0: 4957 7e3d 30ce a9bc d8f3 32bc fc81 71bd
00000300: ed24 823d 28e5 d43d 38dd 1e3c 7a41 173e
00000310: 9b47 dabc e5e2 443d 42da c4bc 60c5 513d

conv2.bias f4 [4]
0.19281468 0.11134697 0.106549926 -0.06833072
00000000: 3671 453e e109 e43d d936 da3d faf0 8bbd

fc1.weight f4 [4, 3364]
-0.0034529637 -0.006532133 -0.005225428 -0.023211006 -0.014713641 -0.00032530917 -0.002999395 -0.007397386
-0.02261084 -0.008801264 0.01109187 -0.0049862307 -0.0069181137 0.009352583 0.007832667 -0.00034154396
0.0032734533 -0.00043631546 0.0012698305 0.008551214 -0.015066935 0.00020500224 0.00089806627 -0.018315228
-0.0013028905 0.008277841 0.008811228 0.0036688154 -0.0003632605 -9.430578e-05 -0.0009963881 0.010260012
0.005230249 -0.0028815249 0.0014015737 -0.01782952 -0.009705963 -0.00760231 -0.010482984 -0.0011368475
0.007677068 -0.0040158024 -0.01550776 0.00057518244 -0.008480645 0.0021360037 0.0053174403 -0.009749118
-0.00061590143 -0.0074459533 -0.0063793734 0.006208975 0.010690966 0.0052958196 -0.021420509 -0.017588107
0.010190405 -0.02112617 -0.0006663986 0.009567991 -0.0026143342 -0.019596115 -0.01632008 0.009777792
0.0058192806 0.009276761 -0.012666515 -0.018969921 -0.012079457 -0.01840128 -0.021922274 0.00745533
0.003321828 -0.0094628045 0.0023875746 -0.0074471943 -0.023095857 0.0038803727 0.008086061 -0.009841375
-0.00820458 -0.022523925 -0.007714612 0.004811271 0.0036353918 0.010434914 -0.0133205475 -0.0102803605
0.008302096 -0.015630748 0.0054497384 -0.01649645 -0.011281421 -0.007561269 0.0072721653 -0.017954674
-0.021140855 -0.009336462 0.009584892 -0.0064784535 -0.019907337 -0.019392831 -0.02133607 0.007234287
-0.0040853103 0.0024252308 -0.009829348 0.0098515805 -0.0026881127 0.0041243276 0.0018582073 -0.015163654
-0.0014441117 0.0083532445 -0.017776538 -0.0025695227 -0.004908471 -0.018554108 0.006681427 -0.009110311
-0.015534436 -0.003515199 -0.009116406 -0.020520635 0.0010825897 0.0039181286 -0.021427717 0.009715026
0.0051950444 -0.012234522 -0.006942168 0.0074108187 -0.0089329975 -0.0066492306 -0.002546042 -0.020053554
-0.020095326 0.0014431061 0.0047525186 -0.022767352 -0.014109861 0.0056791618 0.006084325 -0.008684827
0.011187312 0.0018463238 0.00020516536 -0.019148747 -0.021316022 -0.013187949 -0.021990072 -0.01469887
0.0041887136 -0.004237569 -0.015377166 -0.009323799 0.010727537 -0.0071034245 -0.0006072819 0.007701826
-0.0015852557 -0.0010555543 -0.0065030614 0.0023266205 -0.0058437665 -0.014346014 -0.007659651 -0.0048872377
0.004984781 0.0044367816 0.009316502 -0.0076901456 0.009924763 -0.0064845537 -0.021287926 -0.012943709
-0.00703868 -0.008864355 -0.013146825 0.0033294559 -0.022659294 -0.010699243 0.009083514 -0.020279262
-0.0007018456 -0.00656064 -0.008432153 -0.008707876 -0.022879722 -0.00218582 0.0034741482 -0.0048258645
-0.018138742 -0.014444471 -0.016913455 -0.007360339 -0.005685516 -0.006749982 -0.018951703 0.00795869
-0.016850105 -0.010197181 0.0074002715 -0.013946366 -0.012347137 -0.0055020824 -0.01073904 -0.021916913
-0.013414008 -0.0071918513 -0.009977071 -0.014838656 0.002465683 -0.009218043 -0.0064614643 0.0004673066
-0.021355214 -0.016655976 -0.009551186 -0.016067937 -0.012559467 -0.011642132 -0.0017716095 -0.015991287
0.006290719 0.006677748 -0.0046460703 -0.0017067296 -0.018703956 -0.018882364 0.0035284795 0.0044573373
0.0017076927 -0.015022198 -0.0042236065 -0.000836815 -0.0018998225 -0.01965385 -0.021631485 -0.002408817
-0.0031816408 0.006845631 -0.01138927 -0.016269365 -0.0010936399 -0.010379019 -0.0037923064 0.0070319762
-0.013829797 -0.015669553 -0.011086856 -0.0016918354 0.004989957 -0.013521341 -0.0078058382 -0.005442522
00000000: 1e4b 62bb 810b d6bb 113a abbb 0225 bebc
00000010: 7c11 71bc 428e aab9 7f91 44bb c565 f2bb
00000020: 5e3a b9bc 2d33 10bc adba 353c 8963 a3bb
00000030: 58b1 e2bb 943b 193c 9654 003c 4111 b3b9
00000040: 6f87 563b 45c1 e4b9 7170 a63a 641a 0c3c
00000050: 4edb 76bc dff5 5639 356c 6b3a d109 96bc
00000060: c0c5 aaba c89f 073c f85c 103c 8270 703b
00000070: 0074 beb9 08c6 c5b8 3d99 82ba 9c19 283c
00000080: 8262 ab3b f7d7 3cbb 02b5 b73a 370f 92bc
00000090: c205 1fbc cc1c f9bb d2c0 2bbc 4602 95ba
000000a0: ea8f fb3b fe96 83bb 4314 7ebc d7c7 163a
000000b0: 67f2 0abc 32fc 0b3b ec3d ae3b c4ba 1fbc
000000c0: 7274 21ba 2ffd f3bb 100a d1bb a874 cb3b
000000d0: 2929 2f3c 8e88 ad3b 107a afbc ef14 90bc
000000e0: a8f5 263c ca10 adbc 41b1 2eba 10c3 1c3c
000000f0: 4055 2bbb 0888 a0bc b0b1 85bc 0833 203c
00000100: aaaf be3b 8efd 173c 3787 4fbc cf66 9bbc
00000110: eae8 45bc 48be 96bc 5796 b3bc d74b f43b
00000120: 07b3 593b e109 1bbc db78 1c3b 9807 f4bb
00000130: 8633 bdbc da4d 7e3b 667b 043c b83d 21bc
00000140: 816c 06bc 1884 b8bc dbca fcbb dea7 9d3b
00000150: c13f 6e3b 34f7 2a3c 6d3e 5abc f56e 28bc
00000160: 8405 083c 0e0c 80bc b893 b23b 9023 87bc
00000170: b6d5 38bc 86c4 f7bb 584b ee3b ae15 93bc
00000180: 962f adbc f6f7 18bc f309 1d3c 3549 d4bb
00000190: b614 a3bc b7dd 9ebc fbc8 aebc 990d ed3b
000001a0: 11de 85bb 9ff0 1e3b 460b 21bc 8668 213c
000001b0: 0c2b 30bb 5e25 873b 178f f33a fa70 78bc
000001c0: 5948 bdba 0cdc 083c 1aa0 91bc 7065 28bb
000001d0: 3dd7 a0bb c9fe 97bc dfef da3b 6a43 15bc
000001e0: 2684 7ebc 415f 66bb fa5c 15bc e41a a8bc
000001f0: afe5 8d3a a563 803b 2e89 afbc c62b 1f3c
00000200: 313b aa3b 4e73 48bc 207b e3bb 74d6 f23b
00000210: b55b 12bc cae1 d9bb 7fdb 26bb 5a47 a4bc
00000220: f49e a4bc 9b26 bd3a 04bb 9b3b 9982 babc
00000230: 0c2d 67bc 4318 ba3b 045f c73b ce4a 0ebc
00000240: fd4a 373c 5900 f23a a821 5739 d5dd 9cbc
00000250: f09e aebc 4412 58bc 8624 b4bc 87d3 70bc
00000260: 7a41 893b 4edb 8abb 82f0 7bbc d9c2 18bc
00000270: 8dc2 2f3c d8c3 e8bb 0032 1fba 995f fc3b
00000280: 5bc8 cfba 865a 8aba a217 d5bb 377a 183b
00000290: 117d bfbb 8b0b 6bbc cffd fabb 1f25 a0bb
000002a0: 6057 a33b 6c62 913b 3ea4 183c 9efd fbbb
000002b0: 799b 223c 617c d4bb 0464 aebc da11 54bc
000002c0: baa4 e6bb cd3b 11bc c865 57bc 0033 5a3b
000002d0: fc9f b9bc e14b 2fbc 05d3 143c b220 a6bc
000002e0: 10fc 37ba a3fa d6bb 0327 0abc 7bab 0ebc
000002f0: 416e bbbc f93f 0fbb 89ae 633b 4922 9ebb
00000300: b397 94bc 81a8 6cbc 168e 8abc 002f f1bb
00000310: 914d babb f42e ddbb 9a40 9bbc 2a65 023c
00000320: 3b09 8abc 1412 27bc fa7d f23b 4c7f 64bc
00000330: a54b 4abc d04a b4bb ccf2 2fbc 198b b3bc
00000340: 6dc6 5bbc 9fa9 ebbb de76 23bc d61d 73bc
00000350: 4c97 213b 4607 17bc b1ba d3bb d500 f539
00000360: 21f1 aebc 1d72 88bc 947c 1cbc e8a0 83bc
00000370: 39c6 4dbc a4be 3ebc 5a35 e8ba 2900 83bc
00000380: 6022 ce3b 03d1 da3b 103e 98bb 58b4 dfba
00000390: 0a39 99bc 30af 9abc 103e 673b db0e 923b
000003a0: a9d4 df3a aa1f 76bc 2e66 8abb b45d 5bba
000003b0: 7703 f9ba 1c01 a1bc 8334 b1bc 3edd 1dbb
000003c0: 1383 50bb 5151 e03b 109a 3abc 5547 85bc
000003d0: 7758 8fba c30c 2abc 5888 78bb 7e6c e63b
000003e0: 5f96 62bc 6f5d 80bc a5a5 35bc 93c0 ddba
000003f0: cb82 a33b 9d88 5dbc 1ec8 ffbb 2f57 b2bb

fc1.bias f4 [4]
-0.0075059403 0.061910696 -0.013305086 -0.0035475274
00000000: 64f4 f5bb 1296 7d3d 93fd 59bc a27d 68bb

fc2.weight f4 [2, 4]
0.03392515 0.67069244 -0.12941173 -0.22305378 0.33767247 0.019232405 0.38405523 0.4099953
00000000: 19f5 0a3d 80b2 2b3f 8284 04be 3668 64be
00000010: 68e3 ac3e 478d 9d3c e3a2 c43e e7ea d13e

fc2.bias f4 [2]
-0.25229743 0.058899775
00000000: 212d 81be e440 713d
