models/classification/classical/oasis-2_3-plane.pt (torch, 58080 bytes, 8 tensors)

conv1.weight f4 [2, 1, 5, 5]
-0.12314491 -0.10565686 -0.17599706 -0.017866116 0.21579075 -0.09990021 -0.046389636 0.093503974
0.1732696 0.12434266 0.13394906 0.19788073 -0.021173598 0.07074186 -0.2336624 -0.030268587
0.10521449 0.15773962 -0.23175743 0.070730545 -0.12175001 -0.14206374 -0.16349664 -0.19668455
0.1543402 0.18846673 0.51058966 0.602483 0.2670424 0.2533374 0.38084048 0.3816401
0.41546875 0.5597764 0.39513826 0.14333783 0.33373174 0.53544986 0.5498372 0.34123474
0.0034611362 0.11151596 0.12692998 0.19656064 -0.1570778 0.14290184 -0.13555488 -0.10556589
0.00076940283 -0.22197506
00000000: 6633 fcbd a062 d8bd 9338 34be f65b 92bc
00000010: 40f8 5c3e 7b98 ccbd 0f03 3ebd 037f bf3d
00000020: 966d 313e 5da7 fe3d f129 093e 3fa1 4a3e
00000030: 4174 adbc 1ce1 903d 3245 6fbe d4f5 f7bc
00000040: b27a d73d 7f86 213e d251 6dbe 2ddb 903d
00000050: 1258 f9bd 2879 11be aa6b 27be ad67 49be
00000060: 5b0b 1e3e 6cfd 403e 01b6 023f 533c 1a3f
00000070: c8b9 883e 71b5 813e 86fd c23e 5566 c33e
00000080: 52b8 d43e 824d 0f3f 904f ca3e 27c7 123e
00000090: e3de aa3e 3e13 093f 21c2 0c3f 52b6 ae3e
000000a0: 3bd4 623b 7b62 e43d eff9 013e 3147 493e
000000b0: 01d9 20be dc54 123e e6ce 0abe ee32 d8bd
000000c0: c0b1 493a 6e4d 63be

conv1.bias f4 [2]
-0.16917622 -0.30846104
00000000: 883c 2dbe 9bee 9dbe

conv2.weight f4 [4, 2, 5, 5]
-0.1517277 0.25797555 0.2889363 0.08399325 -0.0029012118 0.05021045 0.25648138 0.1451105
0.12358178 0.011506088 -0.0050058053 -0.10837153 -0.12428723 0.15261981 0.16470097 -0.07321841
0.034933183 0.070823975 -0.06018898 -0.11577241 -0.22066851 -0.04304722 0.020749066 -0.13466701
-0.014476087 -0.005837139 -0.08135769 -0.106865905 0.09506443 -0.16299258 0.18533064 0.06485525
-0.046177533 -0.1587466 -0.021139877 0.21730462 0.22167857 -0.10120308 -0.2318131 -0.20452374
0.20328183 0.05140805 -0.06277804 -0.1046721 0.006094955 0.1916416 -0.008074648 -0.064817555
0.19642285 0.2909325 0.19602713 0.23023178 0.09675624 0.03767213 0.04003638 -0.12953216
-0.120614015 -0.0023739156 0.036433768 -0.1151753 -0.057804503 0.0011227097 -0.026473518 -0.011756086
0.12626775 -0.07879686 -0.18230523 0.069399826 0.16631284 -0.06451245 0.04916606 0.10436739
-0.056301795 0.03044816 -0.07631043 0.13019037 0.04141939 0.13596536 -0.16261066 -0.15026955
-0.113709055 0.039426755 -0.086321846 -0.20344743 -0.15519865 -0.10561534 -0.06801483 -0.097359404
-0.1770156 0.107523344 -0.0029522306 -0.11554719 0.019182703 0.13867334 -0.011758448 -0.06218568
0.14437462 0.1110499 0.28138718 0.19616905 0.11348595 0.04563062 -0.04089094 -0.11368872
-0.09226407 0.066146225 0.032047316 0.086541325 -0.061115175 -0.007348731 -0.057071693 -0.076899506
-0.064592846 0.054538086 -0.09955697 -0.11650285 -0.055555783 0.074266896 -0.07492584 0.02965504
-0.13533486 0.014308512 -0.108611606 0.07124753 -0.06811265 0.04375519 -0.06613203 -0.097190514
0.09016876 -0.07290048 -0.124453515 -0.06973839 0.0699525 0.013077915 -0.09208937 0.12284376
-0.13665016 -0.040417798 -0.11525404 -0.056204103 -0.088311926 0.08737965 0.112204745 -0.022939876
-0.097224236 -0.012669876 0.01918605 -0.13367964 -0.13396995 -0.027969658 0.010473015 0.13928466
-0.084190704 0.10309013 -0.093413725 0.03695832 0.0816633 -0.011653003 -0.13009599 -0.009473691
-0.07176966 0.028575841 0.12000184 -0.00038579127 0.07472814 0.12517212 -0.05940549 0.0048067216
-0.058305796 -0.17464101 -0.021108521 0.03185546 -0.15395491 -0.11040931 -0.1645429 0.22008778
0.27458903 0.30473718 -0.01119878 -0.11599569 0.19243741 0.11481279 0.19635719 0.12983973
-0.023690062 -0.10252607 -0.10358641 0.029088538 0.12948878 0.008006949 -0.18262002 -0.025866415
-0.10732113 -0.044018652 0.07123105 -0.23295149 -0.17618337 -0.100049965 0.033299524 -0.12014212
00000000: 825e 1bbe 5f15 843e 75ef 933e a704 ac3d
00000010: 4222 3ebb 79a9 4d3d 8751 833e d997 143e
00000020: 7218 fd3d 0884 3c3c bd07 a4bb e5f1 ddbd
00000030: 4e8a febd 5e48 1c3e 5fa7 283e 89f3 95bd
00000040: 1916 0f3d 290c 913d b888 76bd 161a edbd
00000050: edf6 61be 4852 30bd f2f9 a93c 26e6 09be
00000060: 1c2d 6dbc 7945 bfbb dc9e a6bd 83dc dabd
00000070: 24b1 c23d 87e7 26be 51c7 3d3e d4d2 843d
00000080: a724 3dbd 788e 22be 892d adbc 1a85 5e3e
00000090: b5ff 623e 8f43 cfbd 6a60 6dbe ac6e 51be
000000a0: 1d29 503e 3f91 523d c691 80bd 535e d6bd
000000b0: 30b8 c73b b23d 443e 874b 04bc 11bf 84bd
000000c0: 1223 493e 1bf5 943e 56bb 483e e1c1 6b3e
000000d0: 2328 c63d 174e 1a3d 30fd 233d 14a4 04be
000000e0: 7b04 f7bd b293 1bbb 933b 153d 07e1 ebbd
000000f0: 6ac4 6cbd e327 933a fede d8bc 999c 40bc
00000100: 554c 013e 4060 a1bd 39ae 3abe 7f21 8e3d
00000110: ea4d 2a3e 1a1f 84bd 5a62 493d 92be d53d
00000120: b69c 66bd 6b6e f93c a548 9cbd a050 053e
00000130: 61a7 293d 813a 0b3e 6983 26be 43e0 19be
00000140: 4be0 e8bd f37d 213d 82c9 b0bd 8654 50be
00000150: 65ec 1ebe db4c d8bd 5c4b 8bbd 5e64 c7bd
00000160: 9443 35be 3335 dc3d 367a 41bb 01a4 ecbd
00000170: 0b25 9d3c 6200 0e3e 81a6 40bc 69b6 7ebd
00000180: f1d6 133e 216e e33d fb11 903e 8ae0 483e
00000190: 526b e83d 2ce7 3a3d 427d 27bd a2d5 e8bd
000001a0: f2f4 bcbd ac77 873d 0c44 033d 943c b13d
000001b0: e853 7abd a0cd f0bb 02c4 69bd 7d7d 9dbd
000001c0: 4149 84bd 5463 5f3d 86e4 cbbd 0c99 eebd
000001d0: 768e 63bd 3e19 983d b872 99bd 20ef f23c
000001e0: 3995 0abe 406e 6a3c c36f debd 3aea 913d
000001f0: a57e 8bbd a438 333d 3b70 87bd d20b c7bd
00000200: 66aa b83d d94c 95bd 7ce1 febd 00d3 8ebd
00000210: 4243 8f3d c044 563c 5a99 bcbd 8295 fb3d
00000220: 05ee 0bbe 228d 25bd 4f0a ecbd 4636 66bd
00000230: e2dc b4bd 1af4 b23d 9acb e53d 68ec bbbc
00000240: 801d c7bd 5095 4fbc 102c 9d3c 51e3 08be
00000250: 6b2f 09be a020 e5bc 0297 2b3c a3a0 0e3e
00000260: 2d6c acbd eb20 d33d b24f bfbd 9b61 173d
00000270: 173f a73d 3dec 3ebc e237 05be 8a37 1bbc
00000280: f9fb 92bd e217 ea3c 86c3 f53d 0744 cab9
00000290: 110b 993d 1f2d 003e 2c53 73bd b481 9d3b
000002a0: 0fd2 6ebd 18d5 32be c7eb acbc df7a 023d
000002b0: 5ba6 1dbe 471e e2bd ef7d 28be b15e 613e
000002c0: ef96 8c3e 8306 9c3e 167b 37bc 268f edbd
000002d0: 500e 453e f822 eb3d dc11 493e b5f4 043e
000002e0: a911 c2bc 30f9 d1bd 1d25 d4bd 164b ee3c
000002f0: b598 043e 942f 033c be00 3bbe cee5 d3bc
00000300: 2ecb dbbd e74c 34bd 96e1 913d d68a 6ebe
00000310: 6a69 34be ffe6 ccbd 1565 083d 120d f6bd

conv2.bias f4 [4]
-0.024304885 0.22159848 -0.09974863 -0.11383056
00000000: 0a1b c7bc b6ea 623e 0249 ccbd ff1f e9bd

fc1.weight f4 [4, 3364]
0.12658872 0.14305234 0.15180409 0.13538578 0.039562795 -0.04730191 -0.0843027 -0.10052384
-0.10043645 -0.07188227 -0.07955661 -0.13979356 -0.16398816 -0.18238977 -0.20722105 -0.20181836
-0.15167388 -0.10705787 -0.07527061 -0.069358714 -0.01837051 0.0067597483 0.059897304 0.117920205
0.12680933 0.12249559 0.16090961 0.15343456 0.18701135 0.11229229 0.10813097 0.10459171
-0.040612936 -0.07113296 -0.1404392 -0.036891222 0.017101986 0.00018992557 0.0045875716 0.006867443
-0.0075535583 -0.018388165 0.0031841062 0.012946073 -0.046263132 -0.03848755 -0.041943315 0.0017475245
0.027785022 0.01470708 -0.033807445 -0.032043267 0.00848217 0.07564793 0.1094961 0.16057573
0.12442087 0.13950236 0.08832919 0.05419369 -0.051403068 -0.05587585 -0.018003227 -0.014193859
0.015746702 0.012009878 0.028022822 0.011562774 -0.0020905503 -0.06957099 -0.025333814 -0.058262184
0.031776473 0.048036773 0.02024196 -0.035220366 -0.018871631 -0.0024129914 0.06437062 0.050781682
0.01347162 -0.027251573 -0.055032864 0.04581819 0.09999922 0.0703022 0.13600095 -0.054562397
0.13439144 0.11591309 0.015892373 0.035451885 0.020860996 -0.06758159 -0.068813466 0.0043532434
0.010604625 -0.028577948 -0.049849123 -0.019284494 -0.021657944 -0.023457196 -0.01654395 0.046183836
0.058190152 -0.00064106775 -0.07634481 -0.020970788 0.018134583 0.07172852 0.04495232 -0.031070402
-0.05608059 -0.075973615 0.006863976 0.081822164 0.14929357 0.1125537 -0.032089185 -0.04887401
-0.11160438 -0.14969991 -0.046243105 0.06837365 0.09367509 0.08254585 0.06747444 0.088582546
0.037137847 0.003607172 0.035305742 -0.009969179 0.0020095713 -0.0050711483 -0.01677437 -0.0108769955
-0.011096654 -0.07448405 -0.018368404 0.027182044 0.06894021 0.0026383281 -0.03495202 -0.053972792
-0.01829123 0.09547309 0.04652096 -0.09261616 -0.019225981 -0.009024785 0.06812517 0.10664224
0.017647773 -0.039145388 -0.04619314 -0.0484227 -0.004978362 -0.008436632 0.055593174 0.018862082
-0.03423694 0.0072452202 -0.019736739 -0.07710476 -0.0584151 0.030602977 -0.00146532 0.009899192
-0.05373252 0.050612763 0.07017011 0.016448423 -0.04562249 -0.0721187 -0.10603633 0.036898114
0.13270302 0.039486475 -0.017756797 0.0040484276 -0.055477966 -0.056753084 -0.026678529 0.049978305
0.054126523 0.0135616 0.09215771 0.10121632 -0.033040285 0.00071920536 0.09219411 0.10318441
-0.014417534 -0.08289319 -0.06275696 -0.016226098 0.030386154 -0.041137498 -0.01099548 0.010648719
0.05016737 -0.012330421 -0.046230175 0.036692075 0.06405591 0.0878841 -0.055942263 -0.05988947
-0.0033249345 -0.034390558 -0.0008906975 -0.038840186 -0.10617581 -0.09008112 -0.07380318 0.023979055
0.045380283 -0.060791127 -0.132319 -0.03826247 -0.036944706 -0.049686383 -0.06929306 -0.022233488
-0.0070480504 0.0054151304 -0.015437383 0.03603356 0.0019421347 0.030392386 0.026658524 -0.036097914
0.04556644 0.0016035087 0.025204875 -0.0040999274 0.09848148 -0.05960795 -0.080688514 -0.0609783
-0.006428958 -0.04890285 -0.06712658 0.025780017 0.04924323 0.019489981 0.05234806 -0.09201596
-0.04716083 -0.0072079822 -0.022303611 -0.10972804 -0.061854754 -0.019847358 0.04205525 0.04549692
00000000: 79a0 013e 507c 123e 8872 1b3e 92a2 0a3e
00000010: 990c 223d a6bf 41bd e5a6 acbd 71df cdbd
00000020: a0b1 cdbd 0337 93bd 93ee a2bd 0b26 0fbe
00000030: 83ec 27be 62c4 3abe c131 54be 79a9 4ebe
00000040: 6650 1bbe 2841 dbbd 7a27 9abd f10b 8ebd
00000050: c07d 96bc e180 dd3b e056 753d 2680 f13d
00000060: 4eda 013e f8de fa3d 7dc5 243e f31d 1d3e
00000070: e77f 3f3e 80f9 e53d c573 dd3d 2e34 d63d
00000080: c059 26bd 28ae 91bd 4bcf 0fbe 401b 17bd
00000090: 7719 8c3c c226 4739 5753 963b 4a08 e13b
000000a0: d783 f7bb c7a2 96bc 70ac 503b c41b 543c
000000b0: 697e 3dbd 1fa5 1dbd c1cc 2bbd 310d e53a
000000c0: 6a9d e33c f7f5 703c ad79 0abd cd3f 03bd
000000d0: cdf8 0a3c 4ded 9a3d 7e3f e03d f76d 243e
000000e0: 5ed0 fe3d b5d9 0e3e efe5 b43d 34fa 5d3d
000000f0: 068c 52bd 13de 64bd 817b 93bc 5c8d 68bc
00000100: 3aff 803c 14c5 443c 1e90 e53c ca71 3d3c
00000110: 9d01 09bb 3c7b 8ebd dc88 cfbc 54a4 6ebd
00000120: 0c28 023d 35c2 443d 78d2 a53c 3b43 10bd
00000130: ae98 9abc 4723 1ebb bed4 833d 7400 503d
00000140: 12b8 5c3c b13e dfbc 246a 61bd dbab 3b3d
00000150: 64cc cc3d 9afa 8f3d d543 0b3e d27c 5fbd
00000160: e99d 093e d863 ed3d b930 823c ff35 113d
00000170: aee4 aa3c 3768 8abd 13ee 8cbd a7a5 8e3b
00000180: 05bf 2d3c 4d1c eabc 982e 4cbd 84fa 9dbc
00000190: 006c b1bc 4e29 c0bc 2e87 87bc 432b 3d3d
000001a0: cc58 6e3d 540d 28ba ab5a 9cbd eeca abbc
000001b0: fa8e 943c 67e6 923d ed1f 383d 5b87 febc
000001c0: c3b4 65bd 0e98 9bbd 34eb e03b 6192 a73d
000001d0: 6ae0 183e 8e82 e63d f36f 03bd 1d30 48bd
000001e0: d690 e4bd ef4a 19be 6969 3dbd 7c07 8c3d
000001f0: bad8 bf3d cc0d a93d 0a30 8a3d c46a b53d
00000200: db1d 183d 4e66 6c3b c19c 103d c455 23bc
00000210: 03b3 033b e02b a6bb 676a 89bc 6d35 32bc
00000220: bece 35bc 188b 98bd 5679 96bc e1ac de3c
00000230: 8630 8d3d cde7 2c3b d929 0fbd 9312 5dbd
00000240: 7dd7 95bc 6587 c33d c38c 3e3d 8bad bdbd
00000250: ce7f 9dbc b1dc 13bc 3685 8b3d 3f67 da3d
00000260: 1092 903c ea56 20bd 0535 3dbd e256 46bd
00000270: 8721 a3bb cd39 0abc abb5 633d a784 9a3c
00000280: 093c 0cbd 5069 ed3b f1ae a1bc 1ae9 9dbd
00000290: ac44 6fbd 18b3 fa3c fb0f c0ba 3830 223c
000002a0: a216 5cbd 544f 4f3d 59b5 8f3d d8be 863c
000002b0: a6de 3abd f8b2 93bd 9329 d9bd 7a22 173d
000002c0: 4de3 073e 92bc 213d b476 91bc aca8 843b
000002d0: dd3c 63bd ec75 68bd ee8c dabc 0db6 4c3d
000002e0: c6b3 5d3d 7931 5e3c 2ebd bc3d 814a cf3d
000002f0: 4055 07bd 0e89 3c3a 44d0 bc3d 5952 d33d
00000300: 8537 6cbc e8c3 a9bd b986 80bd 98ec 84bc
00000310: 62ec f83c cb7f 28bd 6326 34bc f777 2e3c
00000320: 4d7c 4d3d 8905 4abc da5b 3dbd 6e4a 163d
00000330: bf2f 833d 94fc b33d b723 65bd a94e 75bd
00000340: 25e7 59bb 1ddd 0cbd b37d 69ba e316 1fbd
00000350: b472 d9bd 737c b8bd 1f26 97bd b96f c43c
00000360: ade0 393d 1e00 79bd a27e 07be 1cb9 1cbd
00000370: 5553 17bd f383 4bbd 85e9 8dbd 0123 b6bc
00000380: 55f3 e6bb 6871 b13b 14ed 7cbc ed97 133d
00000390: 3a8f fe3a 74f9 f83c fa62 da3c 68db 13bd
000003a0: e0a3 3a3d d32c d23a 747a ce3c af58 86bb
000003b0: a8b0 c93d 7727 74bd 0540 a5bd 62c4 79bd
000003c0: 02aa d2bb 5b4e 48bd a979 89bd 9d30 d33c
000003d0: 45b3 493d 74a9 9f3c eb6a 563d dd72 bcbd
000003e0: b72b 41bd f030 ecbb 10b6 b6bc 18b9 e0bd
000003f0: 695b 7dbd ed96 a2bc 2042 2c3d fa5a 3a3d

fc1.bias f4 [4]
0.1665285 0.15803252 0.15934423 -0.079271846
00000000: 7286 2a3e 47d3 213e 222b 233e 4759 a2bd

fc2.weight f4 [2, 4]
-0.35802573 -0.4038457 -0.20167434 -0.23112762 0.15624584 0.19973372 0.44511008 -0.50100636
00000000: 264f b7be ddc4 cebe b883 4ebe b8ac 6cbe
00000010: e9fe 1f3e ff86 4c3e 78e5 e33e f441 00bf

fc2.bias f4 [2]
0.33535215 0.08337976
00000000: 47b3 ab3e 02c3 aa3d
