models/classification/control/sagittal/oasis-2_sagittal_2qubits_r4.pt (torch, 59169 bytes, 10 tensors)

conv1.weight f4 [2, 1, 5, 5]
00000000: 1ce3 513e c1b5 413e 4998 57be 4659 6ebe
00000010: 699c 86bd 6686 4b3d 4731 093e 242b 383e
00000020: 7040 193e aa08 d2bc 33c2 b03d 097f 83bb
00000030: 0c9d 523d 2b08 8e3d 8bee 5dbe 6c10 323d
00000040: 82c3 d53d d5ae e6bd 8958 c53c e25b 0dbe
00000050: 34eb 3abe db34 ddbc 5e94 b4bc 9205 20be
00000060: 4987 d33d b532 903d e32e b63d 44f3 c73d
00000070: 9be3 57bd 57b4 05bd 3554 c63d c23e 913c
00000080: b764 82bd e735 2f3e 81f6 1a3e 2501 5f3e
00000090: c53e aa3d 5123 343d aaa4 253e 4d6b 253d
000000a0: e611 033e a1b2 8e3d a2dd a23b 1700 84bd
000000b0: b72e e7bd 7b1b 443e 4196 52bc ec93 b13d
000000c0: 7d05 2d3e 753e 103e
0.20496792 0.1891699 -0.21054186 -0.23276243 -0.065728016 0.04968872 0.13397704 0.17985207
0.14965987 -0.025638897 0.086307906 -0.0040129465 0.051419303 0.06935152 -0.21673028 0.043472692
0.10437681 -0.11263815 0.024090068 -0.13804582 -0.18253785 -0.027002743 -0.022043403 -0.15627125
0.10328538 0.070409216 0.08895662 0.09763196 -0.052707296 -0.03264269 0.0968403 0.01773012
-0.06366866 0.17110406 0.15133096 0.2177778 0.083127536 0.043978993 0.16176096 0.040385533
0.12799796 0.069676645 0.0049702683 -0.0644533 -0.11288207 0.19151108 -0.012853206 0.08670792
0.16896625 0.14086325

conv1.bias f4 [2]
00000000: 7b2f da3d a672 183e
0.106535874 0.14887485

conv2.weight f4 [4, 2, 5, 5]
00000000: 3fd3 05bd 74f4 38bd 5048 f43d 24bd 52bc
00000010: f3e3 0f3d 7488 ef3d c2ac 063e a00d 033e
00000020: 79a2 633d ed19 f8bc 284b 8fbd 1b7c e23d
00000030: 2b45 d53d e973 3c3d 8d6b 21bd d438 bfbd
00000040: e724 94bd b4ce 27b9 5eb4 18be 972b a53d
00000050: 2f47 b53d 3703 543d 7222 013e bd5d 21be
00000060: c021 ffbd 7ef5 113e 9216 65bd db56 07bd
00000070: ab8d ffbc 75d1 973d 0f11 adbd 2e4e 083d
00000080: f65d 853d 6ce0 4d3d d8b4 e33d 5d5b 1bbe
00000090: 2d5c 71bc 262e 05be db71 a8bd 68f6 d7bd
000000a0: 233d 8cbc 9c16 1abd ff28 133d 3505 74bc
000000b0: 7766 a6bd 939f f4bc b7e7 2d3d a39f 0abe
000000c0: c767 883d 7ff0 fd3d dae5 5fbd 2066 67bc
000000d0: 8da7 cbbd d000 913d 766c 62bd dc47 1a3d
000000e0: e311 0b3e 2449 99bd b0b4 06bc 05b6 c2bd
000000f0: 1ca7 fabc be00 11bd 50c6 2fbd bd4e 0c3e
00000100: 4261 0abe 760f 913d 44dc 593d 30ea 683d
00000110: 24ad 923d b25d 12bd 9879 053d a7be 0f3e
00000120: ba01 20bd 0071 30bc 909d 8b3d 3fef e6bd
00000130: 0e09 6abd 003b 1bbd 04a2 153d c002 07be
00000140: 1fb3 88bd 1e5c 993d a0d3 ae3b 09b7 02be
00000150: 5cad 023d 59fe c0bd 32e2 ebbd 4a72 f7bd
00000160: 94a2 b0bd dc91 bbbc 0037 b23d e6b9 d93d
00000170: 4c3c bdbd 9d10 023e 6b07 b5bd f9a1 e2bd
00000180: 9db5 06be 8cfd 18bd 1849 373d e0d0 da3d
00000190: 70e2 1dbe 1442 603d 2ff1 02be 64fd 883d
000001a0: 6aef 3abd fc57 0f3d 3328 263a b683 b53d
000001b0: 0610 b03d ed86 a13d 8773 1c3d 0fd3 2e3d
000001c0: 9bbb 91bd 63f0 b43d d2f2 fd3d 9fea fabd
000001d0: 9fe7 303c 312b 80bd a007 a03d 34c0 8abc
000001e0: 2ad9 43bd 6f64 d73b 8407 363c 558d fabd
000001f0: 3a30 243d cd5d 7c3c b84d 943d ce42 093e
00000200: 1bbe f73c 898c 843d 540e d43d 7185 b83d
00000210: 3259 863c 8565 a73c 487e dc3d 0532 cabd
00000220: d2a9 a83b 8845 14be a887 27bd 2ecf e33d
00000230: c2af 053c 1553 abbd 3b04 21be e50c 7dbc
00000240: f87b db3c a1f5 863d d1a0 8c3b 5e40 bfbc
00000250: 98a1 dd3d 7136 3bbb 6a63 c0bd a5e3 bbbd
00000260: 3a48 f7bd 3a18 373d 0e28 e43c 889a d7bd
00000270: d82a 5b3d 9278 d2bd 5ed8 3c3d e226 29bc
00000280: ee65 9d3c b003 943d 1bf2 e1bd 1b24 83bd
00000290: 498d 0fbe 2fc8 ba3d a7ae a9bd c95b 843c
000002a0: c2a1 18be 146e 1abe 1ed6 ad3d 3bcd c13c
000002b0: 3fb2 26be 92a5 da3d 5362 46bd 0e91 e83d
000002c0: 5932 ef3d 24f4 ed3d 25f4 e33d 9e35 ce3d
000002d0: 4b3e 513c fecc 973c e62a d53d 4ac5 2bbd
000002e0: 4ee6 9a3d 3623 7abd 4cbd fbbd 02dc c5bd
000002f0: da6a f8bd eb63 cfbd 6581 adbd c34e 1cbd
00000300: 714a 3abd be54 d2bd 558c 093d 4989 433d
00000310: 4bc6 f4bd eb96 af3d 5f5e b73d 2dfd e1bc
-0.032672163 -0.045155004 0.11927855 -0.012862477 0.0351295 0.11695948 0.1315184 0.12798166
0.055574868 -0.0302858 -0.06996757 0.110588275 0.10413583 0.046008978 -0.03940921 -0.09337011
-0.07233601 -0.00016003364 -0.14912555 0.08064955 0.08851468 0.05176088 0.12610796 -0.15758415
-0.12457609 0.14253804 -0.055929728 -0.033041816 -0.031195482 0.07412998 -0.08450519 0.033277683
0.06512062 0.050262854 0.111184776 -0.15171571 -0.014731449 -0.13005885 -0.08224841 -0.10545045
-0.017118996 -0.03761922 0.03592777 -0.01489382 -0.08125012 -0.029861247 0.04245731 -0.13537459
0.06660419 0.123993866 -0.054662563 -0.01412347 -0.09944067 0.07080233 -0.055279218 0.037666187
0.13581042 -0.074846536 -0.00822179 -0.09507374 -0.030597262 -0.0354011 -0.042913735 0.13701911
-0.13513663 0.07083027 0.053188577 0.056863964 0.0716193 -0.035733886 0.032586664 0.14037572
-0.039064147 -0.010769129 0.06817162 -0.11276101 -0.05713754 -0.037898064 0.036531463 -0.13184643
-0.0667479 0.07488273 0.0053352863 -0.12765135 0.03190361 -0.09423513 -0.11517753 -0.12082346
-0.08624759 -0.0228967 0.08701897 0.106311604 -0.09240016 0.1270165 -0.088393055 -0.1106605
-0.13155217 -0.037351176 0.044747442 0.10684371 -0.1541841 0.054750517 -0.12787317 0.066889554
-0.04563848 0.034996018 0.00063383876 0.088630125 0.08596806 0.07887063 0.038196113 0.04268175
-0.07115861 0.08834913 0.1239983 -0.12251782 0.01079741 -0.06258238 0.07813954 -0.016937353
-0.047814526 0.006573252 0.01111019 -0.12233988 0.040085055 0.015403223 0.07241386 0.1340439
0.030242017 0.064721175 0.103542954 0.09009827 0.016399954 0.02043415 0.10766274 -0.09872822
0.0051471973 -0.14479649 -0.040900856 0.11123501 0.00815958 -0.08365456 -0.1572427 -0.015444969
0.026792511 0.06589819 0.0042916317 -0.023346122 0.10821837 -0.0028566385 -0.09393962 -0.09174279
-0.12074323 0.04470084 0.02785113 -0.10527521 0.053507656 -0.10276903 0.04610478 -0.010324212
0.019213643 0.07227266 -0.11032506 -0.06403371 -0.1401874 0.09120213 -0.082852654 0.016157048
-0.14905456 -0.15081054 0.08488105 0.023657432 -0.16278933 0.10676111 -0.048433613 0.11355792
0.11679525 0.11618832 0.11130551 0.100688204 0.012771199 0.018530365 0.10408573 -0.041936196
0.075634584 -0.061068736 -0.12291965 -0.09661104 -0.12129755 -0.1012648 -0.08471946 -0.03816105
-0.04548115 -0.102700695 0.033581097 0.047738347 -0.11951884 0.08573707 0.08953547 -0.027586544

conv2.bias f4 [4]
00000000: 4593 693d 8c71 5bbd ba56 f6bd cdbe 703d
0.057025213 -0.053575084 -0.120282605 0.05877571

fc1.weight f4 [4, 3364]
00000000: f842 acbb a88c bdbb 8548 27bc 506e 8dbc
00000010: 53c3 8fbb 240b dcbc 0776 0dbd 5d23 a2bc
00000020: d7e0 943a bd3f 5a3a e4c9 233c 80c9 473c
00000030: 2294 713a 641a 59bb df74 33bc 24f4 d9bc
00000040: aa19 96bc d700 d2bc c99b 4bbc 96d3 bcbc
00000050: 98ff 50bc 1bf3 87bc 1630 22bc 206f 363b
00000060: 7f69 70bc 05e2 c8bb 929f 9f3b 3779 bebc
00000070: 69f1 a13b 5a73 be3b 7039 9ebb 821c edbc
00000080: ae7e 41bc eb58 13bd 4b05 6ebc e6c0 273c
00000090: 453e 7b3c d8f9 d23c bb91 0dbb 2f86 ebba
000000a0: 3bee 303c 7302 0bbc bfe2 843b 77f0 0d3b
000000b0: 3959 64bc 5539 b8bc 3430 33bd 8cef 68bc
000000c0: 42de cfbc f9b6 cc3b 5f0d 4b3a 8cb4 2ebc
000000d0: 97f9 fabb 8bbe c5bc 40ac 84bc 3653 9dbc
000000e0: 5617 d8bc 8ec5 2f3c 9f20 473c b0c0 fe3b
000000f0: 4e7d 01bd 940e c8bc 33ac 01bd 1316 b23c
00000100: a26e 0e3d 6520 1dbd 7a1c 17bd f45f 66bd
00000110: cfc0 46bd 0f39 71bd 8bc2 06bd f228 e7bc
00000120: 776d 17bd 88ff 26bd 9c23 993c 0e02 abb9
00000130: c63b 1bbb de3b e6bc 6c9d 22ba 1329 5fbc
00000140: 25e4 3b3c be75 96bc 33f3 83bc 1c26 803a
00000150: e751 19bc f470 e2bc 6dd2 683c c059 053c
00000160: c5c4 18bc e297 3bbd 950f 93bc bc33 dc3c
00000170: 80fb 153c 8343 1ebd 6e40 49bd 93a6 a83b
00000180: ddeb c43c 6691 f03c 6cb2 173c 4202 adbc
00000190: 4de7 c6bc 9b43 2cbd 4da4 b7bc 565e 1cbc
000001a0: 8464 49bd 51d7 99bc 40a3 6c3c 7b82 403c
000001b0: 3c7e b23a 3924 6a3c 87af 5fba ad7d 2bb9
000001c0: 3305 c3bc 2bc6 81bc b609 99bc cc32 23bc
000001d0: 7be5 273b a529 14bd e346 8ebc c74e 193d
000001e0: 0851 b1bc 9718 f5bc 06fc 3a3c 812d 093d
000001f0: ef81 383d 023f 29bc a8da 1dbd 586d cfbb
00000200: af53 f33c 86a6 5b3d 2fc4 ef3c 4772 fd3c
00000210: 7d3e 533b a666 07ba 1312 87bd a016 12bd
00000220: e83b 7abc c22a c8bb b2e3 263c c477 b03b
00000230: 832b 813c e439 d73a e33b 26bc f8ea c5bb
00000240: e219 7b3c c7ea 7cbb 3d24 20bb c899 9c3c
00000250: a4e4 323c 0b86 67bc fa8c 0aba 3e78 863d
00000260: fe2c 6b3b 28ae 593b fc27 4abd 30f9 32bd
00000270: 8643 8ebc d3e7 2dbd b7be 26bd 8b33 42bc
00000280: 8276 55bc 5364 b43c 3fec be3c d085 773d
00000290: faac 863d 9d24 013c 88f7 bbbc 1a19 b9bc
000002a0: 0414 ef3c 3510 c9ba e460 503b 3e71 ee3b
000002b0: 4acd 4dbb b107 583c 32b1 9cbc 9f0a 56bc
000002c0: 2d3f 6b3c 41e1 41bc 4355 d439 6ad2 313d
000002d0: 93c7 ec3b ff68 8b3c 4586 1cbd 381e ebba
000002e0: ed7e 943c 96a3 12ba 0dc7 0cbc c5be 01bb
000002f0: d9f5 debc 6bf0 93bc c14d 77ba e27a 85bc
00000300: 1bf3 6abc f034 813b b525 213d 7439 363d
00000310: e4dc 3cbd bc97 00bd 3c94 473a 4c85 49bc
00000320: be03 e3bc 2131 20bd b632 6b3c 39ba f2bb
00000330: 0453 ccba 0bb9 d0bc 0363 783c 4905 583d
00000340: aa25 583d ee42 14bc a78f 82bd 5a0f 4ebd
00000350: 14cc 263c ea2e 1a3d f255 413c a713 50bc
00000360: 0039 c1bc 97c7 a9bb 62a6 51bc c372 ebbc
00000370: 1fef 463c f1a8 71bb f455 07bd c2c2 e2bc
00000380: 56cd a23c 678c 19bb 42a5 4fbd 09f0 25bd
00000390: 4c13 4abc 6d71 35bb 474b d8bc fede c03c
000003a0: 204f 91bb d03d b2b9 e5af 8c3c f158 823d
000003b0: 6d59 863d 2a08 67bd 3bbc 1dbd b85c 913b
000003c0: 5d26 303d 43cf d73c 6c43 573c 71b5 433c
000003d0: ce87 e5bc bb27 0abd c41d 79bc ed4b 8ebc
000003e0: 93e3 8bbc 6687 f8bc 14af 993c 830c e3bc
000003f0: 0393 773c 2ee4 423c 6b5b 943c c9e7 54bd
-0.0052570067 -0.00578459 -0.010210161 -0.017264515 -0.004387298 -0.026860781 -0.034536388 -0.019792253
0.0011358511 0.0008325538 0.009996865 0.012194037 0.0009215494 -0.0033127302 -0.010953157 -0.026605673
-0.018322784 -0.025635166 -0.012427279 -0.02305011 -0.012756251 -0.016595414 -0.00989916 0.0027837232
-0.01467359 -0.0061304593 0.004871317 -0.02325116 0.0049421084 0.005812091 -0.0048286244 -0.028944258
-0.011809988 -0.03597347 -0.014527629 0.010238862 0.01533467 0.0257539 -0.0021601755 -0.0017969067
0.010798986 -0.008484471 0.0040553506 0.002165822 -0.013937288 -0.022488276 -0.043747142 -0.014217269
-0.025374535 0.006247398 0.0007745828 -0.010663163 -0.007659148 -0.02413871 -0.016195416 -0.019204717
-0.026378315 0.010728253 0.012153774 0.007774435 -0.03161364 -0.024421014 -0.031658363 0.021739041
0.034773476 -0.038360972 -0.03689239 -0.05624385 -0.04852372 -0.058892306 -0.032900374 -0.028217766
-0.03696963 -0.040771037 0.018693738 -0.00032617192 -0.002368675 -0.028104719 -0.0006203267 -0.013620633
0.011467968 -0.01836669 -0.016107177 0.0009776982 -0.009357906 -0.02764175 0.014210326 0.008139074
-0.009324257 -0.045799144 -0.017951766 0.026880138 0.009154201 -0.038638603 -0.04913371 0.0051468103
0.02403825 0.029366206 0.009258848 -0.02111924 -0.024280215 -0.04205666 -0.022417212 -0.009543976
-0.049168125 -0.018779429 0.014443219 0.011749859 0.0013617943 0.014290863 -0.00085329305 -0.00016354649
-0.02380619 -0.015841564 -0.018681388 -0.009960841 0.0025618959 -0.036172528 -0.017367786 0.037428644
-0.021645084 -0.029918952 0.011412626 0.03349066 0.04504579 -0.010329964 -0.038538605 -0.0063301735
0.02970299 0.053625606 0.029268352 0.03093828 0.003223329 -0.0005165137 -0.06595244 -0.035666108
-0.015273072 -0.0061086128 0.010186123 0.005385371 0.015767818 0.0016420451 -0.010146114 -0.0060399733
0.015325995 -0.0038592087 -0.0024435662 0.019116297 0.01091877 -0.014131079 -0.00052852894 0.06565903
0.0035884972 0.0033215377 -0.04935454 -0.043694675 -0.017366182 -0.042457413 -0.040709224 -0.011853109
-0.013028743 0.022020495 0.02330601 0.060430348 0.065759614 0.007882264 -0.02294518 -0.022594977
0.029184349 -0.0015339913 0.0031796033 0.007276683 -0.003140288 0.0131854275 -0.019127462 -0.013064056
0.014358324 -0.01183349 0.00040499316 0.043413557 0.0072259395 0.01701784 -0.038213987 -0.0017938083
0.01812693 -0.0005593834 -0.008592379 -0.0019797545 -0.027216839 -0.018058976 -0.00094338885 -0.016293947
-0.014340187 0.003943078 0.0393426 0.044488385 -0.046109095 -0.031394705 0.0007613336 -0.012299847
-0.027711745 -0.039109353 0.014355352 -0.0074074534 -0.0015588705 -0.02547886 0.015160325 0.052739415
0.052770294 -0.00904916 -0.06375056 -0.05030761 0.010180492 0.037642397 0.011800276 -0.012699998
-0.02358675 -0.0051812637 -0.012796016 -0.028741246 0.012141972 -0.0036874379 -0.033040956 -0.027680758
0.019873302 -0.0023429634 -0.05069471 -0.04051212 -0.012333702 -0.0027686015 -0.026403083 0.023543831
-0.0044344813 -0.0003399686 0.017173717 0.063646205 0.06560025 -0.05640427 -0.03850959 0.0044361018
0.043005336 0.026343947 0.013138633 0.0119451145 -0.028018858 -0.033729296 -0.015204851 -0.017370189
-0.01707629 -0.030338 0.018760242 -0.027715927 0.015110734 0.011895223 0.018109998 -0.05197886

fc1.bias f4 [4]
00000000: 96e7 8e3d a65f c63d d11f 013e e982 273d
0.06977765 0.09686212 0.12609793 0.04089633

fc2.weight f4 [2, 4]
00000000: 11b6 193f 803c 873d 3331 c53e 17cc e33e
00000010: 4681 593d dfcc d63e 9a16 eb3e 7a7b e93e
0.60043436 0.06603336 0.385141 0.44491646 0.0531018 0.4195318 0.4591568 0.45602018

fc2.bias f4 [2]
00000000: bf36 c7be 3111 b4be
-0.38908955 -0.35169366

qnn.weight f4 [4]
00000000: bca1 303f 1ecd c9be fe2e 9cbe 285b 3dbe
0.6899679 -0.39414304 -0.30504602 -0.18491805

qnn._weights f4 [4]
00000000: bca1 303f 1ecd c9be fe2e 9cbe 285b 3dbe
0.6899679 -0.39414304 -0.30504602 -0.18491805
