models/classification/control/sagittal/oasis-2_sagittal_2qubits_r3.pt (torch, 59169 bytes, 10 tensors)

conv1.weight f4 [2, 1, 5, 5]
0	0x3e4de0ca	0.20105281
1	0x3d0c2504	0.03421499
2	0x3de3b51b	0.111185275
3	0x3e0c6de8	0.13713801
4	0xbe4b35f4	-0.198448
5	0x3e608371	0.21925141
6	0x3e2c2025	0.16809137
7	0x3d2b4c4f	0.04182082
8	0x3cb0ff51	0.02160612
9	0xbe8135e8	-0.2523644
10	0xbd6ce0b8	-0.057831496
11	0xbc7845f7	-0.0151534
12	0x3e248ba4	0.16068894
13	0xbe00b41a	-0.12568703
14	0xbe5b6d10	-0.21428323
15	0x3e5f1990	0.21787095
16	0xbdb4a7cf	-0.088210694
17	0xbe1e25d6	-0.15444121
18	0xbdd51a9c	-0.10405466
19	0x3dfd3b19	0.123647876
20	0x3d9b3157	0.0757777
21	0x3e318375	0.17335303
22	0x3e189bb6	0.14903149
23	0x3e72c7ac	0.23708981
24	0x3e4986ef	0.1968038
25	0x3dd4b61e	0.103862986
26	0x3dc5cea5	0.09658555
27	0xbc1276cb	-0.008939455
28	0xbd892e5b	-0.06698295
29	0xbd02282d	-0.031776596
30	0x3e33f4a9	0.17573799
31	0xbdb2ca57	-0.087299995
32	0x3c4d2e39	0.012523227
33	0xbdbc934f	-0.092077844
34	0x3e5e4330	0.21705317
35	0x3d985d06	0.07439618
36	0x3e3879c8	0.18015206
37	0xbc6c1153	-0.014408427
38	0xbdf3091b	-0.11866971
39	0x3dfd0c11	0.12355817
40	0x3d5e2642	0.054235704
41	0x3dd2b090	0.10287583
42	0x3e47b935	0.19504245
43	0xbdb757ae	-0.089522704
44	0xbdc8d8fd	-0.09807012
45	0xbdd5b19b	-0.10434266
46	0x3e5be8a3	0.21475463
47	0x3de012df	0.109410994
48	0x3ceafc20	0.028684676
49	0x3e22e3d1	0.15907218

conv1.bias f4 [2]
0	0x3dc235d0	0.0948292
1	0xbde083a6	-0.1096261

conv2.weight f4 [4, 2, 5, 5]
0	0xbd8529dc	-0.06502125
1	0x3df9efc0	0.12203932
2	0xbbfcc52c	-0.0077139344
3	0x3e127a41	0.14304449
4	0xbdb8e5d5	-0.09028212
5	0x3e17c7b4	0.14822274
6	0xbda94f7c	-0.082671136
7	0x3dff9829	0.12480194
8	0x3d235d87	0.039884117
9	0x3db388a6	0.08766298
10	0xbd2ef5bd	-0.042714823
11	0xbdf3b3a9	-0.11899502
12	0xbe0da324	-0.13831764
13	0xbd0821cf	-0.033235367
14	0x3e03672b	0.12832324
15	0xbd9aba7b	-0.075550996
16	0xbde24094	-0.110474735
17	0xbd9730ba	-0.07382341
18	0x3a8694b4	0.0010267706
19	0xbdf3525c	-0.11880943
20	0x3cae2dde	0.021262106
21	0xbda6f81e	-0.08152793
22	0xbdd1daec	-0.10246834
23	0xbe09616c	-0.1341607
24	0xbde60aed	-0.11232553
25	0x3d58cfb4	0.052932456
26	0x3da4f72f	0.08054959
27	0x3e33e03e	0.1756601
28	0x3dc62194	0.09674373
29	0x3dff5fe0	0.124694586
30	0x3dd9603a	0.10614057
31	0xbe208ed3	-0.15679483
32	0xbda99641	-0.08280612
33	0x3d63d644	0.05562426
34	0xbda6df54	-0.08148065
35	0x3da492cb	0.08035811
36	0x3d851c4f	0.0649954
37	0x3d9b2370	0.075751185
38	0xbdfc0442	-0.123054996
39	0xbcfcd87c	-0.030864947
40	0xbdc69cb0	-0.096978545
41	0xbd822f62	-0.06356694
42	0xbdf0c877	-0.11756986
43	0xbda7de7b	-0.08196732
44	0xbdb64323	-0.08899524
45	0x3e07982e	0.13241646
46	0xbc2179b9	-0.009855681
47	0xbd4d435b	-0.050113063
48	0xbdc4e32a	-0.096136406
49	0xbd5735a5	-0.052541394
50	0xbbb155f4	-0.0054118577
51	0xbd84e48b	-0.064889036
52	0x3db8e52b	0.09028085
53	0x3d6c1aa5	0.057642598
54	0x3ce9becc	0.028533362
55	0xbd84366e	-0.06455694
56	0xbe0b95e5	-0.13631399
57	0xbd7e4a89	-0.0620828
58	0xbd14d521	-0.036336068
59	0x3de63b14	0.11241737
60	0x3da0dc1d	0.07854483
61	0xbdcb2da1	-0.099208124
62	0xbdac1add	-0.08403561
63	0x3deb5f8b	0.11492833
64	0xbcc7ffe9	-0.02441402
65	0x3cdd49c9	0.027012723
66	0xbdf00117	-0.11718958
67	0x3a97063b	0.0011522243
68	0x3dcb37b8	0.09922737
69	0x3d12f403	0.03587724
70	0xbd7d55db	-0.061849456
71	0x3dcbc47b	0.09949585
72	0xbdad5bf2	-0.08464803
73	0x3c410207	0.0117802685
74	0xbbeab69f	-0.0071628834
75	0xbdcfbbf7	-0.10143273
76	0xbd654043	-0.055969488
77	0xbd51890e	-0.051156096
78	0xbb05d993	-0.0020423874
79	0x3d7d89f4	0.06189914
80	0xbe12ab7c	-0.14323229
81	0x3d056a71	0.032572214
82	0x3ddfe36d	0.1093205
83	0xbd8512ae	-0.064977035
84	0x3e0d6587	0.13808261
85	0xbd8ab6f6	-0.06773178
86	0xbc6c496f	-0.014421805
87	0x3c989ddc	0.01862996
88	0x3e0f87b5	0.14016612
89	0x3df1d001	0.11807252
90	0xbe1c56ed	-0.15267535
91	0x3dd5ff51	0.10449088
92	0x3d11d89d	0.03560697
93	0x3d1a1e72	0.03762669
94	0x3e1fabf5	0.1559294
95	0x3d7eecc3	0.062237512
96	0xbd186b6e	-0.037211828
97	0xbdfe89c8	-0.124286234
98	0x3be9e10d	0.007137424
99	0x3d87e706	0.06635861
100	0x3c258d77	0.010104529
101	0x3e0b326e	0.13593456
102	0x3bd5c6aa	0.0065239267
103	0x3dc16c87	0.09444528
104	0x3dedb4f9	0.116067834
105	0x3d7e550b	0.062092822
106	0xbda8d6e1	-0.0824411
107	0xbcf1cdcb	-0.029517075
108	0xbe1e7659	-0.15474834
109	0x3e0d68b1	0.13809468
110	0x3c780b85	0.015139465
111	0x3da470cb	0.08029326
112	0xbca6334b	-0.02028813
113	0x3da3598f	0.07976066
114	0x3dbbfdd3	0.091792725
115	0xbd0b95d8	-0.03407845
116	0xbd2341dd	-0.039857734
117	0xbe1e0c75	-0.1543444
118	0xbe1fc5f1	-0.15602852
119	0xbe2d42ca	-0.1692001
120	0x3ca34746	0.019931447
121	0x3d6f3fa0	0.058410287
122	0xbd67f639	-0.0566313
123	0x3d96abf6	0.07357018
124	0xbe2a6843	-0.16641335
125	0x3db9e4ca	0.09076841
126	0x3d926eb6	0.07150023
127	0x3ddde515	0.108347096
128	0x3a226e46	0.00061962416
129	0x3d4c7c36	0.049923144
130	0x3e21657c	0.1576137
131	0x3c83f4de	0.016107973
132	0xbdd367ca	-0.103225306
133	0x3ca444c8	0.020052329
134	0xbd825624	-0.06364086
135	0xbcf466ef	-0.029834239
136	0xbdfec1e7	-0.12439328
137	0xbbb205c3	-0.0054328158
138	0xbdba3538	-0.09092182
139	0x3e00c4ec	0.1257512
140	0x3dc77448	0.09738976
141	0xbd95cfa1	-0.07314993
142	0xbdf66262	-0.12030484
143	0xbc95d7ee	-0.01829144
144	0x3cb5593f	0.022137282
145	0x3c8b2432	0.016985033
146	0x3e09261a	0.13393441
147	0x3d8dcb3a	0.06923528
148	0xbe4eb882	-0.20187572
149	0xbd85e24c	-0.06537303
150	0x3d926e77	0.07149976
151	0x3ad0bd2c	0.0015925518
152	0xbd982b0f	-0.07430088
153	0x3d72ecf0	0.059307992
154	0xbdba64e0	-0.09101272
155	0xbdc7bacb	-0.09752425
156	0x3ab168f0	0.0013535302
157	0xbe20f3b0	-0.1571796
158	0xbdefdfff	-0.11712646
159	0xbc649dd7	-0.013953648
160	0xbdbed208	-0.09317404
161	0xbc0e2465	-0.008675669
162	0xbe0306cf	-0.12795566
163	0xbcd51788	-0.026012197
164	0x3e0b2e6e	0.1359193
165	0x3e01eed3	0.1268876
166	0x3d7411e2	0.059587367
167	0xbdf7457b	-0.12073799
168	0x3db3ed08	0.087854445
169	0x3e173483	0.14766125
170	0xbcd35dce	-0.025801565
171	0xbc23ad39	-0.00999003
172	0x3e0e13e8	0.13874781
173	0xbe0d03f7	-0.13771044
174	0xbd7ee0e6	-0.0622262
175	0xbe115127	-0.14191113
176	0xbdaf2b4d	-0.08553181
177	0xbe1853f1	-0.14875771
178	0xbb316c9c	-0.0027072793
179	0x3e25b40e	0.16181967
180	0x3ce33d91	0.027739318
181	0xbd41722a	-0.047228016
182	0x3c00b4c7	0.007855601
183	0xbcc82e61	-0.024436178
184	0xbb05706b	-0.0020361196
185	0xbc880eff	-0.016608713
186	0xbe6f27c0	-0.23355007
187	0xbd8ec803	-0.06971743
188	0xbd99edd3	-0.075160645
189	0x3d42680f	0.04746252
190	0xbdab7235	-0.08371393
191	0x3ac5d149	0.0015092279
192	0xbe15e25e	-0.14637133
193	0x3d2b03a2	0.04175151
194	0xbc756e11	-0.014979855
195	0x3db44ce0	0.08803725
196	0x3cc56be4	0.024099298
197	0xbd8c5d67	-0.068537526
198	0x3e0dd4f2	0.13850763
199	0x3da75257	0.08170002

conv2.bias f4 [4]
0	0x3ded86ba	0.11597963
1	0xbd78877e	-0.06067609
2	0x3cd302f3	0.025758242
3	0x3dd4bc1d	0.10387442

fc1.weight f4 [4, 3364]
0	0xbb8edd0d	-0.0043598474
1	0xbc835078	-0.016029581
2	0x3bd5cf21	0.006524936
3	0xbc691da5	-0.014228259
4	0xbc5bcc84	-0.01341546
5	0xbc95597f	-0.018231152
6	0x3c135039	0.008991295
7	0x3c00f881	0.007871748
8	0x3bb4de60	0.005519673
9	0xbc1be2ae	-0.009514494
10	0xb98af74c	-0.00026505662
11	0xbb6e6568	-0.003637636
12	0xbc73a55d	-0.014870969
13	0xbca32acf	-0.019917874
14	0xbc0c247f	-0.008553623
15	0x3a754745	0.0009356628
16	0xbc8494f6	-0.016184311
17	0x3c1cee0a	0.009578237
18	0xbbb8a255	-0.005634586
19	0xbb873282	-0.004125894
20	0xbc4f1ca1	-0.012641103
21	0xbcb0a31f	-0.021562157
22	0x3be529df	0.006993517
23	0xbc6086d3	-0.01370402
24	0xbc4cc2b2	-0.012497591
25	0x3be79709	0.0070675653
26	0xbc4b9cf0	-0.012427554
27	0x3b5d94e2	0.0033810665
28	0xbc549865	-0.012975787
29	0x3bc6c225	0.0060656243
30	0xbb0160b4	-0.0019741477
31	0xba175c56	-0.0005773952
32	0xba1adb47	-0.00059073087
33	0x3bb4e255	0.005520145
34	0xbcb8cd53	-0.022558844
35	0x3bea09e8	0.007142294
36	0x3b5f68ac	0.003408949
37	0xbcb8e8fa	-0.02257203
38	0xbc763189	-0.015026459
39	0xbbdc2ec7	-0.0067194435
40	0xbca4e054	-0.0201265
41	0x3bf51a05	0.0074799084
42	0x3b97ef92	0.0046367133
43	0xbca02b86	-0.019552004
44	0xbbb989a1	-0.0056621586
45	0xbb9903db	-0.004669649
46	0xbc740ab4	-0.01489513
47	0xbc820607	-0.015872015
48	0xbc9cacfc	-0.019125454
49	0x3c11322e	0.008862061
50	0x3c122a4e	0.008921219
51	0xbc960a98	-0.018315598
52	0xbbd978f6	-0.006636734
53	0x3c22cf83	0.00993717
54	0x3bac3199	0.005254936
55	0xbbbde8a9	-0.0057955575
56	0xbca9fcb7	-0.020750387
57	0xbc588eed	-0.01321767
58	0xbb6f6669	-0.0036529547
59	0xbcb2bf79	-0.021819817
60	0xbc8cdab6	-0.017194133
61	0xbb943e17	-0.0045240032
62	0xbc39fa55	-0.011351188
63	0xbcbf24a2	-0.023332898
64	0xbcb8d6ce	-0.022563364
65	0xbc5db6fa	-0.013532395
66	0xbb86a76d	-0.004109314
67	0xbb4f9842	-0.0031676446
68	0xbc50806d	-0.012725932
69	0x3b624e90	0.003453169
70	0x3c180af9	0.00927996
71	0x36e1558c	6.7154815e-06
72	0xbb59fa7a	-0.0033260868
73	0xbca5fe0d	-0.020262742
74	0xbc4d3cd0	-0.012526706
75	0x3b016ad8	0.0019747522
76	0x3bab8b3d	0.0052351044
77	0xbc72a25d	-0.014809218
78	0xbc33fb0d	-0.010985148
79	0xbc346dce	-0.011012508
80	0x3c1df6bf	0.009641348
81	0xbb3a56e9	-0.002843315
82	0xbc869724	-0.016429491
83	0xbca47139	-0.02007352
84	0xbc3012e3	-0.01074669
85	0xbbd0cf6c	-0.006372383
86	0x3c2c392e	0.01051168
87	0xbba575af	-0.0050494294
88	0x3bd41d12	0.006473192
89	0xbbdc7380	-0.006727636
90	0xbc2aae7b	-0.010417576
91	0x3be8a5e2	0.007099853
92	0xbbcf41ce	-0.006324983
93	0xbccb27da	-0.024799276
94	0x3a29ebd7	0.0006481981
95	0x3bc3a0eb	0.0059701107
96	0x3ab4fe63	0.0013808723
97	0xbb8868fc	-0.0041629057
98	0xba360425	-0.00069433666
99	0x3c1d8cfb	0.009616132
100	0x3b983b01	0.0046457057
101	0x3b33a478	0.0027411263
102	0x3c409da9	0.011756339
103	0x3c1f20c8	0.0097124055
104	0x3c0a1259	0.008427226
105	0xbc1f42e8	-0.009720542
106	0xbc020935	-0.007936765
107	0xbc525b57	-0.01283916
108	0x3bbbc8c4	0.0057307202
109	0x3ad768ad	0.0016434394
110	0xbcb48404	-0.022035606
111	0xbcb49681	-0.022044422
112	0xbc8460be	-0.016159412
113	0xbc7d215d	-0.015449849
114	0xbc50b857	-0.012739263
115	0xbb4653e8	-0.0030262414
116	0xbbadc670	-0.0053031966
117	0xbb5fdab6	-0.0034157461
118	0xbc3d2501	-0.011544467
119	0xbc01816c	-0.007904392
120	0xbcaf3ad9	-0.021390365
121	0xbbde613b	-0.006786493
122	0xbc8713d8	-0.016488954
123	0xbc30f626	-0.010800874
124	0xbc8581df	-0.016297279
125	0xbb29a064	-0.0025882954
126	0xbb7570fb	-0.0037451375
127	0xbc2e981d	-0.010656384
128	0xbcad3b62	-0.02114648
129	0x3b29591f	0.0025840474
130	0xbc7daf73	-0.015483725
131	0x3b6f493b	0.0036512155
132	0x3c2e38f8	0.0106337
133	0x3bdd23fe	0.0067486754
134	0xbc4c6652	-0.012475567
135	0xbade0d2e	-0.0016941184
136	0x3b1a517a	0.00235471
137	0x3c077c1d	0.008269337
138	0xbc29ba8a	-0.010359416
139	0xbcb79b9b	-0.022413066
140	0x3b49af83	0.003077478
141	0xbba812a0	-0.0051291734
142	0xbc09551a	-0.008382106
143	0xbb6aaa4f	-0.0035807078
144	0x3ba6d0ca	0.0050908076
145	0x3bfae71e	0.007656946
146	0xbc2ee804	-0.010675434
147	0x3be90374	0.0071110073
148	0x399a8244	0.00029470224
149	0xbc62e873	-0.0138493655
150	0xbc470244	-0.012146536
151	0xbb2672d5	-0.0025398035
152	0xbb91e253	-0.004452029
153	0xbc000c11	-0.007815377
154	0xbc6138bb	-0.013746436
155	0xbc64889c	-0.013948586
156	0x3c0db1f8	0.008648388
157	0xbc859833	-0.016307926
158	0xb931817c	-0.00016928272
159	0x3c44455a	0.011979425
160	0xbbea6dac	-0.007154187
161	0xbbac150d	-0.005251533
162	0xbcac7ff6	-0.02105711
163	0xba1fb07f	-0.00060916686
164	0xbc98984b	-0.018627306
165	0x3be3c6f1	0.006951206
166	0xbc4df6e3	-0.012571069
167	0xbc56eab2	-0.013117479
168	0x3a70250d	0.00091607944
169	0xbcb22161	-0.021744432
170	0xbc9327b2	-0.017963264
171	0xbc14ef7c	-0.009090301
172	0xbcbb1a90	-0.022839814
173	0x3bbd5b73	0.005778724
174	0x3bc5a375	0.0060314485
175	0x3c0f147d	0.008732912
176	0xbbcaabe7	-0.006185043
177	0xbc3840b0	-0.011245891
178	0x3b03ffb5	0.0020141427
179	0xbb474ef1	-0.0030412043
180	0x3be124fd	0.0068708644
181	0xbc82d2f7	-0.015969737
182	0x3c907e75	0.017638424
183	0x3bd10420	0.0063786656
184	0x3c2e15a9	0.010625281
185	0xbca34171	-0.019928666
186	0xb9940027	-0.00028228873
187	0x3b07f157	0.0020743215
188	0xbbc397e9	-0.005969037
189	0x3bf62124	0.007511275
190	0xba950aaa	-0.0011370976
191	0x3ca7f0f5	0.02050064
192	0x3c820c36	0.015874963
193	0x3b410ef4	0.0029458376
194	0xbc1ae1e4	-0.009453271
195	0x3a751cf8	0.0009350325
196	0x3be424c0	0.0069623888
197	0xbc5f6b09	-0.013636359
198	0x3c11696c	0.008875232
199	0x3bb5a383	0.0055431738
200	0x3b02724b	0.001990455
201	0xbc0d0536	-0.008607199
202	0xbc4e8308	-0.0126044825
203	0xbcb4e822	-0.022083346
204	0xbc74ec75	-0.014948954
205	0xbc973134	-0.018456079
206	0xbbb1477c	-0.005410133
207	0x3b3501c2	0.0027619456
208	0x3bbd11a5	0.0057699257
209	0x3c7d75ea	0.015470007
210	0xbc3301c4	-0.010925714
211	0xbc559cb8	-0.013037853
212	0xbc1f74ae	-0.009732408
213	0xb7f643b2	-2.9357008e-05
214	0xbbfa4082	-0.0076370845
215	0x3a88ccb0	0.0010436978
216	0xbc792f8a	-0.015209088
217	0xbca9737e	-0.020684954
218	0xbcc68926	-0.02423532
219	0x393cc748	0.00018003315
220	0xbacffe8f	-0.0015868711
221	0x3cafa700	0.021441936
222	0x3c4dfeae	0.012572927
223	0x3b5032bd	0.0031768524
224	0xbba126c4	-0.0049179513
225	0x3b5b2298	0.0033437368
226	0x3bbede56	0.0058248444
227	0xbbb09060	-0.0053883046
228	0x3a9807a9	0.0011598963
229	0xbc9fc1bf	-0.019501565
230	0x3b35f87c	0.0027766516
231	0x3b3434de	0.0027497332
232	0xbc1ba50e	-0.009499801
233	0xbc27836b	-0.010224204
234	0x3bc44200	0.005989313
235	0x3a121d26	0.00055738015
236	0x3bd2d0ad	0.0064335675
237	0xb93ae335	-0.00017822984
238	0x3b7e5018	0.0038805064
239	0xbc562a28	-0.013071574
240	0xbcdc870d	-0.026919866
241	0xbcad482f	-0.021152584
242	0xbca2e55d	-0.01988476
243	0x3be17a68	0.006881047
244	0x3be90ca7	0.007112104
245	0xbbb66728	-0.0055664964
246	0xb9512468	-0.00019945356
247	0xbc19930d	-0.009373439
248	0xbcac3e22	-0.021025721
249	0xbc8398fd	-0.016064161
250	0xbc6ff32b	-0.014645378
251	0x3bef01ff	0.007293939
252	0xbaf01252	-0.0018316007
253	0x3c2ca6ae	0.010537786
254	0x3ab3cdc9	0.0013717945
255	0xbb70e24c	-0.0036755977

fc1.bias f4 [4]
0	0xbbe2accd	-0.006917572
1	0xbcf254fe	-0.029581543
2	0x3ec71ccf	0.38889167
3	0x3edb6f39	0.42858294

fc2.weight f4 [2, 4]
0	0x3ee14384	0.43996823
1	0xbed44980	-0.41462326
2	0x3e970149	0.29493168
3	0x3d9599a1	0.07304693
4	0xbe605771	-0.21908356
5	0x3d8c27c5	0.06843523
6	0x3d7444c1	0.05963588
7	0x3e96566f	0.2936282

fc2.bias f4 [2]
0	0xbdacf06a	-0.08444293
1	0xbe93f897	-0.28900596

qnn.weight f4 [4]
0	0x3f2b2670	0.66855526
1	0x3ea5b9a8	0.32368207
2	0xbe28da1a	-0.16489449
3	0xbec349e2	-0.38142306

qnn._weights f4 [4]
0	0x3f2b2670	0.66855526
1	0x3ea5b9a8	0.32368207
2	0xbe28da1a	-0.16489449
3	0xbec349e2	-0.38142306
