models/classification/control/sagittal/oasis-2_sagittal_2qubits_r5.pt (torch, 59169 bytes, 10 tensors)

conv1.weight f4 [2, 1, 5, 5]
-0.05473274 -0.12834918 0.07434422 -0.054902017 0.0027362935 0.03451178 0.13084216 0.21559772
0.1774445 0.20677729 -0.16271766 -0.16222112 -0.012850748 0.077932954 0.08629434 -0.028685296
-0.054343082 -0.07918839 0.11626631 0.038646616 0.14966688 0.148578 0.014225574 0.11450802
0.037835695 0.1361857 -0.19395418 -0.07015842 -0.0925963 -0.020514388 -0.20414717 0.10992382
-0.045963526 -0.11122499 0.10182943 0.11393147 -0.054840904 -0.10279736 -0.21852018 0.12026559
-0.21472341 0.09547718 -0.19605264 -0.053870056 0.07827498 -0.09915679 0.07167113 0.0245003
0.10868279 0.20253448
00000000: 702f 60bd f86d 03be c841 983d f0e0 60bd
00000010: 6353 333b 395c 0d3d 7dfb 053e a6c5 5c3e
00000020: 03b4 353e 6dbd 533e 759f 26be 4b1d 26be
00000030: f28b 52bc 509b 9f3d 16bb b03d 6dfd eabc
00000040: da96 5ebd 862d a2bd 081d ee3d ea4b 1e3d
00000050: 4642 193e d524 183e 6212 693c 2e83 ea3d
00000060: 9af9 1a3d 4474 0b3e ed9b 46be 38af 8fbd
00000070: 21a3 bdbd ca0d a8bc f50b 51be bd1f e13d
00000080: 4044 3cbd edc9 e3bd f38b d03d e754 e93d
00000090: dba0 60bd 6c87 d2bd c1c3 5fbe ce4d f63d
000000a0: 74e0 5bbe 8a89 c33d 06c2 48be d9a6 5cbd
000000b0: a24e a03d b712 cbbd 50c8 923d dab4 c83c
000000c0: 1595 de3d 3365 4f3e

conv1.bias f4 [2]
0.006042949 0.11554335
00000000: ee03 c63b fea1 ec3d

conv2.weight f4 [4, 2, 5, 5]
-0.02420219 0.10263158 -0.059510134 0.04507076 0.035459124 0.10779509 -0.116294324 -0.1784607
-0.119818725 -0.0569675 -0.10080694 0.105817676 -0.18408813 -0.15703559 0.08109845 0.088783965
-0.027060099 -0.16379946 -0.045269318 -0.02627915 -0.0011611697 0.06663905 -0.031653065 -0.14724796
0.13227887 -0.17655605 -0.13591 -0.06887668 -0.11354419 0.037340276 0.027713189 -0.10260092
0.0512474 -0.08988388 0.056105014 -0.06561585 0.03197067 0.10199101 -0.013806398 0.123517625
0.016532775 -0.13333622 -0.06361026 0.09170013 -0.003731549 -0.11468463 0.022409441 0.103951566
0.06046523 0.11620118 0.075532034 0.052064635 0.14554305 -0.005859033 -0.1324984 0.016486786
0.11661321 0.09032101 0.0772056 -0.008294471 0.011090518 -0.04779183 -0.08456389 0.11206762
-0.07737343 -0.051385406 0.03095313 -0.09041323 -0.14134021 -0.005332745 0.14013802 0.047730617
-0.12396934 -0.035343707 0.11445938 0.04058019 -0.002279231 -0.12636483 0.010663137 0.033514053
-0.014404847 -0.10903093 0.018064108 -0.015360984 0.14906622 -0.08932086 -0.08520128 -0.14615849
0.0213718 -0.01584369 -0.04448438 0.10519491 0.04065091 -0.060347952 0.13373527 0.004143858
0.025748458 0.09963212 0.10620209 0.04984629 -0.027520703 -0.10621942 -0.085765906 0.023387419
0.07277477 0.07491135 -0.078171976 0.02987698 0.017383019 0.019771302 -0.040907692 0.056172702
-0.07348788 -0.071038604 0.012805344 0.025195157 0.071229234 0.086495414 0.13115753 0.14105143
-0.10271007 -0.025241006 0.013959937 0.16062894 0.13070539 0.032990795 0.03937965 0.16083679
-0.108547874 -0.03389873 -0.011775298 -0.09452488 -0.04896772 0.09253528 -0.05932949 0.07473908
-0.050363522 -0.06608975 -0.0768651 0.14811468 0.049959328 0.09309395 -0.044173762 0.049305677
0.1697083 -0.018270083 -0.07756412 0.08508157 0.09183883 0.020831976 -0.059775434 -0.021783201
-0.11192549 0.028334435 0.04059249 -0.0062992047 -0.019136395 -0.106856436 0.09710702 -0.0046856524
0.01750348 0.10556288 -0.09950793 0.011417664 -0.12892689 -0.040401723 0.12864858 0.06883856
0.11714831 0.014608617 0.14024849 -0.031157171 -0.15925315 -0.03824663 0.11696638 0.054512326
0.12665203 0.14061518 0.118261926 0.014411087 -0.09173159 0.14634205 -0.115139686 -0.039974716
-0.087298594 -0.07279779 -0.14400475 0.050096244 0.08982852 0.13406706 -0.12059671 -0.058470264
-0.059876267 0.0803631 -0.12009724 -0.11520301 -0.121757805 -0.13253383 0.09065838 0.046957605
00000000: ac43 c6bc 8130 d23d e6c0 73bd 1e9c 383d
00000010: 963d 113d acc3 dc3d b82b eebd 67be 36be
00000020: 8563 f5bd c156 69bd de73 cebd f0b6 d83d
00000030: 9981 3cbe f0cd 20be f216 a63d 5ed4 b53d
00000040: 24ad ddbc 0cbb 27be 526c 39bd 5f47 d7bc
00000050: 6432 98ba 0e7a 883d a5a6 01bd 2bc8 16be
00000060: 1d74 073e 1ccb 34be fe2b 0bbe 380f 8dbd
00000070: db89 e8bd 1ef2 183d c506 e33c 6e20 d2bd
00000080: cbe8 513d 0a15 b8bd 5fce 653d 9a61 86bd
00000090: adf3 023d aae0 d03d 3b34 62bc cff6 fc3d
000000a0: be6f 873c 4a89 08be 1946 82bd 47cd bb3d
000000b0: 018d 74bb c6df eabd 0194 b73c 8fe4 d43d
000000c0: 64aa 773d e2fa ed3d 8ab0 9a3d ba41 553d
000000d0: 3d09 153e 22fd bfbb a9ad 07be 4c0f 873c
000000e0: e8d2 ee3d 39fa b83d f81d 9e3d 88e5 07bc
000000f0: 01b5 353c 5ec1 43bd d52f adbd b583 e53d
00000100: f675 9ebd 8179 52bd 6b91 fd3c 922a b9bd
00000110: 7dbb 10be 4fbe aebb 5780 0f3e 2e81 433d
00000120: a3e3 fdbd 90c4 10bd ae69 ea3d 6a37 263d
00000130: 275f 15bb c865 01be 70b4 2e3c 0846 093d
00000140: 4f02 6cbc 9c4b dfbd 2efb 933c a3ac 7bbc
00000150: d1a4 183e dbed b6bd 027e aebd 92aa 15be
00000160: ea13 af3c a0ca 81bc 4135 36bd 6e70 d73d
00000170: 9281 263d 6a2f 77bd e6f1 083e 33c9 873b
00000180: 6eee d23c ed0b cc3d 7b80 d93d a02b 4c3d
00000190: 1973 e1bc 9189 d9bd 09a6 afbd f996 bf3c
000001a0: f00a 953d 1f6b 993d a118 a0bd 92c0 f43c
000001b0: d566 8e3c 6df7 a13c d38e 27bd 5915 663d
000001c0: d080 96bd b07c 91bd 81cd 513c 1366 ce3c
000001d0: a2e0 913d 8224 b13d 294e 063e c96f 103e
000001e0: a859 d2bd 3ac6 cebc 38b8 643c ea7b 243e
000001f0: a2d7 053e 5b21 073d 8e4c 213d 66b2 243e
00000200: 594e debd 65d9 0abd 2eed 40bc 4396 c1bd
00000210: 6092 48bd 2383 bd3d 7b03 73bd ce10 993d
00000220: fb49 4ebd 105a 87bd 736b 9dbd 60ab 173e
00000230: 27a2 4c3d 0aa8 be3d 8cef 34bd c0f4 493d
00000240: 03c8 2d3e 24ab 95bc f0d9 9ebd 3f3f ae3d
00000250: ff15 bc3d d2a7 aa3c 16d7 74bd af72 b2bc
00000260: 3139 e5bd 9e1d e83c 5044 263d 8f69 cebb
00000270: eec3 9cbc 8cd7 dabd 0ce0 c63d 1a8a 99bb
00000280: 7563 8f3c 5a31 d83d d0ca cbbd 2711 3b3c
00000290: 6905 04be 477c 25bd 74bc 033e 3bfb 8c3d
000002a0: 74eb ef3d fb58 6f3c 4d9d 0f3e 533d ffbc
000002b0: 4213 23be 80a8 1cbd 128c ef3d 5148 5f3d
000002c0: 12b1 013e 6dfd 0f3e 4f33 f23d 7b1c 6c3c
000002d0: c6dd bbbd b1da 153e 5bce ebbd 87bc 23bd
000002e0: 9bc9 b2bd 0217 95bd fb75 13be b831 4d3d
000002f0: 04f8 b73d e048 093e 68fb f6bd 847e 6fbd
00000300: d140 75bd 6995 a43d 8bf5 f5bd 8eef ebbd
00000310: 285c f9bd f3b6 07be 1aab b93d 9e56 403d

conv2.bias f4 [4]
0.07516568 -0.09028765 -0.13004838 0.011046599
00000000: 77f0 993d bbe8 b8bd 672b 05be cbfc 343c

fc1.weight f4 [4, 3364]
-0.009119719 -0.0023666054 -0.0047293077 -0.016495815 -0.0057466626 -0.008586378 -0.03470375 -0.010803779
-0.012690805 0.009687736 -0.015983127 -0.024430428 0.0055973036 0.0055989074 -0.00087660464 0.0057922434
-0.0022578505 -0.02656638 -0.002962146 -0.008913651 -0.019627327 -0.014913007 -0.005953856 -0.01369624
-0.010367962 -0.001237778 -0.010270276 0.016448978 0.0052116797 -0.014930103 -0.026527831 -0.0017244155
-0.017681973 -0.044438075 -0.010644956 0.008102386 0.045899168 0.032747626 0.013571006 -0.012210209
-0.015548835 -0.006796217 -0.0058813277 0.007714968 -0.007826632 0.009395687 0.0029318307 0.012538864
-0.0014484499 0.002793968 -0.0062248423 0.0046633594 -0.020905029 -0.015420045 -0.015396253 -0.021679789
0.005174842 0.0199932 -0.023639413 -0.009037128 -0.013682114 -0.032608245 -0.008367269 0.019201856
0.014730528 -0.030135343 -0.02007565 -0.036414467 -0.04442752 -0.013627598 -0.009583857 -0.0034734767
0.00053578755 -0.01202248 0.0143984845 0.022188712 0.03407888 0.009225999 -0.009668173 0.0070022163
0.011137051 0.012635869 -0.019090377 -0.0118108895 0.00042128825 -0.012121315 0.013540688 -0.006174218
-0.034097563 -0.03394278 -0.011682406 0.02614726 -0.03255288 -0.04914773 0.011393032 0.010219311
0.001061748 -0.0003075887 -0.0020979075 0.008726633 -0.008243841 -0.012972088 -0.018286219 -4.744825e-05
-0.0028151085 -0.01195874 -0.0011467758 0.025364246 -0.008753714 -0.013519052 -0.00351067 -0.0057955496
0.0075940345 -0.017598208 0.017645493 0.020944906 -0.03309657 -0.028214116 0.008335473 0.043412246
-0.016687796 -0.023009934 -0.0073889713 0.034546506 0.006565974 -0.022956476 -0.032911226 -0.0085964175
-0.019217242 0.027563417 -0.004477348 0.022001492 -0.005745735 -0.0004343234 0.007529835 -0.022476891
-0.0019356462 0.0128664905 0.0030112488 0.010149931 -0.016247887 -0.012061686 -0.02157546 -0.0010574198
0.0159782 -0.03175178 -0.010414617 0.003790568 -0.0019873625 -0.003671087 0.02790656 0.006968768
0.032034934 0.013797801 0.010803049 -0.00394738 0.029325387 0.056255512 0.060201988 -0.0005513055
0.03208209 0.045397718 0.030557847 -0.012291659 0.0068709655 0.009046273 -0.0042224946 -0.014886799
-0.010814476 -0.011478235 -0.023186784 -0.0104892105 0.014630751 0.016584124 -0.047985885 -0.0116352085
-0.0017757402 -0.010639821 0.0152831795 0.034732 0.02075957 0.01667822 0.017496264 0.019819692
-0.010195269 -0.024969017 -0.005086717 -0.03139746 -0.011118947 -0.034624025 -0.032642223 0.022412037
0.021633515 0.031144058 0.006947206 -0.022675984 -0.008562781 -0.02625769 0.0069979965 -0.034554698
-0.01860611 -1.4365491e-05 -0.00026115755 -0.017411442 -0.011022366 -0.033951074 0.012529099 0.044834323
0.019049963 -0.0047858134 0.013474122 -0.004400574 -0.04262213 -0.0320688 -0.02514005 -0.028002474
-0.005353739 -0.018603029 -0.049025133 -0.041946825 -0.022950405 0.03555289 0.040581066 -0.046329107
-0.050321173 -0.031444833 -0.045891713 -0.022321902 -0.00738216 -0.014647212 -0.010721619 0.027562924
-0.002077353 -0.044076912 0.02037413 0.032053158 -0.016660895 -0.033542946 -0.026850715 0.012640191
0.03765659 -0.029022515 0.06389788 0.0533463 0.05689332 0.058474973 0.05242507 0.08427993
0.039397158 0.009156471 -0.015878446 -0.04685486 -0.019418651 -0.05959858 -0.04841331 -0.01488407
00000000: e06a 15bc 0d19 1bbb 4ff8 9abb 3b22 87bc
00000010: 804e bcbb e1ad 0cbc 8525 0ebd 5502 31bc
00000020: 18ed 4fbc 4fb9 1e3c 0cef 82bc 5222 c8bc
00000030: 9669 b73b 0a77 b73b f1cb 65ba dccc bd3b
00000040: 72f8 13bb bda1 d9bc 9020 42bb 900a 12bc
00000050: 7dc9 a0bc af55 74bc 9018 c3bb 3266 60bc
00000060: 62de 29bc f03c a2ba a944 28bc 02c0 863c
00000070: bdc6 aa3b 649d 74bc e550 d9bc c805 e2ba
00000080: c9d9 90bc b304 36bd 2e68 2ebc dfbf 043c
00000090: c400 3c3d 6022 063d ed58 5e3c 540d 48bc
000000a0: 8ac0 7ebc cdb2 debb 27b8 c0bb d8cd fc3b
000000b0: 463b 00bc 5ef0 193c f523 403b cf6f 4d3c
000000c0: ead9 bdba 011b 373b c3f9 cbbb 18cf 983b
000000d0: 0641 abbc 5ba4 7cbc 9140 7cbc d099 b1bc
000000e0: b991 a93b c8c8 a33c 71a7 c1bc 7610 14bc
000000f0: f22a 60bc 3990 05bd df16 09bc 364d 9d3c
00000100: 5058 713c 65de f6bc b175 a4bc 5627 15bd
00000110: a2f9 35bd 4a46 5fbc 9c05 1dbc 45a3 63bb
00000120: 1874 0c3a f0f9 44bc 9fe7 6b3c 1ac5 b53c
00000130: 4c96 0b3d a528 173c 4267 1ebc d972 e53b
00000140: 2d78 363c ad06 4f3c 6c63 9cbc 7682 41bc
00000150: 5ae0 dc39 7b98 46bc c3d9 5d3c 1851 cabb
00000160: e3a9 0bbd 9607 0bbd 9067 3fbc c732 d63c
00000170: 2b56 05bd 214f 49bd d7a9 3a3c e66e 273c
00000180: 5a2a 8b3a db43 a1b9 0c7d 09bb 27fa 0e3c
00000190: 2d11 07bc e188 54bc fbcc 95bc 2c03 47b8
000001a0: af7d 38bb 97ee 43bc 694f 96ba aec8 cf3c
000001b0: bd6b 0fbc 047f 5dbc 4513 66bb 98e8 bdbb
000001c0: 61d7 f83b 1e2a 90bc 488d 903c a794 ab3c
000001d0: 4590 07bd 4a21 e7bc 8291 083c 0ad1 313d
000001e0: d8b4 88bc 547f bcbc 2f1f f2bb a380 0d3d
000001f0: 6227 d73b 380f bcbc eccd 06bd fdd7 0cbc
00000200: 7a6d 9dbc adcc e13c b8b6 92bb 793c b43c
00000210: b846 bcbb e6b5 e3b9 d6bc f63b 7521 b8bc
00000220: 82b5 fdba f9cd 523c 5f58 453b e54b 263c
00000230: 4a1a 85bc 619e 45bc 05bf b0bc 1f99 8aba
00000240: b7e4 823c 280e 02bd 12a2 2abc 2e6b 783b
00000250: 693e 02bb 9f96 70bb 4c9c e43c 435a e43b
00000260: 1037 033d 2c10 623c 46ff 303c 0659 81bb
00000270: cb3b f03c 2e6c 663d 5c96 763d 7c85 10ba
00000280: 8268 033d f5f2 393d 7354 fa3c f462 49bc
00000290: d625 e13b d236 143c da5c 8abb c3e7 73bc
000002a0: 332f 31bc 350f 3cbc 36f2 bdbc f0da 2bbc
000002b0: d1b5 6f3c 6edb 873c d98c 44bd 9aa1 3ebc
000002c0: f4bf e8ba a552 2ebc 4d66 7a3c 2443 0e3d
000002d0: f90f aa3c c3a0 883c 5354 8f3c e85c a23c
000002e0: 0f0a 27bc d38b ccbc 7aae a6bb 9f9a 00bd
000002f0: 3e2c 36bc ecd1 0dbd dab3 05bd 7399 b73c
00000300: c538 b13c d321 ff3c 63a5 e33b fcc2 b9bc
00000310: e84a 0cbc 5e1a d7bc 734f e53b 3a89 0dbd
00000320: d76b 98bc 5003 71b7 f9eb 88b9 71a2 8ebc
00000330: 2797 34bc 4810 0bbd da46 4d3c 32a4 373d
00000340: ab0e 9c3c 50d2 9cbb 90c2 5c3c b132 90bb
00000350: 8b94 2ebd 935a 03bd 82f2 cdbc 7265 e5bc
00000360: 6b6e afbb 6165 98bc 94ce 48bd 6fd0 2bbd
00000370: 7d02 bcbc e89f 113d 5538 263d 97c3 3dbd
00000380: 931d 4ebd 4ccc 00bd f3f8 3bbd 6cdc b6bc
00000390: 0ce6 f1bb dcfa 6fbc bba9 2fbc a4cb e13c
000003a0: 3324 08bb fe89 34bd a6e7 a63c 2c4a 033d
000003b0: 6e7c 88bc 5464 09bd 08f6 dbbc ce18 4f3c
000003c0: cc3d 1a3d a0c0 edbc e4dc 823d a681 5a3d
000003d0: f808 693d 7483 6f3d acbb 563d f59a ac3d
000003e0: ea5e 213d 0605 163c 8413 82bc e2ea 3fbd
000003f0: dd13 9fbc a41d 74bd 094d 46bd 50dc 73bc

fc1.bias f4 [4]
0.038741145 0.15906437 0.13658291 0.08303736
00000000: 09af 1e3d c5e1 223e 64dc 0b3e 7e0f aa3d

fc2.weight f4 [2, 4]
-0.28016186 -0.3746036 -0.4132093 -0.3058652 -0.28665707 0.44512716 0.18305062 -0.0008152944
00000000: 6071 8fbe 0bcc bfbe 2b90 d3be 5d9a 9cbe
00000010: b7c4 92be b5e7 e33e 9f71 3b3e 7bb9 55ba

fc2.bias f4 [2]
-0.3955406 0.21103625
00000000: 4c84 cabe e319 583e

qnn.weight f4 [4]
0.02554546 -0.64279443 -1.1658676 1.2563337
00000000: b644 d13c 2d8e 24bf 263b 95bf 8bcf a03f

qnn._weights f4 [4]
0.02554546 -0.64279443 -1.1658676 1.2563337
00000000: b644 d13c 2d8e 24bf 263b 95bf 8bcf a03f
