models/classification/2qubits/oasis-2_3-plane_2qubits.pt (torch, 59109 bytes, 10 tensors)

conv1.weight f4 [2, 1, 5, 5]
0.015948286 0.18232687 0.057792384 0.15026039 -0.18769644 -0.037758093 0.08840968 -0.08909956
0.09989133 -0.060870446 -0.07134422 -0.02816624 0.026948417 0.12074506 -0.15751934 0.122465186
0.18374409 0.21317703 0.07278636 0.11755577 -0.091724664 -0.031161759 0.058879238 0.17805082
-0.10187161 -0.11387916 0.17850743 -0.00060543424 0.0054019154 0.16834839 -0.11981646 -0.17018843
0.19316423 0.014695419 -0.15222575 -0.079878494 0.20726061 0.22294177 -0.05686757 -0.09216771
0.05028084 0.14999461 0.14664948 -0.19711964 0.10108624 0.041085303 0.1251056 0.029545488
-0.24079622 -0.18183547
00000000: fba5 823c e5b3 3a3e b5b7 6c3d dcdd 193e
00000010: 7f33 40be 3ba8 1abd 2210 b53d d579 b6bd
00000020: d393 cc3d 4a53 79bd eb1c 92bd e3bc e6bc
00000030: edc2 dc3c 3049 f73d c04c 21be 07cf fa3d
00000040: 6927 3c3e 144b 5a3e 0411 953d 14c1 f03d
00000050: 24da bbbd f246 ffbc 5b2b 713d f452 363e
00000060: 10a2 d0bd 7a39 e9bd a7ca 363e 01b6 1eba
00000070: 8d02 b13b 8563 2c3e 5562 f5bd e045 2ebe
00000080: d8cc 453e 0ec5 703c 11e1 1bbe 5697 a3bd
00000090: 203c 543e d94a 643e f8ed 68bd 6dc2 bcbd
000000a0: 48f3 4d3d 3098 193e 482b 163e bbd9 49be
000000b0: 4d06 cf3d 1049 283d af1b 003e 6109 f23c
000000c0: 4993 76be 1433 3abe

conv1.bias f4 [2]
-0.026910488 -0.11141445
00000000: 6273 dcbc 422d e4bd

conv2.weight f4 [4, 2, 5, 5]
-0.0004362762 -0.013375595 -0.13705869 0.0782966 -0.098749384 0.0027767867 -0.0196129 -0.032458723
0.12333487 0.042405143 -0.11248951 0.010216773 -0.016326994 -0.029326707 0.0052693337 0.008420423
-0.028917104 0.03948137 -0.12095691 -0.045036137 -0.13740285 0.011759281 -0.11621402 0.025064245
-0.12009693 0.029370695 0.0045445263 -0.04861228 -0.076881655 -0.09184033 0.13881452 0.12649657
-0.013177097 -0.041842125 0.11286466 -0.08921726 0.033599988 0.013865352 0.10915075 0.030464277
0.06523849 0.015008122 -0.072896905 -0.11442149 0.09021954 -0.02535674 -0.05100184 0.092093855
0.044592917 0.08070323 -0.06861668 0.06942033 0.131863 0.0877796 -0.15165713 0.12282332
0.055745695 -0.1187122 0.033852737 -0.17831036 0.006713351 -0.04792416 -0.029940793 0.02187577
0.033229664 0.091018036 0.020132532 0.07999753 -0.04184355 -0.118542105 -0.0638822 0.11701538
0.10349752 0.06319807 -0.08348877 0.08545835 0.11690982 -0.042022955 0.063478015 0.08027703
0.11580366 -0.037916727 -0.13424313 0.18492264 -0.16896717 -0.04564502 0.00065493095 -0.009150762
0.15739562 -0.23864205 -0.25235334 -0.13216355 0.13225216 -0.0637344 0.08763646 -0.054150395
0.035890996 -0.038711634 0.19258003 0.11786295 0.046108223 0.043390036 0.057764947 -0.0900915
-0.05343025 -0.0075179874 -0.0060572033 0.07496412 -0.11267515 0.08579294 -0.087915845 0.06299986
0.1484356 0.061289202 -0.00055690034 -0.05991554 0.029446919 0.17582181 -0.04023971 -0.003030792
-0.019950699 -0.11474381 -0.0016604261 0.11049406 0.13811608 -0.06260262 -0.073563755 -0.123344325
-0.07028162 -0.20838173 -0.13202353 -0.16900964 0.022631153 0.0021798708 -0.08161691 -0.18452683
-0.12207257 -0.094050616 0.07002417 0.0604857 0.10324508 -0.027433148 0.057693046 0.1146845
0.1727365 -0.07020511 -0.0691941 -0.010093472 0.14545327 -0.05753699 -0.11455851 0.025487706
0.009167077 0.07833726 0.12653832 0.044537738 -0.11792917 -0.06036261 0.040881798 0.1409556
0.114887856 -0.10381175 -0.057350352 0.14016432 0.07850571 -0.005961661 0.10776547 -0.12412037
0.04964222 -0.113078706 -0.14028928 -0.16016628 -0.06449374 -0.1649682 -0.14640877 0.08004501
0.03796387 -0.18290801 -0.17150883 0.21150796 0.12146271 -0.07913417 -0.13586032 -0.04679087
-0.09609066 0.28110915 0.010143884 -0.21324682 0.09897334 -0.2088316 0.1016237 -0.053504933
0.04295874 0.02580426 -0.13697577 0.011722104 -0.10712794 0.118180394 -0.06756332 -0.00039350864
00000000: 00bc e4b9 5025 5bbc 1d59 0cbe f859 a03d
00000010: 1e3d cabd c0fa 353b 3cab a0bc 70f3 04bd
00000020: fe96 fc3d 04b1 2d3d e660 e6bd 4064 273c
00000030: 30c0 85bc 903e f0bc 60aa ac3b d0f5 093c
00000040: 90e3 ecbc 38b7 213d 42b8 f7bd d077 38bd
00000050: 55b3 0cbe 00aa 403c 9e01 eebd 8853 cd3c
00000060: 61f5 f5bd d09a f03c 40ea 943b ac1d 47bd
00000070: 2174 9dbd c816 bcbd 6525 0e3e 5188 013e
00000080: c0e4 57bc a662 2bbd 9625 e73d 8ab7 b6bd
00000090: 24a0 093d 802b 633c 6e8a df3d 3890 f93c
000000a0: c29b 853d a0e4 753c f94a 95bd d055 eabd
000000b0: 06c5 b83d f0b8 cfbc 4ee7 50bd b49b bc3d
000000c0: 10a7 363d bc47 a53d e786 8cbd 3f2c 8e3d
000000d0: 1807 073e cac5 b33d 024c 1bbe cb8a fb3d
000000e0: 9955 643d 621f f3bd 2ba9 0a3d fe96 36be
000000f0: abfb db3b 204c 44bd 6546 f5bc d134 b33c
00000100: d41b 083d aa67 ba3d fbec a43c bfd5 a33d
00000110: 2464 2bbd 34c6 f2bd acd4 82bd c2a5 ef3d
00000120: 82f6 d33d fd6d 813d 29fc aabd ca04 af3d
00000130: 6a6e ef3d 4320 2cbd c300 823d 4968 a43d
00000140: 782a ed3d 924e 1bbd 0877 09be 5c5c 3d3e
00000150: bb05 2dbe 46f6 3abd acaf 2b3a 14ed 15bc
00000160: 512c 213e 955e 74be 7534 81be e255 07be
00000170: 1c6d 073e 2e87 82bd bf7a b33d cecc 5dbd
00000180: 7002 133d 1790 1ebd b333 453e 2162 f13d
00000190: fadb 3c3d c0b9 313d f09a 6c3d e481 b8bd
000001a0: aed9 5abd 7359 f6bb 817b c6bb ca86 993d
000001b0: 3bc2 e6bd 35b4 af3d 390d b4bd 1206 813d
000001c0: 80ff 173e 630a 7b3d f3fc 11ba ff69 75bd
000001d0: aa3a f13c a20a 343e 65d2 24bd 41a0 46bb
000001e0: a66f a3bc cdfe eabd a8a2 d9ba b64a e23d
000001f0: 4d6e 0d3e cd35 80bd 98a8 96bd f39b fcbd
00000200: cfef 8fbd 0562 55be 2d31 07be dd10 2dbe
00000210: f864 b93c 2adc 0e3b c426 a7bd 9af4 3cbe
00000220: 2f01 fabd 9c9d c0bd d568 8f3d dabf 773d
00000230: 2872 d33d 7bbb e0bc 8b4f 6c3d b5df ea3d
00000240: d6e1 303e b2c7 8fbd a3b5 8dbd 175f 25bc
00000250: b4f1 143e e8ab 6bbd a79d eabd 98cb d03c
00000260: 8231 163c 496f a03d 4393 013e 346d 363d
00000270: d984 f1bd c93e 77bd ac73 273d aa56 103e
00000280: 534a eb3d 419b d4bd 34e8 6abd 3c87 0f3e
00000290: 9ac7 a03d 0a5a c3bb 25b4 dc3d d232 febd
000002a0: a455 4b3d cf95 e7bd fea7 0fbe a102 24be
000002b0: 4b15 84bd 6ced 28be 2eec 15be a3ee a33d
000002c0: 0180 1b3d 3d4c 3bbe 03a0 2fbe 8b95 583e
000002d0: 71c1 f83d 1911 a2bd f81e 0bbe c9a7 3fbd
000002e0: 2ecb c4bd 8aed 8f3e 8932 263c 605d 5abe
000002f0: 89b2 ca3d f3d7 55be 1620 d03d fd27 5bbd
00000300: 81f5 2f3d 7563 d33c 6043 0cbe 110e 403c
00000310: e565 dbbd 9008 f23d a35e 8abd d64f ceb9

conv2.bias f4 [4]
-0.09559192 -0.046127185 -0.088873975 0.043826487
00000000: b2c5 c3bd dcef 3cbd 8f03 b6bd 6783 333d

fc1.weight f4 [4, 3364]
-0.017143395 -0.013450454 -0.007855294 -0.01580564 0.004018223 0.009104475 -0.013846973 0.009767048
-0.009359324 0.012663214 0.015909305 0.014758682 0.011795688 -0.00085864775 -0.0021419097 -0.016945826
0.001329368 0.012465857 0.012449468 0.0098452065 -0.016065752 -0.012738 0.006757986 0.0029413868
-0.007853161 0.0023801867 -0.012832313 0.013566203 0.0042473096 0.014351955 0.010362433 0.007440146
0.013324339 0.014539538 -0.013665875 -0.0056943465 0.009340653 -0.014906914 -0.009005913 -0.013338605
0.00062991306 -0.010535181 -0.0076211486 0.0057059526 -0.013881437 0.017173583 0.016827209 -0.0055580772
0.012341356 0.003991304 0.0013792124 -0.012094693 0.006289296 0.008674471 0.015523439 0.017068
-0.013902444 -0.00727872 -0.0154992035 -0.016088791 0.0036877282 -0.0013575163 0.015568187 -0.0138044935
0.006291136 0.0059546307 -0.002004329 0.0021160562 0.0046505574 -0.0076596774 -0.016608592 -0.0102466345
-0.015945446 -0.009803679 0.009247625 0.0113685075 0.0082629435 -0.002829535 0.014861191 0.009418722
0.0073448084 0.015449716 0.0053589456 -0.012175192 -0.0098530855 -0.016328763 0.01704044 -0.008149472
-0.0059907315 0.013206644 0.006364567 -0.0068867514 -0.001377061 0.0014088042 0.0141772125 -0.004648704
-0.00556863 0.01027843 0.008886982 0.005200768 -0.005154562 -0.010475533 -0.001277322 -0.0025562113
0.007065717 0.006948268 -0.013481338 0.011647753 0.016472055 0.017171832 0.016891764 -0.013012625
0.017008627 0.00032085367 -0.014139163 -0.0039350744 0.015134169 -0.011791924 -0.015671842 0.002506569
-0.0003598798 0.0072576944 -0.014751809 0.008606426 -0.013599401 0.009988613 0.011656843 -0.012437115
0.0007034652 0.006908361 -0.011836091 0.0033384599 -0.013758346 0.00066280365 -0.0025574071 0.010146972
0.006982399 0.003559053 0.0047164243 -0.0068506375 0.014848815 0.0035181418 0.008848913 0.0129686855
0.0047340207 0.011056485 0.0033248346 -0.0051836716 -0.012662793 0.0041571483 -0.0006198287 0.010451829
-0.016151417 0.0072248634 -0.01242601 0.012304811 -0.011280744 0.0050896537 0.005379658 -0.0024343794
-0.009223716 -0.015105624 0.01423624 -0.00811615 -0.00094085187 -0.014436434 0.0061629787 -0.014847416
0.016266635 0.015285956 0.010206118 -0.014628797 0.011415096 -0.011389628 0.011016736 -0.012593717
0.00010727346 0.0059979837 0.007614052 -0.015857141 0.012527034 -0.016728975 -0.013231212 -0.009647384
0.00090299174 -0.015974097 0.0025024675 0.00666089 -0.0036903294 -0.0048290035 0.00562704 0.009585846
-0.013363772 -0.010666512 -0.011012079 -0.0022574235 0.01402198 -0.0112466775 -0.012387598 0.014381999
-0.0044999653 0.015903668 0.004916845 0.0022099558 -0.0035043526 0.01114719 0.009721043 0.0135698095
-0.008178624 0.0026216041 0.016489426 0.016583951 0.006597547 -0.013949248 0.001064634 -0.011933999
0.012836859 -0.009789954 -0.014270592 -0.0048531154 0.007259166 0.010974493 0.012237325 -0.004906239
0.007676523 -0.006153279 0.012009725 0.0042553954 0.014359577 -0.009335968 0.009620801 -0.00031419657
0.014591964 0.014851337 0.0063941088 0.008705528 0.0143395495 -0.016246159 0.0053729303 0.0080857035
0.0042254943 0.003461415 -0.01632997 -0.004092062 0.0065520722 0.008270437 0.010810541 -0.0009899493
0.016445605 0.016166518 0.0071896054 -0.007945336 0.013811661 -0.010513786 -0.011834165 0.008674379
00000000: 4e70 8cbc 4b5f 5cbc 7eb3 00bc d47a 81bc
00000010: 4cab 833b f02a 153c 6ade 62bc f805 203c
00000020: da57 19bc 5e79 4f3c 3b54 823c 66ce 713c
00000030: b442 413c e016 61ba 485f 0cbb f9d1 8abc
00000040: 303e ae3a 983d 4c3c daf8 4b3c ca4d 213c
00000050: 539c 83bc 0bb3 50bc 1872 dd3b 48c4 403b
00000060: 8baa 00bc e8fc 1b3b 9f3e 52bc c844 5e3c
00000070: 042d 8b3b 7624 6b3c 32c7 293c 78cc f33b
00000080: 544e 5a3c 3e37 6e3c d6e6 5fbc a497 babb
00000090: 8a09 193c 213c 74bc 898d 13bc 2a8a 5abc
000000a0: c020 253a c09b 2cbc d4ba f9bb 00f9 ba3b
000000b0: f76e 63bc 9daf 8c3c 37d9 893c 8820 b6bb
000000c0: 6633 4a3c 7cc9 823b b0c6 b43a d228 46bc
000000d0: 7016 ce3b 5e1f 0e3c 0656 7e3c 31d2 8b3c
000000e0: 14c7 63bc 5482 eebb 5ff0 7dbc a4cc 83bc
000000f0: d0ad 713b b0ee b1ba b611 7f3c 3e2c 62bc
00000100: e025 ce3b 101f c33b 105b 03bb 88ad 0a3b
00000110: b463 983b 08fe fabb be0e 88bc 80e1 27bc
00000120: 06a0 82bc 9c9f 20bc 5a83 173c fa42 3a3c
00000130: 4c61 073c b86f 39bb 5a7c 733c fc50 1a3c
00000140: b8ac f03b ce20 7d3c 189a af3b 757a 47bc
00000150: d66e 21bc e6c3 85bc 6598 8b3c 5d85 05bc
00000160: e64d c4bb ae60 583c dc8d d03b 42aa e1bb
00000170: 807e b4ba a0a7 b83a 8a47 683c 2854 98bb
00000180: 0e79 b6bb dc66 283c b49a 113c 346b aa3b
00000190: 9ae7 a8bb 92a1 2bbc d06b a7ba 1c86 27bb
000001a0: 8887 e73b 4cae e33b d4e0 5cbc 38d6 3e3c
000001b0: 67f0 863c f1ab 8c3c 9960 8a3c e832 55bc
000001c0: ad55 8b3c 4038 a839 f3a7 67bc ccf1 80bb
000001d0: 4ef5 773c ea32 41bc 3c62 80bc 4045 243b
000001e0: 40ae bcb9 f4d1 ed3b 92b1 71bc f801 0d3c
000001f0: 06d0 5ebc 48a7 233c 58fc 3e3c 0bc5 4bbc
00000200: c068 383a 885f e23b 2aec 41bc 10ca 5a3b
00000210: b06a 61bc 00c0 2d3a 2c9a 27bb 7c3f 263c
00000220: 9ccc e43b 003f 693b 3c8c 9a3b 507b e0bb
00000230: 7248 733c a090 663b 08fb 103c 9c7a 543c
00000240: d81f 9b3b 4226 353c 78e5 593b cadb a9bb
00000250: 9a77 4fbc b038 883b 007c 22ba 263e 2b3c
00000260: fa4f 84bc 8cbe ec3b 7796 4bbc 1e9a 493c
00000270: dfd2 38bc 1cc7 a63b d847 b03b 1c8a 1fbb
00000280: 121f 17bc 947d 77bc 1e3f 693c 9af9 04bc
00000290: 80a3 76ba cb86 6cbc d0f2 c93b 9442 73bc
000002a0: 9b41 853c f271 7a3c 9037 273c 9fad 6fbc
000002b0: 6206 3b3c 909b 3abc 8a7f 343c e155 4ebc
000002c0: 00f8 e038 bc8a c43b 4c7f f93b d6e6 81bc
000002d0: 303e 4d3c 340b 89bc bac7 58bc 1010 1ebc
000002e0: c0b6 6c3a 1cdc 82bc 7000 243b 9843 da3b
000002f0: 74d9 71bb 9e3c 9ebb 0863 b83b f40d 1d3c
00000300: b9f3 5abc 98c2 2ebc 026c 34bc 48f1 13bb
00000310: 72bc 653c fc43 38bc 5af5 4abc 7aa2 6b3c
00000320: 7274 93bb 6948 823c 7c1d a13b e8d4 103b
00000330: 48a9 65bb b4a2 363c 0245 1f3c e853 5e3c
00000340: a3ff 05bc 38cf 2b3b d514 873c 11db 873c
00000350: 3c30 d83b 638b 64bc 308b 8b3a d286 43bc
00000360: b051 523c 0b66 20bc 33cf 69bc e206 9fbb
00000370: 4cde ed3b 5cce 333c 107f 483c 84c4 a0bb
00000380: 588b fb3b 72a1 c9bb 70c4 443c d870 8b3b
00000390: 6e44 6b3c e3f5 18bc 90a0 1d3c c0ba a4b9
000003a0: 2213 6f3c 0653 733c ac85 d13b a2a1 0e3c
000003b0: 6ef0 6a3c aa16 85bc 680f b03b e679 043c
000003c0: 0476 8a3b e8d8 623b 6ec6 85bc b416 86bb
000003d0: c4b2 d63b ba80 073c b21e 313c 30c1 81ba
000003e0: efb8 863c a56f 843c c896 eb3b 282d 02bc
000003f0: 4e4a 623c 0442 2cbc 16e4 41bc fc1e 0e3c

fc1.bias f4 [4]
0.47611955 -0.008414996 -0.024592001 0.124046244
00000000: f1c5 f33e 0ddf 09bc 2a75 c9bc f50b fe3d

fc2.weight f4 [2, 4]
0.5127223 -0.40306485 -0.16036358 -0.5493864 -0.4825228 0.0010313647 -0.25011528 0.049404487
00000000: c541 033f 845e cebe 5a36 24be 96a4 0cbf
00000010: 3a0d f7be db2e 873a 1c0f 80be 5c5c 4a3d

fc2.bias f4 [2]
0.23476961 -0.20238711
00000000: 7267 703e 913e 4fbe

qnn.weight f4 [4]
0.08935047 -0.82039905 -0.55562484 -0.702049
00000000: 61fd b63d ac05 52bf 6e3d 0ebf 7cb9 33bf

qnn._weights f4 [4]
0.08935047 -0.82039905 -0.55562484 -0.702049
00000000: 61fd b63d ac05 52bf 6e3d 0ebf 7cb9 33bf
