models/classification/2qubits/oasis-2_axial-ss_2qubits.pt (torch, 113780 bytes, 10 tensors)

conv1.weight f4 [2, 1, 5, 5]
0.015693627 -0.06262194 0.09296849 0.1340975 -0.0042336066 0.024096327 0.10320713 -0.042356137
0.1787182 0.2284474 -0.13866241 0.05157088 0.17138873 0.16141061 0.14409733 0.0754442
-0.2370649 -0.15620203 -0.18215823 -0.20307577 0.13667654 -0.24652115 -0.17678985 -0.0030289202
-0.23894966 -0.2111735 0.118467435 -0.08785174 0.053775165 0.20448105 0.007426378 0.1614588
0.09006592 0.21143815 -0.15222839 0.022396041 0.15613897 0.19422552 0.16846593 0.09938469
-0.07708652 -0.16936378 0.012652817 -0.1311514 -0.13188389 -0.16379873 0.014962246 0.09482874
-0.012151153 0.035038207
00000000: ec8f 803c ef3f 80bd 4466 be3d db50 093e
00000010: 11ba 8abb a965 c53c 435e d33d a17d 2dbd
00000020: e701 373e 1dee 693e 85fd 0dbe fd3b 533d
00000030: 8780 2f3e d348 253e 408e 133e 7d82 9a3d
00000040: 24c1 72be 6df3 1fbe b087 3abe 18f3 4fbe
00000050: eff4 0b3e 0a70 7cbe 6608 35be d980 46bb
00000060: 38af 74be de3d 58be 0e9f f23d 9deb b3bd
00000070: 5943 5c3d 7b63 513e f958 f33b 7555 253e
00000080: 7b74 b83d 3e83 583e c2e1 1bbe e777 b73c
00000090: e5e2 1f3e 0ee3 463e 5582 2c3e 338a cb3d
000000a0: 8adf 9dbd b36d 2dbe c34d 4f3c 8d4c 06be
000000b0: 920c 07be dbba 27be 3524 753c 9235 c23d
000000c0: a115 47bc 3984 0f3d

conv1.bias f4 [2]
0.12291223 -0.09513644
00000000: 68b9 fb3d e5d6 c2bd

conv2.weight f4 [8, 2, 5, 5]
-0.06359598 -0.056534182 -0.12799294 0.05352722 -0.058283627 -0.061679807 -0.11306436 0.08180696
-0.09283464 0.038736794 0.10217951 0.16378833 -0.037687413 0.03744991 -0.113271125 -0.11649785
0.17230994 0.034281544 0.17817575 0.18569587 -0.11066234 -0.1443898 -0.13828528 0.11326277
-0.097176366 0.015142816 0.05125645 -0.15281403 -0.0475339 0.031906486 -0.12684335 -0.071667865
0.08747015 -0.14841138 -0.1791183 0.105516285 0.014990133 0.15234247 0.1359828 -0.10320992
0.13647781 -0.12084739 -0.111513555 -0.078851864 0.013516378 -0.024415912 -0.1394934 0.013218125
-0.15499768 0.08326876 -0.12955244 0.0797843 -0.0774286 0.089905664 -0.12721269 -0.039803006
-0.07025881 0.047217008 -0.031301104 -0.13962506 -0.004158026 -0.06527666 0.022889398 0.13256595
-0.049559098 0.15457317 0.11581949 -0.030427074 0.1029122 -0.01660058 0.12900002 0.05866273
0.09459442 -0.06424292 0.113305144 -0.14768079 -0.00017215838 0.036628313 -0.026298137 -0.07468992
0.021115636 0.073306836 0.06582681 -0.16637994 -0.06259143 0.04748182 0.052162778 -0.12777999
-0.095848024 0.062654406 0.13032952 0.0372793 -0.14109741 -0.078056976 -0.11909565 0.13790345
0.030575203 0.039978106 -0.023747528 0.03330293 -0.1372097 -0.022111543 -0.044922445 0.06667209
0.14538294 0.124919236 0.056196332 -0.06639178 0.14153412 0.10630706 0.058112014 0.10571486
-0.122994624 0.09593172 -0.06816525 -0.10755285 -0.07669033 -0.06265355 -0.07546477 0.1129454
-0.10199278 0.05294777 -0.10008241 -0.0792304 -0.11704759 -0.16779067 -0.02541459 -0.008185111
-0.0032394931 0.0813202 0.12657213 -0.017763432 0.123144425 -0.009386437 0.10700402 0.067501806
-0.06978447 0.029894976 0.11013857 -0.1430166 -0.14272596 -0.068180755 -0.09781984 -0.053373806
-0.13105176 -0.141289 0.045728542 -0.006985451 0.02689275 -0.1324594 -0.12940936 -0.13344121
0.004536288 -0.040134795 -0.069259435 -0.013324597 0.06630711 -0.02359957 0.119389914 -0.115043886
-0.1436558 -0.017134584 0.14253207 0.072787166 -0.027312392 -0.15591046 0.07364283 0.13131382
0.025598077 0.13534337 -0.038189843 0.022753758 0.07176495 -0.14162004 -0.12426209 -0.098376945
-0.05676553 0.09697918 -0.06445187 0.12040499 -0.022103855 -0.05869032 -0.10361831 0.1373666
0.15722305 -0.0039256797 0.050412018 -0.05453717 -0.09218336 -0.03624265 -0.047944646 0.014310538
-0.132763 0.0027143718 0.030135669 0.11673075 -0.03332822 0.023086816 -0.10326478 -0.03359018
-0.038202997 0.12806255 -0.14211634 0.07586311 0.04030151 0.09122241 -0.026493143 0.006348217
-0.047742326 -0.077085 0.11640181 0.047352236 -0.10071456 -0.102162056 0.01288013 -0.11554381
0.111458965 0.14872682 0.09633738 0.14693902 -0.020250319 -0.018698392 -0.023049584 0.053224884
-0.019405415 0.032760836 -0.10125921 -0.11951672 -0.01675033 -0.049581602 0.15243772 0.018818814
0.07654536 0.009237564 -0.13813984 0.11255169 -0.01742062 -0.1093219 -0.103279695 -0.053875092
-0.031145312 0.0907293 -0.042569324 -0.019328935 0.1745653 -0.019128675 -0.18875375 -0.0022020028
0.03997753 -0.04873142 -0.07083343 0.031404525 -0.06247571 -0.090693 0.13359018 0.066020064
00000000: 9c3e 82bd 6390 67bd 9510 03be 5c3f 5b3d
00000010: d0ba 6ebd f7a3 7cbd 4a8e e7bd 688a a73d
00000020: 1620 bebd 79aa 1e3d 7e43 d13d 21b8 273e
00000030: 1e5e 1abd 1465 193d b1fa e7bd 6d96 eebd
00000040: 0472 303e ce6a 0c3d b473 363e 0f27 3e3e
00000050: f0a2 e2bd ebda 13be a89a 0dbe 50f6 e73d
00000060: 6704 c7bd 9319 783c 49f2 513d 487b 1cbe
00000070: e8b2 42bd 60b0 023d 39e3 01be 9ac6 92bd
00000080: 8d23 b33d 27f9 17be ca6a 37be ec18 d83d
00000090: 2d99 753c aaff 1b3e 133f 0b3e b95f d3bd
000000a0: d7c0 0b3e d67e f7bd 3861 e4bd 167d a1bd
000000b0: cc73 5d3c e103 c8bc 5cd7 0ebe d690 583c
000000c0: b6b7 1ebe d088 aa3d 65a9 04be f365 a33d
000000d0: e392 9ebd 7620 b83d 0b44 02be 7a08 23bd
000000e0: dae3 8fbd 9f66 413d 9635 00bd dff9 0ebe
000000f0: 0d40 88bb c5af 85bd 8c82 bb3c 5ebf 073e
00000100: 7bfe 4abd 6e48 1e3e c532 ed3d 3342 f9bc
00000110: a2c3 d23d f1fd 87bc 9518 043e 5548 703d
00000120: b8ba c13d cb91 83bd 870c e83d a239 17be
00000130: 6a85 34b9 9207 163d 316f d7bc 07f7 98bd
00000140: b3fa ac3c e521 963d 35d0 863d 815f 2abe
00000150: f02f 80bd 4c7c 423d a3a8 553d c2d8 02be
00000160: f84b c4bd f450 803d 1a75 053e 2eb2 183d
00000170: d77b 10be 56dc 9fbd 6ce8 f3bd 9036 0d3e
00000180: d978 fa3c 15c0 233d 2d8a c2bc a768 083d
00000190: b380 0cbe 4423 b5bc 9900 38bd 608b 883d
000001a0: 44df 143e a8d5 ff3d 202e 663d 6af8 87bd
000001b0: 52ee 103e 84b7 d93d dd06 6e3d 0881 d83d
000001c0: 9be4 fbbd da77 c43d 399a 8bbd ab44 dcbd
000001d0: d20f 9dbd 8150 80bd 468d 9abd eb4f e73d
000001e0: 97e1 d0bd c3df 583d 02f8 ccbd 8c43 a2bd
000001f0: a6b6 efbd 51d1 2bbe 4232 d0bc d81a 06bc
00000200: ad4d 54bb 348b a63d 209c 013e 9e84 91bc
00000210: 2533 fc3d 92c9 19bc ec24 db3d 633e 8a3d
00000220: 29eb 8ebd 4fe6 f43c 5590 e13d f272 12be
00000230: c126 12be 5aa2 8bbd c555 c8bd 7e9e 5abd
00000240: 6f32 06be 10ae 10be da4d 3b3d 36e6 e4bb
00000250: 2f4e dc3c 70a3 07be e383 04be d0a4 08be
00000260: 24a5 943b 6264 24bd e4d7 8dbd 694f 5abc
00000270: 06cc 873d e353 c1bc b382 f43d 219c ebbd
00000280: 821a 13be d45d 8cbc edf3 113e 7011 953d
00000290: 3dbe dfbc fea6 1fbe 0dd2 963d 2177 063e
000002a0: 0fb3 d13c 7497 0a3e f46c 1cbd 1766 ba3c
000002b0: 81f9 923d d804 11be 1f7d febd da79 c9bd
000002c0: f982 68bd 059d c63d 58ff 83bd e496 f63d
000002d0: 2513 b5bc 4365 70bd d635 d4bd d4a9 0c3e
000002e0: 14ff 203e fda2 80bb d57c 4e3d 5e62 5fbd
000002f0: a1ca bcbd 2c73 14bd 9b61 44bd bf76 6a3c
00000300: 06f3 07be 9ae3 313b 14df f63c 8810 ef3d
00000310: 2c83 08bd 9020 bd3c 7c7c d3bd db95 09bd
00000320: bf7a 1cbd d422 033e f286 11be 1e5e 9b3d
00000330: 3213 253d d1d2 ba3d 2608 d9bc b404 d03b
00000340: 758d 43bd bede 9dbd 1264 ee3d 6bf4 413d
00000350: 6f43 cebd 573a d1bd 2e07 533c 3ca2 ecbd
00000360: 9944 e43d d84b 183e 884c c53d 2f77 163e
00000370: ffe3 a5bc 5f2d 99bc 7bd2 bcbc 5602 5a3d
00000380: 1bf8 9ebc 3a30 063d fd60 cfbd 2fc5 f4bd
00000390: fd37 89bc 1416 4bbd a218 1c3e ea29 9a3c
000003a0: d0c3 9c3d 2759 173c 8874 0dbe 8081 e63d
000003b0: b0b5 8ebc 29e4 dfbd 4e84 d3bd 21ac 5cbd
000003c0: 7424 ffbc 49d0 b93d 2c5d 2ebd b757 9ebc
000003d0: 3fc1 323e bdb3 9cbc aa48 41be 7a4f 10bb
000003e0: 7abf 233d 999a 47bd 1e11 91bd 08a2 003d
000003f0: 88e6 7fbd 40bd b9bd ddcb 083e 8735 873d

conv2.bias f4 [8]
0.013515649 -0.04583372 0.024714576 0.04124047 -0.049183864 -0.050814144 -0.050054822 -0.13607718
00000000: be70 5d3c 24bc 3bbd 3976 ca3c c4eb 283d
00000010: 0575 49bd 7e22 50bd 4906 4dbd d157 0bbe

fc1.weight f4 [4, 6728]
-0.021482997 -0.0021985185 -0.0220908 -0.022277167 -0.022419926 -0.017923893 -0.013633562 -0.0099357525
-0.0058168136 -0.0048250486 -0.0041199974 -0.015111778 -0.010749331 -0.0034919314 -0.019456988 -0.016650442
-0.009111984 -0.011909476 -0.0150185935 -0.0029650524 -0.010415383 -0.0020117646 -0.0028453765 -0.008486121
-0.012338038 -0.021980371 -0.019330384 -0.016856264 -0.008991055 -0.020408245 -0.0078114714 -0.0015818162
-0.015294307 -0.002446913 -0.020474803 -0.0024537402 -0.010965902 -0.010554569 -0.023248088 -0.0065833386
-0.023285234 -0.0045389337 -0.016658064 -0.0049769864 -0.016797641 -0.01988021 -0.022246046 -0.0064684553
-0.011854636 -0.019610092 -0.018235266 -0.015744038 -0.012380699 -0.015624082 -0.006990249 -0.015976971
-0.022590317 -0.010524057 -0.00952772 -0.008624161 -0.020149153 -0.015614682 -0.022684114 -0.020195426
-0.024018139 -0.011558374 -0.014981674 -0.010287076 -0.02075751 -0.0095357 -0.0074575194 -0.010694084
-0.008160718 0.023962952 0.030458875 0.0035139713 -0.0009081762 -0.010397978 -0.01562652 -0.012649085
-0.0046772687 -0.018229133 -0.01109079 -0.009070456 -0.0011509975 -0.012846181 -0.023139779 -0.0036513882
-0.006985535 -0.011385621 -0.0014894829 -0.01150041 -0.0026727344 -0.017548153 -0.004806149 -0.0056065517
0.024753788 0.042078596 0.02080743 0.0073814318 -0.004874766 -0.0022584184 0.003525993 0.032034904
0.06238092 0.05850874 0.021105148 0.008828881 0.0022887574 -0.009985756 -0.025733814 -0.018722543
-0.02393551 -0.0017707648 -0.023115788 -0.008937819 -0.012730939 -0.0083042225 -0.01326137 -0.016612394
-4.9850307e-05 -0.0033722243 0.013934684 0.010058467 0.008927587 0.009776194 0.0036105446 0.017431282
0.017077629 0.0008094701 -0.02117576 -0.022938555 -0.016132446 0.003152318 0.012711766 0.013163822
0.010932325 -0.015222602 0.011093609 0.019028978 -0.009549835 -0.0077096145 -0.0058662593 -0.023957232
-0.0076582995 -0.0063875234 -0.008468748 -0.013592499 -0.01407815 0.025301721 0.016837012 0.01044015
0.014747453 -0.0060471175 -0.026163481 0.012665742 0.046309162 0.045476407 0.0041170246 0.016528465
0.07339617 0.016219692 0.06520861 0.055828955 0.028904764 0.014114985 0.016536413 0.0046349866
-0.004675197 -0.010316252 -0.006968198 -0.0022638093 -0.009201215 -0.0074172583 -0.01968779 -0.021654772
0.007555083 -0.010622303 0.021355182 -0.0278146 0.0053543523 0.013155708 0.00053333817 0.016102867
0.031522065 0.035456225 0.028146192 0.006688171 -0.0067472174 0.027466526 0.0067990813 0.037624758
-0.0011317777 0.025902513 0.0036211372 -0.013654076 -0.01993629 0.016029289 -0.008544992 -0.026911069
-0.018539408 -0.01715163 -0.005293495 -0.0025233622 -0.008070864 -0.008517406 -0.017855776 -0.02243363
0.0077236467 -0.016688276 0.00653477 0.040751733 -0.0033194772 -0.0011906712 0.028460704 0.0014232097
-0.0070701465 -0.026841355 0.0055104326 -0.01694477 -0.00946358 0.029665945 -0.033446137 -0.010842489
0.00257415 -0.02983134 -0.006659164 0.03549668 -0.023787696 -0.026249636 -0.0007870427 -0.00022801122
-0.021469928 0.039763175 0.012586304 0.009330003 -0.0066148033 -0.003898721 -0.009921907 -0.010570609
0.012815434 -0.0022978017 0.023651257 -0.0027782107 -0.028650021 0.0023127738 -0.0014167384 -0.013166568
-0.023371875 0.045494847 0.0271088 0.055483926 0.009957083 0.030225044 -0.019645855 -0.024490273
00000000: 1cfd afbc 0515 10bb c4f7 b4bc 9b7e b6bc
00000010: fea9 b7bc 21d5 92bc 4e5f 5fbc 91c9 22bc
00000020: f89a bebb 711b 9ebb 0b01 87bb 6497 77bc
00000030: f61d 30bc e3d8 64bb 4364 9fbc 8266 88bc
00000040: 6e4a 15bc f61f 43bc 8c10 76bc 5351 42bb
00000050: 48a5 2abc cfd7 03bb 7f79 3abb 5f09 0bbc
00000060: 7b25 4abc 2e10 b4bc c15a 9ebc 2616 8abc
00000070: 384f 13bc 312f a7bc 5ff7 ffbb f254 cfba
00000080: f994 7abc 635c 20bb c6ba a7bc eece 20bb
00000090: 54aa 33bc 12ed 2cbc c672 bebc 0cb9 d7bb
000000a0: adc0 bebc 56bb 94bb 7e76 88bc fd15 a3bb
000000b0: 359b 89bc d2db a2bc 573d b6bc 56f5 d3bb
000000c0: f239 42bc 58a5 a0bc 2062 95bc a4f9 80bc
000000d0: 6ad8 4abc 26fc 7fbc 750e e5bb 23e2 82bc
000000e0: 540f b9bc 186d 2cbc 271a 1cbc 5a4c 0dbc
000000f0: d60f a5bc b9d4 7fbc 09d4 b9bc e170 a5bc
00000100: b0c1 c4bc 565f 3dbc b275 75bc 208b 28bc
00000110: a70b aabc a03b 1cbc 355e f4bb 3d36 2fbc
00000120: 88b4 05bc f44d c43c e484 f93c a84a 663b
00000130: ac12 6eba 485c 2abc 3003 80bc 1c3e 4fbc
00000140: c643 99bb 4355 95bc 25b6 35bc 409c 14bc
00000150: 11dd 96ba ca78 52bc a28f bdbc 214c 6fbb
00000160: eae6 e4bb c18a 3abc c13a c3ba 376c 3cbc
00000170: 0b29 2fbb 25c1 8fbc e67c 9dbb 2ab7 b7bb
00000180: 75c8 ca3c 9b5a 2c3d 5874 aa3c f0df f13b
00000190: 80bc 9fbb f901 14bb 5914 673b 0837 033d
000001a0: 2383 7f3d dca6 6f3d b4e4 ac3c 03a7 103c
000001b0: fafe 153b 4c9b 23bc b8cf d2bc 0560 99bc
000001c0: 6714 c4bc 0219 e8ba 525d bdbc ee6f 12bc
000001d0: 6e95 50bc 6f0e 08bc 3846 59bc b716 88bc
000001e0: 5c16 51b8 8900 5dbb 4d4e 643c 45cc 243c
000001f0: 0445 123c 542c 203c e39e 6c3b 0ccc 8e3c
00000200: 62e6 8b3c 9e32 543a ca78 adbc a3e9 bbbc
00000210: 3128 84bc 1f97 4e3b 0345 503c 12ad 573c
00000220: 7f1d 333c 3868 79bc f8c1 353c a9e2 9b3c
00000230: e976 1cbc efa0 fcbb c039 c0bb f541 c4bc
00000240: 79f2 fabb 6e4e d1bb 81c0 0abc 13b3 5ebc
00000250: 0aa8 66bc 8e45 cf3c c6ed 893c 2a0d 2b3c
00000260: 4d9f 713c e626 c6bb cc54 d6bc f983 4f3c
00000270: adae 3d3d 7845 3a3d 1be8 863b b466 873c
00000280: bb50 963d 29df 843c 178c 853d e7ac 643d
00000290: afc9 ec3c 8a42 673c 5f77 873c 16e1 973b
000002a0: 6532 99bb 7f05 29bc 7b55 e4bb 6b5c 14bb
000002b0: b1c0 16bc 790c f3bb 4a48 a1bc 5965 b1bc
000002c0: a190 f73b 2b09 2ebc 10f1 ae3c 72db e3bc
000002d0: 9073 af3b 0a8b 573c b8cf 0b3a 29ea 833c
000002e0: 481d 013d 8c3a 113d d892 e63c 7228 db3b
000002f0: c317 ddbb 7b01 e13c d4ca de3b 6b1c 1a3d
00000300: 2858 94ba 8231 d43c 9a50 6d3b 58b5 5fbc
00000310: 6e51 a3bc db4f 833c 4b00 0cbc 9a74 dcbc
00000320: f5df 97bc 9381 8cbc 0e75 adbb fe5e 25bb
00000330: a83b 04bc 978c 0bbc 4746 92bc bbc6 b7bc
00000340: a516 fd3b dab5 88bc a021 d63b 4aeb 263d
00000350: 968b 59bb 4c10 9cba 6c26 e93c fe8a ba3a
00000360: b0ac e7bb 67e2 dbbc dc90 b43b c2cf 8abc
00000370: 220d 1bbc ff05 f33c d1fe 08bd b2a4 31bc
00000380: 12b3 283b db60 f4bc 1e35 dabb f764 113d
00000390: 6ade c2bc 7a09 d7bc 8b51 4eba 4c16 6fb9
000003a0: b4e1 afbc b6de 223d c936 4e3c dedc 183c
000003b0: fec0 d8bb af81 7fbb 7f8f 22bc 5930 2dbc
000003c0: d3f7 513c b796 16bb 48c0 c13c a412 36bb
000003d0: 73b3 eabc e891 173b dab1 b9ba 97b8 57bc
000003e0: 6076 bfbc ce58 3a3d 4613 de3c 1d43 633d
000003f0: 0823 233c 839a f73c 58f0 a0bc d39f c8bc

fc1.bias f4 [4]
0.12532051 -0.002431609 0.004152632 0.0772187
00000000: 0554 003e a15b 1fbb cd12 883b d624 9e3d

fc2.weight f4 [2, 4]
-0.34471712 0.03523552 0.17410521 -0.48183826 0.3419925 0.3211809 -0.26845464 -0.010525276
00000000: c37e b0be 1f53 103d a348 323e 81b3 f6be
00000010: a419 af3e d371 a43e e372 89be 3572 2cbc

fc2.bias f4 [2]
0.24480772 0.43431073
00000000: e0ae 7a3e fa5d de3e

qnn.weight f4 [4]
-0.36901304 -1.0685575 -0.061419103 0.5474407
00000000: 47ef bcbe 7ec6 88bf 9992 7bbd 1325 0c3f

qnn._weights f4 [4]
-0.36901304 -1.0685575 -0.061419103 0.5474407
00000000: 47ef bcbe 7ec6 88bf 9992 7bbd 1325 0c3f
