models/classification/2qubits/oasis-2_axial_2qubits.pt (torch, 113671 bytes, 10 tensors)

conv1.weight f4 [2, 1, 5, 5]
00000000: 79f7 54be 2d98 15be de7f 1ebe c7e9 5ebd
00000010: 4404 bdbd f010 63bc ead2 34b9 14c9 d4bb
00000020: 47f5 333e 7f7e 7bbd 3ec3 46be 13e6 49be
00000030: 59c6 98bd 73b2 dcbd 59ec 23bd 1fdc f13c
00000040: 5b38 0a3e 3e8a 61bd 73e4 9e3d d144 973e
00000050: 4688 92bd 2bd1 923d 68c7 fd3d 0a05 343e
00000060: 1197 833e 0617 883d 9702 d7bd 48b7 b1bc
00000070: 3448 3dbe 06b8 343e 1901 733d 0277 3d3e
00000080: 2a7a 153d 7d76 6dbc e9c1 583e 0556 333d
00000090: 7901 ddbd c88a 61b9 beb7 93bd 5dad 603e
000000a0: 3a31 2ebd 32e9 1dbe bb83 94bd e572 10bd
000000b0: 5523 ed3d f548 db3d db13 363e 66b7 febc
000000c0: 2679 083d fa50 583e
-0.20797528 -0.14608832 -0.15478465 -0.054422166 -0.09229329 -0.013859019 -0.0001724471 -0.006493697
0.17574035 -0.061399933 -0.19410416 -0.19716673 -0.07459707 -0.10776224 -0.04002032 0.029523907
0.1349806 -0.05506348 0.07758417 0.2954469 -0.07154898 0.07168802 0.12391549 0.17580047
0.25701192 0.06645016 -0.10498541 -0.02169384 -0.18484575 0.17648324 0.05932722 0.18502429
0.036493458 -0.014493582 0.21167721 0.043783206 -0.107912965 -0.00021509372 -0.072127804 0.21941133
-0.042527415 -0.15420988 -0.07251688 -0.035265822 0.11579005 0.10707275 0.17781012 -0.03109331
0.03331866 0.2112464

conv1.bias f4 [2]
00000000: e74b b7bb c83c ffbd
-0.005593765 -0.12462765

conv2.weight f4 [8, 2, 5, 5]
00000000: b93f 873d c049 dd3d 4ccf da3d 4645 06be
00000010: 9a6e b03d af4d 42bd 48ee e03c 0c9b 62bd
00000020: 3aa9 0c3e c5ff ff3c 5123 343e 7637 20be
00000030: 6e75 69be c115 0cbd 8735 763e 7dc0 043e
00000040: 4faf 59be 669e 13be 496a ce3c 9c46 5bbd
00000050: bb70 ab3d 16ed 25bc f3e2 e23b b745 743d
00000060: d6d6 bd3d f0f3 aabc 5db2 cf3d f41f cfbd
00000070: 7f11 3d3b 44a8 0f3e b246 543e 8a46 233e
00000080: 805a aebd 6943 d9bd 98cb 91bc 1af9 083e
00000090: 33b1 f1bd 88c1 aebd 6d5b b03d 5d98 633d
000000a0: b4ef fe3d 9250 e3bd b638 1abe 3226 5d3c
000000b0: 2b68 073e 5870 1abe f023 07be 9858 06be
000000c0: 012f 12be 14c9 763d 60ed d7bc 2f86 9a3b
000000d0: 8c80 ba3d 2897 e33b 4be0 123d 61d6 e5bc
000000e0: 211f fe3d 9809 783d 7c25 d3bd 6ede 373c
000000f0: 2901 04be 7d71 85bd 722b e5bc 6ced 29bd
00000100: 5acb 173d 6423 acbd d762 063e d801 9abd
00000110: 0c6f b0bd 88bf 0e3e 4df7 9c3c 6d25 82bd
00000120: 8401 d7bd 944b d43d 1781 c5bd 1097 cc3d
00000130: a8c8 99bd 26d9 843d a047 24bd 3a0e ca3d
00000140: b81b 23bd 2d7d 1cbe 741b a83d db9f d03d
00000150: e33a 0dbe 0764 b8bc 5ecc f33b 75fc 993c
00000160: 25da debd 0154 0dbe 1101 ef3d 9607 983d
00000170: 7bac 1cbd a55e d13b 4367 10be 5339 03bc
00000180: 8c16 b4bd e079 0fbe ecba a93d 7a88 4c3b
00000190: 908e 543d 1c43 49be 0842 47be 72ad 763d
000001a0: 79bb cb3d 82c7 3dbe e4b3 c53c ebfc 2b3d
000001b0: b517 cd3d 9f00 723d e12a 5bbe d087 553d
000001c0: 6185 083e a207 f6b9 661b 0fbe 5c0e 56bd
000001d0: 1c0e 36bd 30b7 543e 9a1f 0e3e 5578 8ebd
000001e0: e9a0 453e a80f ea3d 30e2 0f3e 17e7 46bc
000001f0: d137 933c d42b e13d e6c8 a43d 66d5 e7bd
00000200: 1c40 4cbc a89c f1bd d9eb efbd 8e9f 013e
00000210: f7eb 1d3d 6e4a c53c e840 a83d 3b29 913d
00000220: 9983 993d cb0a 0d3e 63d4 febd 82be 1abe
00000230: 9754 b8bd 1bf5 203e f358 253e ff38 63bc
00000240: 1024 663d 7cd5 cb3d 2bab c23d 651c 8dbb
00000250: 1ff8 903d e950 d73d cd9e 2c3e 07ef 133e
00000260: 31dd 83bb 89f7 dd3c 0ca3 d13d 2513 973c
00000270: b3b9 93bd a1f3 973d 3599 b1bc 1778 433c
00000280: 25ea 053e dddd 1dbd ab1c 75bd 6d06 ee3c
00000290: e0a1 e83d d72b 993b 93bf efbd 6192 59bc
000002a0: 2bc8 a63d 6512 c8bb 73b8 17be 1d4e a3bc
000002b0: 9155 933d 1f51 ab3d 9191 1d3e d4fe d5bd
000002c0: bfbe 08be 6ceb 14be bdcb 86bb 30c7 0fbe
000002d0: 13de 003c 6a8d 1bbe b2e7 1abe 923b 88bc
000002e0: 2bf3 f7bd 8993 66bd c70b 24bd 00ec 23be
000002f0: 8dc5 103e 8624 273e 69a9 d7bd bd6e f3bd
00000300: 0097 e5bc b80c 273e 300c 933d c2a2 50be
00000310: d0e3 3ebe b9ff e7bd c89c 8e3d e0ec e43d
00000320: 16f2 5ebe 3ad7 8a3d 0d62 f83d c662 f73d
00000330: 29ed 263d f58e 2cba dea5 5b3e d52d 2a3e
00000340: a568 dc3d d4c2 643d ccb0 4f3e 548d 3b3e
00000350: 849e 83bd 3a30 27be 85c6 85bd 78d3 01bd
00000360: a9d7 563d 83ec 99bd 3426 863d 458a aa3d
00000370: 2611 663d fba0 46be f475 0d3c 1735 2bbe
00000380: 622f d1bd b1c4 81bd 9a52 3fbd dbd2 f9bd
00000390: 7b75 243d 0122 153e 5452 a73d 176f 9a3d
000003a0: ab32 f13d 3b7d 143d c1a9 b9bd f8e6 30bd
000003b0: f975 f83d fc0a 043e 3e83 16bd 236c 313c
000003c0: ea62 e13d 7482 e2bd 6c20 cf3d 56d0 233d
000003d0: 66ca 943d 12b2 50bc f31c 41bd b9d3 0d3d
000003e0: 2b4a 163e 6f15 853c 0c1a b53d 1c5d ea3b
000003f0: e64d df3d d608 f2bd 90ff 1bbe 27eb 063d
0.06603951 0.10805082 0.1068407 -0.13112363 0.086148456 -0.047437366 0.027457371 -0.055323645
0.1373643 0.03124989 0.17591597 -0.15646157 -0.22798702 -0.034200434 0.24043857 0.12964053
-0.21258281 -0.14415893 0.025197165 -0.053534135 0.08371111 -0.0101273265 0.006924027 0.059636798
0.09269492 -0.020868272 0.10141442 -0.101135164 0.002884954 0.14029032 0.20730093 0.15944877
-0.08513355 -0.106085606 -0.017797276 0.13376275 -0.11801376 -0.08533007 0.08611188 0.055565227
0.124480635 -0.11099352 -0.15060696 0.013497876 0.1322333 -0.15081918 -0.13197303 -0.13119733
-0.14275743 0.060250357 -0.026358306 0.004715703 0.091065496 0.0069455095 0.035858434 -0.028056325
0.12408281 0.060556024 -0.10309884 0.011222465 -0.12891068 -0.06515787 -0.027974818 -0.04148619
0.037059166 -0.08405188 0.13123642 -0.07519883 -0.086149305 0.13940251 0.019160891 -0.06354795
-0.10498336 0.10365978 -0.096437626 0.099897504 -0.07508975 0.0648673 -0.04010737 0.09865995
-0.039821357 -0.15282126 0.08208361 0.1018674 -0.13791995 -0.022508634 0.007440134 0.018797139
-0.108814515 -0.13801576 0.11670125 0.07423322 -0.038250428 0.0063894563 -0.14101891 -0.008009273
-0.08793363 -0.14011335 0.08287606 0.0031209276 0.05189377 -0.19654506 -0.19458783 0.060224004
0.09947867 -0.18533137 0.02413363 0.04198925 0.100142874 0.059082624 -0.21403076 0.052131474
0.1333213 -0.00046926463 -0.13975295 -0.052259788 -0.04444705 0.20773005 0.13879243 -0.06956545
0.19299664 0.114287674 0.14051127 -0.012140057 0.017970951 0.10994688 0.08046131 -0.113199994
-0.012466457 -0.11797458 -0.11714906 0.12658522 0.03855511 0.024083342 0.08215505 0.07087942
0.074958034 0.13773648 -0.12442853 -0.15111735 -0.09000509 0.157185 0.16147213 -0.013868569
0.056186736 0.09952828 0.09505304 -0.0043063634 0.07078575 0.10513479 0.16857453 0.1444665
-0.004024171 0.027095573 0.10236177 0.018441746 -0.07213154 0.074195154 -0.0216795 0.011930487
0.130776 -0.038541663 -0.059841793 0.029055798 0.11359 0.0046744156 -0.11706462 -0.013279528
0.08143648 -0.0061057084 -0.14816456 -0.019934708 0.07194055 0.08365082 0.1538756 -0.10448995
-0.13354014 -0.14542931 -0.004113643 -0.14040828 0.007865447 -0.15190664 -0.15127447 -0.016629968
-0.121069275 -0.056293044 -0.040050294 -0.16007996 0.1413786 0.16322526 -0.10530359 -0.11886356
-0.028026104 0.16313446 0.07180059 -0.20374587 -0.18641591 -0.11328072 0.069634974 0.11177993
-0.21772036 0.067793325 0.12128077 0.120793864 0.040753517 -0.00065825816 0.21449992 0.16619046
0.10762147 0.055849865 0.20282286 0.18315631 -0.06426719 -0.1632699 -0.06532005 -0.031695813
0.052451763 -0.07515814 0.065502554 0.08327154 0.056168698 -0.19397347 0.008634079 -0.16719471
-0.10214116 -0.06336344 -0.046709634 -0.121984206 0.0401511 0.14563753 0.0817 0.0754072
0.11777242 0.03625224 -0.09065581 -0.04318902 0.121318765 0.12894815 -0.036746256 0.010829004
0.110051945 -0.11060038 0.10113606 0.039993607 0.07265167 -0.012737768 -0.04714675 0.034625743
0.1467673 0.016245572 0.08842859 0.007152213 0.1090353 -0.118180916 -0.15234208 0.032939103

conv2.bias f4 [8]
00000000: aa87 753c 5c3f 20be 1642 44bc efb5 7b3d
00000010: e059 63bd 509f 7bbd 4711 ac3d bb00 2cbc
0.014985958 -0.1564917 -0.011978647 0.061452802 -0.055505633 -0.06143123 0.08401733 -0.010498221

fc1.weight f4 [4, 6728]
00000000: b464 2a3b 5eb9 763b 86f5 acbb 1528 083c
00000010: a97f 8abb e759 06bb 5704 483c 1423 8a3b
00000020: 95bf c83b c78e 593b 820f 873c 69df e03c
00000030: 528d 983c 2ce8 ac3c 881c b73b be7f fe3b
00000040: 7cd1 c03c fd7d d23c a4bf b53b 5627 873c
00000050: 1e46 e3ba 75de d7ba 3b4c 9b3c 81c8 3ebb
00000060: 3d46 303c 20bc 0d3c 7827 9d3c 5937 f2bb
00000070: f5a4 b03c ad22 183a c849 363c 4d4c 163b
00000080: f712 733c 4dc6 38bc bf43 25bb 69da 2fbb
00000090: 7507 333b b646 8e3c e420 953c f843 083d
000000a0: fc78 6a3c e47e 893c 36af 953c 2738 d23c
000000b0: c3d2 d03b 7ad9 16b9 1c1c 6d3b 80b8 1a3c
000000c0: 35f1 6a3c f0b2 563b f897 473c 70f7 753c
000000d0: 6561 253c 77e1 613c bdf7 2d3c 80a9 773c
000000e0: 9212 babb c943 8b3c ce41 2e3c ae70 403c
000000f0: 72e0 d43a 28ff 443c 9253 403c 3c2d b33c
00000100: a44b 513c 34c3 3f3c 6c76 013b 6bfe ea3b
00000110: 1bd9 86bc 367a 37bc 9e8e cdbb fe76 c5bc
00000120: f96d 1fbc ac09 6b3b b637 2f3b f481 1ebc
00000130: 6bed 81bc 7563 213c ab96 9d3c 2331 f93c
00000140: 9a37 2f3b 65ce f8bb 7412 5e3c 37eb 3cbb
00000150: 758b 343c 28ef 08bb bcff 423a 6bf5 ad3c
00000160: 1756 27bc e942 ce3b 6cfd 933b 6711 e53c
00000170: fcc2 a93c 5b46 25bb 9f12 79bc 5157 2dbd
00000180: 59b6 c3bc 0921 69bc f428 49bc e5d4 caba
00000190: 9379 913b 11cd f2ba 9dfb c9bb b557 e5bc
000001a0: 8a47 c3bc 026c 90bc dfec bdbc d0ac b6bc
000001b0: 7c63 abbc f895 933c 179e a83c e16c 42bb
000001c0: 5877 243c 65d1 a73b d2ff 7f3c 5b4a 0c3c
000001d0: 3188 3fbc f20d c0bc 4cd0 7c3c a33e ee3b
000001e0: 4c4b 203a 3300 89bc d3ba 50bc 8985 62bc
000001f0: 5593 42ba d029 d13c ebaa a73c 114d 6dbc
00000200: 994e 5fbc cc78 ca3b 3097 25bb 2eeb 8f3c
00000210: 07e4 f83b 824f 81bb 6d39 89bc bc9c 40bb
00000220: 6995 283d c71f 25bc 6514 07bd 58d7 01bd
00000230: 4f49 863c e185 103c b4cd 4b3c ea4b 3d3a
00000240: 9c66 8a3b 384f 013c 5609 8c3a 589e f33c
00000250: e5da f2bc 57cf 80bc bdfc 393b 26d4 8abc
00000260: 409f 9ebc 7ad2 7a3c c36e 273c 2864 953c
00000270: e279 053d 2f10 483c b064 69bc 4739 503c
00000280: 4a2e c13b 395f 483b 4fb3 80bc 0472 8dbc
00000290: b3bc 14bc 5d2d 2ebc d0fb 0abc 8700 d13c
000002a0: e2c5 963c 92e8 133c bb10 20bc ece2 d5bb
000002b0: 4226 683c 6ea8 123d 3315 e2bc 7a00 483c
000002c0: 8c90 bcbc da1b ce3b bd31 383d 0680 a53c
000002d0: 4498 a33c fbb3 183d 6588 ca3b 51f3 a1bb
000002e0: e7cd afbc 69ae b23c ffe8 e23b d8aa a138
000002f0: 6c02 a73c 468d 10bc 2709 adbc c96b 313b
00000300: 54a8 693a b827 173d c1ca 053c 918b 8339
00000310: 822c 56bd 9864 0bbd 3e5e 0e3d 240c 103d
00000320: 2f7c c43b 64ea b53a 2bb9 983c 8942 023d
00000330: c93c afbc 1f57 03bd 3b50 9f3d fd62 e03b
00000340: 2661 d03b 524e 243d 89cc 603c 6ad5 563c
00000350: 0cb5 3f3c 75f1 8cbb 8fce 02bc 66ca 8dbc
00000360: 06da 943b e8c0 1a38 a61d 7dbc 9379 c5bc
00000370: 7d7c 973b 3b55 363c 9c1a 1c3c 4188 dbbc
00000380: 4c9a cfba 2afb 0d3d 5f09 99bc 8b28 74bc
00000390: 14e8 143d 040e 963c 4436 ef3c 894d 913c
000003a0: e496 8cbc 330d 7bbd 9063 cd3c 91b4 f13b
000003b0: ca99 d63c 324d 143b ab0b 4d3c e820 7c3c
000003c0: 81e6 533c 1965 9e3c 470c 973c dc4c a13c
000003d0: 5322 523c d45d cd3c ac42 5bbc d6f5 c73c
000003e0: d0c0 1ebb 25ce 0e3d 41b4 3a3d e186 073d
000003f0: 33e3 be3c e9aa 193d 65f4 523b 5cc8 9fbb
0.0025999965 0.0037647109 -0.005278292 0.008310338 -0.004226644 -0.0020500363 0.012208066 0.0042156074
0.006126354 0.0033196674 0.016486887 0.02745028 0.018622074 0.021106802 0.005588118 0.007766693
0.02353739 0.025694842 0.005546527 0.016498249 -0.0017339622 -0.0016469496 0.018957248 -0.002911121
0.010758934 0.0086508095 0.01918386 -0.007391852 0.021563033 0.0005803507 0.011125989 0.0022933662
0.014836065 -0.011277747 -0.0025217382 -0.0026833063 0.0027317677 0.017367702 0.01820416 0.033267945
0.0143110715 0.016784139 0.018272024 0.025661541 0.006372781 -0.00014386131 0.0036180085 0.009443402
0.014339735 0.0032760464 0.012182228 0.015012607 0.010094021 0.013786665 0.010618147 0.015116096
-0.0056784833 0.017000096 0.010635806 0.011745615 0.0016241206 0.012023725 0.011738675 0.021872155
0.012774382 0.011704255 0.0019754423 0.0071714423 -0.016460946 -0.011198571 -0.006273105 -0.024104591
-0.009730809 0.003586392 0.0026736087 -0.009674538 -0.01586028 0.009850373 0.019236883 0.030418938
0.0026736022 -0.0075929635 0.013554204 -0.0028826722 0.011019577 -0.0020894501 0.000743862 0.021235188
-0.0102133965 0.0062945974 0.004516294 0.0279624 0.020722859 -0.0025218937 -0.0152021935 -0.0423196
-0.023890661 -0.014229068 -0.01227783 -0.0015474824 0.0044395416 -0.0018524249 -0.006164028 -0.027995924
-0.023837823 -0.017629627 -0.023184238 -0.0222992 -0.020921461 0.018015847 0.020583196 -0.0029666948
0.010038219 0.0051213973 0.015624957 0.00856265 -0.011690185 -0.02344415 0.015430521 0.0072706505
0.0006114736 -0.016723728 -0.012739855 -0.013825783 -0.0007422467 0.025532633 0.020467242 -0.014483706
-0.013629579 0.006178951 -0.0025267117 0.017568197 0.0075955424 -0.0039462456 -0.016751016 -0.0029390296
0.041158114 -0.010078377 -0.032978434 -0.03169951 0.016392378 0.008820982 0.01243918 0.000722109
0.004223658 0.007892422 0.0010683935 0.02973859 -0.029645393 -0.015723867 0.0028379404 -0.016946863
-0.019363046 0.015308971 0.010219279 0.018236235 0.03258694 0.01221089 -0.014245197 0.0127089685
0.0058954107 0.0030574335 -0.015710501 -0.017266281 -0.0090781925 -0.010630933 -0.008482888 0.025512947
0.018404905 0.009027617 -0.009769614 -0.0065272953 0.014169278 0.03580516 -0.027598 0.012207145
-0.023018144 0.0062899413 0.04496931 0.020202648 0.019970067 0.037281018 0.0061808103 -0.0049423357
-0.021460487 0.02181168 0.006924748 7.7089004e-05 0.020386897 -0.008822745 -0.021122528 0.0027072302
0.00089133275 0.036903113 0.008166016 0.00025090252 -0.05228854 -0.03403148 0.034757845 0.03516783
0.005996249 0.0013879058 0.018642982 0.031801734 -0.02139129 -0.032065507 0.077789746 0.006847738
0.0063592372 0.040113755 0.01372064 0.013112405 0.01170088 -0.004301245 -0.007983818 -0.017308425
0.004542592 3.689612e-05 -0.015448963 -0.024105823 0.0046229945 0.011128719 0.009527829 -0.02679837
-0.0015838831 0.034663357 -0.018681226 -0.014902244 0.03635414 0.01831723 0.02920068 0.017737167
-0.017161794 -0.061291885 0.02507189 0.0073762615 0.02619638 0.002262902 0.012514989 0.015388705
0.012933374 0.019335316 0.018438471 0.01968997 0.012825566 0.025069155 -0.013382595 0.024409216
-0.0024223812 0.034864563 0.04558206 0.033087615 0.023301696 0.03751651 0.0032189128 -0.0048761796

fc1.bias f4 [4]
00000000: d1ad 0f3e fb52 6abc 1a76 4d3e cd6a 5dbb
0.1403115 -0.014302011 0.20064583 -0.0033785582

fc2.weight f4 [2, 4]
00000000: 579e c5be f207 e43e ba0e e6be cc2f 6f3e
00000010: b81d 173e 057e a0be d096 3d3e 9fda b6bd
-0.38597366 0.44537312 -0.4493311 0.23358077 0.1475743 -0.31346145 0.18514562 -0.089284174

fc2.bias f4 [2]
00000000: 7181 38be a215 5cbe
-0.18018128 -0.21492627

qnn.weight f4 [4]
00000000: b244 95bf 29a2 c93e 7d7f a2be 0eb7 94bd
-1.1661589 0.3938153 -0.3173789 -0.072614774

qnn._weights f4 [4]
00000000: b244 95bf 29a2 c93e 7d7f a2be 0eb7 94bd
-1.1661589 0.3938153 -0.3173789 -0.072614774
