models/classification/control/coronal/oasis-2_coronal_2qubits_r5.pt (torch, 59154 bytes, 10 tensors)

conv1.weight f4 [2, 1, 5, 5]
0.05385056 -0.0754488 -0.0046145595 -0.057757694 -0.060163744 -0.04620841 -0.19736566 -0.055461578
0.15806393 0.13213749 -0.11267943 0.114207536 0.11059102 -0.0071063535 0.080831334 0.106750324
0.13163693 0.2780833 -0.036743015 0.26663476 0.14947176 0.15342744 -0.024693899 0.27098897
0.2507012 -0.18605877 -0.16303377 -0.039494436 0.08834789 -0.015497693 -0.0024926679 0.02133681
0.16443107 -0.0063367067 -0.037193287 0.07986661 -0.1153548 0.035228245 -0.03388134 -0.096039996
0.18632236 -0.043889705 0.28496718 0.2423441 0.18305854 0.20607898 0.090720914 0.23437542
-0.02956477 -0.10036432
00000000: 6892 5c3d e784 9abd bb35 97bb 5593 6cbd
00000010: 426e 76bd 0845 3dbd 391a 4abe ae2b 63bd
00000020: 83db 213e 0d4f 073e 79c4 e6bd a4e5 e93d
00000030: 8b7d e23d 6adc e8bb e68a a53d ea9f da3d
00000040: d5cb 063e ef60 8e3e d87f 16bd 5a84 883e
00000050: 200f 193e 151c 1d3e dc4a cabc 11bf 8a3e
00000060: e85b 803e 3186 3ebe 53f2 26be ebc4 21bd
00000070: bdef b43d 09ea 7dbc 075c 23bb 89ca ae3c
00000080: 9e60 283e 26a4 cfbb fd57 18bd 1b91 a33d
00000090: 233f ecbd 7e4b 103d 29c7 0abd 9eb0 c4bd
000000a0: 4acb 3e3e b1c5 33bd 38e7 913e 0d29 783e
000000b0: b373 3b3e 5e06 533e e3cb b93d 1c00 703e
000000c0: d131 f2bc cf8b cdbd

conv1.bias f4 [2]
-0.10156483 -0.12050302
00000000: 3901 d0bd 4aca f6bd

conv2.weight f4 [4, 2, 5, 5]
-0.14159809 0.112478875 -0.09093673 0.027650034 -0.043684997 0.0022884794 -0.13476683 -0.032957155
0.16960521 0.013607707 -0.06874996 -0.1430699 -0.006312509 0.01956834 0.18850994 -0.13013895
-0.096872665 0.00066286034 -0.07734158 0.18407728 0.02380991 0.14131075 0.1551641 0.08111578
-0.10801584 0.009958245 -0.021434039 0.009344463 0.06887517 -0.10810711 -0.11804528 0.041393224
0.004106132 -0.09520046 0.12075798 -0.14099768 -0.041828085 -0.11319845 0.05138144 0.20876408
-0.0128197465 -0.1813384 0.0266829 0.07162528 -0.064012386 -0.14075257 0.1634498 0.011450364
0.15095612 0.10848578 -0.07532455 0.009558157 0.035914883 -0.04582743 -0.009306217 0.047581542
0.12760192 0.12707168 -0.052868087 -0.062082544 0.10593784 0.1329568 0.057201102 -0.13788076
0.06593369 0.13716821 0.087436646 0.14373393 -0.068337046 -0.0873711 0.013288365 -0.07022428
0.10840403 -0.09547444 0.11050273 0.057832554 0.04672052 0.15650074 0.22783825 -0.16419075
0.12858118 0.17527717 0.080986835 0.18420191 0.079555534 0.089273885 0.094338894 0.2668493
0.013967736 0.07347166 -0.029871833 0.015009477 0.01515787 -0.013172883 0.05599864 -0.15451226
-0.16607049 -0.0052823443 -0.013456714 0.06871253 -0.029448738 0.09058876 0.13567735 0.06369495
-0.14039119 0.041687377 0.15010752 0.05900965 -0.0026157754 0.025672266 0.03939044 0.124551795
-0.08212313 -0.11494542 0.06619713 -0.022545796 0.078547105 -0.1576839 -0.102949016 -0.060038835
0.099096276 -0.100336745 -0.09879343 0.015339394 -0.041120272 -0.04799107 -0.06883152 -0.0023962841
0.076861314 0.13744055 0.09879789 0.085486434 0.12282271 0.27986446 0.15314344 0.08179082
0.05673016 0.043893315 -0.17225677 -0.0392073 0.14194478 -0.16431303 0.055748485 0.02311132
-0.031412452 -0.021371722 0.05810876 -0.008244181 0.06322681 -0.05547778 0.0601978 0.17834276
0.04402756 -0.12252536 0.016742498 0.17546602 0.060922284 -0.099666916 -0.08571517 -0.12325935
-0.039611407 -0.0007804309 0.12424683 -0.0065445327 -0.0054273847 0.16045082 0.104682736 -0.013427029
0.057111993 -0.05928735 -0.0061659124 -0.039095093 0.034275666 -0.10164339 0.07205001 0.03591196
0.0095365485 0.21328707 0.06809476 -0.124150835 0.19257237 0.057048094 -0.015366184 0.013461791
-0.18509369 0.06285171 0.11474552 -0.043643635 0.00083131663 -0.14583547 0.11085622 0.06511339
-0.028300757 -0.05989794 0.117779024 -0.084655166 -0.20400149 -0.02933248 -0.05324303 0.12992692
00000000: 17ff 10be 535b e63d 093d babd 5382 e23c
00000010: 0aef 32bd 50fa 153b 5100 0abe 15fe 06bd
00000020: fdac 2d3e dcf2 5e3c c7cc 8cbd ea80 12be
00000030: 2ad9 cebb c94d a03c c008 413e 2543 05be
00000040: 2d65 c6bd cec3 2d3a 4365 9ebd c17e 3c3e
00000050: 000d c33c c4b3 103e 56e3 1e3e 0820 a63d
00000060: 6937 ddbd e827 233c 7096 afbc 8519 193c
00000070: 6d0e 8d3d 4367 ddbd b9c1 f1bd f18b 293d
00000080: bb8c 863b 75f8 c2bd f64f f73d b261 10be
00000090: ed53 2bbd 97d4 e7bd 5875 523d 40c6 553e
000000a0: ea09 52bc c6b0 39be 1996 da3c 46b0 923d
000000b0: ed18 83bd 7121 10be 625f 273e 4f9a 3b3c
000000c0: 3e94 1a3e cb2d de3d c243 9abd d199 1c3c
000000d0: 7c1b 133d 8bb5 3bbd 1a79 18bc dde4 423d
000000e0: 14aa 023e 141f 023e 358c 58bd 444a 7ebd
000000f0: f0f5 d83d d425 083e b44b 6a3d 9d30 0dbe
00000100: 3e08 873d d375 0c3e fc11 b33d fd2e 133e
00000110: 4bf4 8bbd 9fef b2bd 71b7 593c bfd1 8fbd
00000120: ef02 de3d 1a88 c3bd 414f e23d d4e1 6c3d
00000130: 045e 3f3d bb41 203e 6e4e 693e 9f21 28be
00000140: c9aa 033e dc7b 333e 6ddc a53d 6d9f 3c3e
00000150: 03ee a23d 3ad5 b63d c034 c13d 79a0 883e
00000160: eed8 643c 4f78 963d c6b5 f4bc 4fea 753c
00000170: b758 783c 13d3 57bc d45e 653d 7638 1ebe
00000180: 620e 2abe 8417 adbb 8d79 5cbc 28b9 8c3d
00000190: 7b3e f1bc 9a86 b93d 01ef 0a3e 7f72 823d
000001a0: b5c2 0fbe 62c0 2a3d c9b5 193e 1ab4 713d
000001b0: 6e6d 2bbb a54e d23c df57 213d 0315 ff3d
000001c0: 2c30 a8bd 8168 ebbd 5c92 873d f6b1 b8bc
000001d0: 4edd a03d e377 21be efd6 d2bd 48eb 75bd
000001e0: fdf2 ca3d 5a7d cdbd 3654 cabd 1552 7b3c
000001f0: bb6d 28bd 4992 44bd 8af7 8cbd fa0a 1dbb
00000200: 7769 9d3d 37bd 0c3e 8c56 ca3d 8313 af3d
00000210: 798a fb3d 654a 8f3e a2d1 1c3e f281 a73d
00000220: e25d 683d 7ac9 333d 1464 30be d597 20bd
00000230: f959 113e ad41 28be 8658 643d f353 bd3c
00000240: 58aa 00bd c013 afbc 7303 6e3d 9a12 07bc
00000250: 0f7d 813d ab3c 63bd f891 763d 7c9f 363e
00000260: 3e56 343d 93ee fabd 9027 893c 5dad 333e
00000270: a589 793d 2b1e ccbd 6f8b afbd 666f fcbd
00000280: 923f 22bd d595 4cba 1f75 fe3d 8573 d6bb
00000290: 34d8 b1bb 384d 243e e763 d63d 0bfd 5bbc
000002a0: 44ee 693d 4bd7 72bd 6c0b cabb 2d22 20bd
000002b0: a464 0c3d 692a d0bd f58e 933d 6b18 133d
000002c0: 2f3f 1c3c ed67 5a3e 4475 8b3d cb42 febd
000002d0: b131 453e 43ab 693d 72c2 7bbc d88e 5c3c
000002e0: 3389 3dbe 66b8 803d b3ff ea3d abc3 32bd
000002f0: b7ec 593a e555 15be 9608 e33d 2b5a 853d
00000300: fdd6 e7bc 8b57 75bd 2136 f13d b05f adbd
00000310: c4e5 50be ab4a f0bc 5d15 5abd 900b 053e

conv2.bias f4 [4]
-0.06953484 -0.08658896 -0.04141239 -0.077743374
00000000: 4868 8ebd 8d55 b1bd 0aa0 29bd eb37 9fbd

fc1.weight f4 [4, 3364]
0.012102187 -0.0021866802 0.015422594 -0.011114145 -0.016360253 -0.045323476 0.0137620615 0.026843369
0.051855024 0.061866615 0.03357438 0.018857384 0.03789218 0.033916462 0.030988231 0.0454699
0.034327023 0.07867128 0.058513414 0.046319824 0.034082536 0.0014914339 -0.007825584 -0.04377874
-0.070502594 -0.03466295 0.01012058 0.0015234109 -0.014873071 0.01890378 0.014883368 -0.0010518992
-0.024708841 0.026036035 0.04702616 0.040851768 -0.007816406 0.028290812 0.0032009352 -0.020646662
-0.026497241 0.006308759 0.06526228 0.04424261 0.03529142 0.0040879087 0.0057070036 -0.0034402632
0.012388981 0.008206307 0.006913183 0.036539797 0.004770881 -0.023358101 -0.026897961 0.004789306
0.0019650217 -0.008069536 -0.0068246224 -0.002932895 0.009441482 0.056260023 0.031396013 0.019049918
0.03189078 0.026404813 0.042008154 0.008349428 0.00477536 -0.00839894 -0.0060087377 -0.027645685
-0.04883834 -0.050744012 -0.0011600186 0.02276233 -0.009624432 -0.0102236215 0.0018008793 -0.029921299
0.0030881655 -0.06562673 0.06348187 -0.01917994 -0.034385607 -0.0069055315 -0.012290217 0.004880963
0.038204554 0.03129314 0.045051105 0.029784271 0.024554191 0.059361972 0.007736209 0.064720586
0.081967846 0.040489428 0.0043541575 0.033071637 -0.005231829 0.0024414575 -0.034250896 -0.00035725068
0.035229128 0.030456636 0.007596101 0.029105382 -0.009332938 -0.00075888424 -0.025899712 -0.046372354
-0.037750926 -0.042516053 0.044798587 0.011886194 0.06252861 -0.015338817 0.032243893 0.022039058
0.038009197 0.04107471 0.053368557 -0.001974234 -0.025071999 -0.049463224 -0.048836328 0.03743107
0.043146238 0.05721816 -0.026333444 -0.022061132 0.01358822 -0.043808132 -0.054829963 -0.040081933
0.0002509165 0.04266079 -0.01948032 -0.005968633 0.047975466 0.009821835 -0.013480253 -0.04136243
0.014120461 0.015167406 -0.0044940277 0.06022557 0.015206912 0.0051368163 0.023706406 -0.008918546
-0.03025387 0.053542957 0.026496086 -0.027218904 0.012176555 -0.022594089 -0.0014570534 -0.03877041
-0.0006818234 0.03453025 -0.004598765 -0.041741952 -0.03648454 -0.017081425 -0.05878305 0.013540256
-0.012605906 -0.016730463 -0.041120674 0.016466754 -0.007745248 0.027100135 -0.0037111992 0.029065682
0.018360933 0.0132048745 0.013921069 0.021925498 0.040389016 0.009910728 0.023483539 -0.018585283
0.08294613 0.081955165 0.013404302 -0.05963392 -0.029774647 0.024351632 0.027452404 0.033402096
-0.031420156 0.011510871 -0.019801 0.004101161 -0.0033222642 0.015376525 -0.004499402 -0.03934606
-0.018069517 0.01611033 0.010146931 -0.03254103 -0.016306272 -0.0017794657 0.054041438 0.07317562
0.050125368 -0.007641462 0.020382846 0.007852209 -0.007890447 0.011839358 0.009502682 -0.023450082
0.06900594 0.05218221 0.0012703291 -0.025608052 -0.0035504655 0.052805178 0.004803038 -0.018786922
0.035589848 -0.04101003 -0.021820059 0.0278723 -0.028464817 -0.024183085 0.009030096 0.012381213
0.014886793 0.01042045 0.07380743 0.0050019524 -0.013788304 0.011628831 0.031948432 -0.0059611285
-0.018803963 0.008990327 0.04938385 0.056947406 -0.021868639 -0.028279122 -0.012315821 0.031612907
0.07985658 0.03354474 -0.040988915 0.008470462 0.011981516 -0.04553845 -0.0525978 -0.013704449
00000000: 4048 463c 684e 0fbb 0caf 7c3c 1a18 36bc
00000010: f005 86bc 1ca5 39bd 457a 613c a0e6 db3c
00000020: ef65 543d d967 7d3d 4a85 093d cd7a 9a3c
00000030: d534 1b3d fdeb 0a3d 08db fd3c a53e 3a3d
00000040: 7e9a 0c3d 681e a13d c3ab 6f3d dbb9 3d3d
00000050: 219a 0b3d 387c c33a e136 00bc 5651 33bd
00000060: aa63 90bd bdfa 0dbd cad0 253c 30ad c73a
00000070: 2eae 73bc 1adc 9a3c 5fd9 733c e1df 89ba
00000080: 326a cabc 8649 d53c 819e 403d 2f54 273d
00000090: 6210 00bc 22c2 e73c c8c6 513b 3023 a9bc
000000a0: be10 d9bc b5b9 ce3b 3ba8 853d bd37 353d
000000b0: bc8d 103d ddf3 853b d101 bb3b 0a76 61bb
000000c0: 27fb 4a3c bf73 063c fb87 e23b c1aa 153d
000000d0: 0d55 9c3b 7d59 bfbc 1d59 dcbc 9cef 9c3b
000000e0: 98c7 003b 1636 04bc 15a1 dfbb d035 40bb
000000f0: 72b0 1a3c e970 663d 1b99 003d 930e 9c3c
00000100: e89f 023d e84e d83c be10 2c3d 0acc 083c
00000110: a07a 9c3b b59b 09bc f2e4 c4bb 3479 e2bc
00000120: b60a 48bd f4d8 4fbd c40b 98ba 1178 ba3c
00000130: cbaf 1dbc fa80 27bc 7b0b ec3a 831d f5bc
00000140: d262 4a3b 4f67 86bd c802 823d 401f 9dbc
00000150: ecd7 0cbd cc47 e2bb e85c 49bc 7cf0 9f3b
00000160: 617c 1c3d 3c2d 003d 8287 383d 25fe f33c
00000170: df25 c93c 8a25 733d 0680 fd3b 3a8c 843d
00000180: c2de a73d 3ed8 253d 52ad 8e3b 2076 073d
00000190: c36f abbb dc00 203b ab4a 0cbd 604d bbb9
000001a0: 6b4c 103d 3280 f93c b7e8 f83b 696e ee3c
000001b0: 2ee9 18bc dcef 46ba a22b d4bc f0f0 3dbd
000001c0: b7a0 1abd 5025 2ebd b97e 373d 50be 423c
000001d0: 000f 803d a94f 7bbc 2c12 043d 418b b43c
000001e0: 88af 1b3d f53d 283d fd98 5a3d 2662 01bb
000001f0: cb63 cdbc f399 4abd 9a08 48bd 5251 193d
00000200: 1cba 303d 975d 6a3d 3cb9 d7bc 8cb9 b4bc
00000210: 20a1 5e3c 2870 33bd 6295 60bd f42c 24bd
00000220: 718d 8339 15bd 2e3d 3195 9fbc 8694 c3bb
00000230: ec81 443d c3eb 203c 47dc 5cbc a76b 29bd
00000240: 8259 673c b680 783c a342 93bb 16af 763d
00000250: 6926 793c bd52 a83b f033 c23c 181f 12bc
00000260: f7d6 f7bc dc4f 5b3d 520e d93c 2efa debc
00000270: 2c80 473c 3d17 b9bc 99fa beba b9cd 1ebd
00000280: 65bc 32ba 976f 0d3d 3db1 96bb 9cf9 2abd
00000290: d070 15bd 58ee 8bbc 7fc6 70bd f3d7 5d3c
000002a0: 0189 4ebc 530e 89bc 276e 28bd 49e5 863c
000002b0: d9cb fdbb 1a01 de3c 9737 73bb 271b ee3c
000002c0: ab69 963c 4259 583c 3215 643c 1a9d b33c
000002d0: f46e 253d 9b60 223c 8d60 c03c 2a40 98bc
000002e0: a9df a93d 1cd8 a73d b89d 5b3c b342 74bd
000002f0: f6e9 f3bc 137d c73c dde3 e03c a3d0 083d
00000300: 6cb2 00bd 1898 3c3c b535 a2bc 0863 863b
00000310: 58ba 59bb d2ed 7b3c b86f 93bb 5629 21bd
00000320: 8606 94bc d0f9 833c 503f 263c be49 05bd
00000330: bb94 85bc f63c e9ba 8e5a 5d3d 19dd 953d
00000340: 4250 4d3d 3b65 fabb edf9 a63c 8da6 003c
00000350: ef46 01bc def9 413c 23b1 1b3c 631a c0bc
00000360: fc52 8d3d 03bd 553d 2c81 a63a fac7 d1bc
00000370: edae 68bb 3e4a 583d ce62 9d3b 08e7 99bc
00000380: a9c6 113d 22fa 27bd fbbf b2bc 7354 e43c
00000390: 0c2f e9bc 9b1b c6bc f8f2 133c 92da 4a3c
000003a0: bce7 733c 89ba 2a3c 5a28 973d 6be7 a33b
000003b0: 57e8 61bc da86 3e3c 5cdc 023d 9255 c3bb
000003c0: c50a 9abc 2a4c 133c b846 4a3d af41 693d
000003d0: dc25 b3bc 9ea9 e7bc 4cc8 49bc 897c 013d
000003e0: d98b a33d 3666 093d fee3 27bd b1c7 0a3c
000003f0: 1f4e 443c 8786 3abd ca70 57bd a088 60bc

fc1.bias f4 [4]
0.00014724747 -0.0057828776 -0.0035013736 0.25653708
00000000: 7166 1a39 4b7e bdbb 4d77 65bb d458 833e

fc2.weight f4 [2, 4]
0.18083666 0.25149694 0.12465264 -0.44409138 -0.1246912 0.36092135 0.15957327 0.17870541
00000000: 3f2d 393e 35c4 803e e249 ff3d f25f e3be
00000010: 1a5e ffbd afca b83e 2d67 233e 8dfe 363e

fc2.bias f4 [2]
-0.2493201 -0.42012995
00000000: c54d 7fbe 461b d7be

qnn.weight f4 [4]
-0.3618001 -1.0775295 -0.9215152 0.22417544
00000000: dd3d b9be 7dec 89bf 6ce8 6bbf 3f8e 653e

qnn._weights f4 [4]
-0.3618001 -1.0775295 -0.9215152 0.22417544
00000000: dd3d b9be 7dec 89bf 6ce8 6bbf 3f8e 653e
